Script started on Fri 09 Aug 2019 01:47:13 AM KST
[1;47;30m[sonic@ubuntu:2nd_automation]$[m exitpython3 4th_automated_learning_2.py 
Using TensorFlow backend.
Generate data from the file: 1360_ABlists_389_-26000_-25000_18000_24000
0, 1, 2, 3, 4, 5, 6, 7, 8, 9, Time consumed: 185.3877477645874 (s)
----------------------------------------------------------------
        Layer (type)               Output Shape         Param #
================================================================
            Linear-1              [-1, 1, 4096]       1,871,872
              ReLU-2              [-1, 1, 4096]               0
           Dropout-3              [-1, 1, 4096]               0
            Linear-4              [-1, 1, 2048]       8,390,656
              ReLU-5              [-1, 1, 2048]               0
           Dropout-6              [-1, 1, 2048]               0
            Linear-7              [-1, 1, 1024]       2,098,176
              ReLU-8              [-1, 1, 1024]               0
           Dropout-9              [-1, 1, 1024]               0
           Linear-10               [-1, 1, 512]         524,800
             ReLU-11               [-1, 1, 512]               0
          Dropout-12               [-1, 1, 512]               0
           Linear-13                [-1, 1, 10]           5,130
          Sigmoid-14                [-1, 1, 10]               0
================================================================
Total params: 12,890,634
Trainable params: 12,890,634
Non-trainable params: 0
----------------------------------------------------------------
Input size (MB): 0.00
Forward/backward pass size (MB): 0.18
Params size (MB): 49.17
Estimated Total Size (MB): 49.35
----------------------------------------------------------------
…
Epoch:    4  | Loss = 0.03750 | Val_loss: 0.03432 | Accuracy: 92.85 %
Training Done. 14.708731889724731 (s)
Prediction..
Model Saved.
===================== Training Done. File: ABlists_389_-26000_-25000_18000_24000.npy
Generate data from the file: 1362_ABlists_38_-57000_-56000_20000_26000
data_batch Changed:  5120
0, 1, 2, 3, 4, 5, 6, 7, 8, 9, Time consumed: 20.169515132904053 (s)
----------------------------------------------------------------
        Layer (type)               Output Shape         Param #
================================================================
            Linear-1              [-1, 1, 4096]       1,744,896
              ReLU-2              [-1, 1, 4096]               0
           Dropout-3              [-1, 1, 4096]               0
            Linear-4              [-1, 1, 2048]       8,390,656
              ReLU-5              [-1, 1, 2048]               0
           Dropout-6              [-1, 1, 2048]               0
            Linear-7              [-1, 1, 1024]       2,098,176
              ReLU-8              [-1, 1, 1024]               0
           Dropout-9              [-1, 1, 1024]               0
           Linear-10               [-1, 1, 512]         524,800
             ReLU-11               [-1, 1, 512]               0
          Dropout-12               [-1, 1, 512]               0
           Linear-13                [-1, 1, 10]           5,130
          Sigmoid-14                [-1, 1, 10]               0
================================================================
Total params: 12,763,658
Trainable params: 12,763,658
Non-trainable params: 0
----------------------------------------------------------------
Input size (MB): 0.00
Forward/backward pass size (MB): 0.18
Params size (MB): 48.69
Estimated Total Size (MB): 48.87
----------------------------------------------------------------
…
Epoch:   16  | Loss = 0.03133 | Val_loss: 0.03874 | Accuracy: 93.03 %
Training Done. 7.669696807861328 (s)
Prediction..
Model Saved.
===================== Training Done. File: ABlists_38_-57000_-56000_20000_26000.npy
Generate data from the file: 1364_ABlists_390_-26000_-25000_24000_30000
data_batch Changed:  5120
0, 1, 2, 3, 4, 5, 6, 7, 8, 9, Time consumed: 31.23620104789734 (s)
----------------------------------------------------------------
        Layer (type)               Output Shape         Param #
================================================================
            Linear-1              [-1, 1, 4096]       1,957,888
              ReLU-2              [-1, 1, 4096]               0
           Dropout-3              [-1, 1, 4096]               0
            Linear-4              [-1, 1, 2048]       8,390,656
              ReLU-5              [-1, 1, 2048]               0
           Dropout-6              [-1, 1, 2048]               0
            Linear-7              [-1, 1, 1024]       2,098,176
              ReLU-8              [-1, 1, 1024]               0
           Dropout-9              [-1, 1, 1024]               0
           Linear-10               [-1, 1, 512]         524,800
             ReLU-11               [-1, 1, 512]               0
          Dropout-12               [-1, 1, 512]               0
           Linear-13                [-1, 1, 10]           5,130
          Sigmoid-14                [-1, 1, 10]               0
================================================================
Total params: 12,976,650
Trainable params: 12,976,650
Non-trainable params: 0
----------------------------------------------------------------
Input size (MB): 0.00
Forward/backward pass size (MB): 0.18
Params size (MB): 49.50
Estimated Total Size (MB): 49.68
----------------------------------------------------------------
…
Epoch:   11  | Loss = 0.03862 | Val_loss: 0.04016 | Accuracy: 92.55 %
Training Done. 5.422392845153809 (s)
Prediction..
Model Saved.
===================== Training Done. File: ABlists_390_-26000_-25000_24000_30000.npy
Generate data from the file: 1366_ABlists_391_-26000_-25000_30000_36000
data_batch Changed:  5120
0, 1, 2, 3, 4, 5, 6, 7, 8, 9, Time consumed: 26.693251371383667 (s)
----------------------------------------------------------------
        Layer (type)               Output Shape         Param #
================================================================
            Linear-1              [-1, 1, 4096]       2,056,192
              ReLU-2              [-1, 1, 4096]               0
           Dropout-3              [-1, 1, 4096]               0
            Linear-4              [-1, 1, 2048]       8,390,656
              ReLU-5              [-1, 1, 2048]               0
           Dropout-6              [-1, 1, 2048]               0
            Linear-7              [-1, 1, 1024]       2,098,176
              ReLU-8              [-1, 1, 1024]               0
           Dropout-9              [-1, 1, 1024]               0
           Linear-10               [-1, 1, 512]         524,800
             ReLU-11               [-1, 1, 512]               0
          Dropout-12               [-1, 1, 512]               0
           Linear-13                [-1, 1, 10]           5,130
          Sigmoid-14                [-1, 1, 10]               0
================================================================
Total params: 13,074,954
Trainable params: 13,074,954
Non-trainable params: 0
----------------------------------------------------------------
Input size (MB): 0.00
Forward/backward pass size (MB): 0.18
Params size (MB): 49.88
Estimated Total Size (MB): 50.05
----------------------------------------------------------------
…
Epoch:    7  | Loss = 0.05180 | Val_loss: 0.04685 | Accuracy: 92.62 %
Training Done. 3.4535868167877197 (s)
Prediction..
Model Saved.
===================== Training Done. File: ABlists_391_-26000_-25000_30000_36000.npy
Generate data from the file: 1368_ABlists_392_-26000_-25000_36000_42000
data_batch Changed:  5120
0, 1, 2, 3, 4, 5, 6, 7, 8, 9, Time consumed: 31.06092357635498 (s)
----------------------------------------------------------------
        Layer (type)               Output Shape         Param #
================================================================
            Linear-1              [-1, 1, 4096]       2,396,160
              ReLU-2              [-1, 1, 4096]               0
           Dropout-3              [-1, 1, 4096]               0
            Linear-4              [-1, 1, 2048]       8,390,656
              ReLU-5              [-1, 1, 2048]               0
           Dropout-6              [-1, 1, 2048]               0
            Linear-7              [-1, 1, 1024]       2,098,176
              ReLU-8              [-1, 1, 1024]               0
           Dropout-9              [-1, 1, 1024]               0
           Linear-10               [-1, 1, 512]         524,800
             ReLU-11               [-1, 1, 512]               0
          Dropout-12               [-1, 1, 512]               0
           Linear-13                [-1, 1, 10]           5,130
          Sigmoid-14                [-1, 1, 10]               0
================================================================
Total params: 13,414,922
Trainable params: 13,414,922
Non-trainable params: 0
----------------------------------------------------------------
Input size (MB): 0.00
Forward/backward pass size (MB): 0.18
Params size (MB): 51.17
Estimated Total Size (MB): 51.35
----------------------------------------------------------------
…
Epoch:    6  | Loss = 0.06478 | Val_loss: 0.05438 | Accuracy: 92.08 %
Training Done. 2.974045515060425 (s)
Prediction..
Model Saved.
===================== Training Done. File: ABlists_392_-26000_-25000_36000_42000.npy
Generate data from the file: 1370_ABlists_393_-26000_-25000_42000_48000
data_batch Changed:  5120
0, 1, 2, 3, 4, 5, 6, 7, 8, 9, Time consumed: 36.29289960861206 (s)
----------------------------------------------------------------
        Layer (type)               Output Shape         Param #
================================================================
            Linear-1              [-1, 1, 4096]       2,760,704
              ReLU-2              [-1, 1, 4096]               0
           Dropout-3              [-1, 1, 4096]               0
            Linear-4              [-1, 1, 2048]       8,390,656
              ReLU-5              [-1, 1, 2048]               0
           Dropout-6              [-1, 1, 2048]               0
            Linear-7              [-1, 1, 1024]       2,098,176
              ReLU-8              [-1, 1, 1024]               0
           Dropout-9              [-1, 1, 1024]               0
           Linear-10               [-1, 1, 512]         524,800
             ReLU-11               [-1, 1, 512]               0
          Dropout-12               [-1, 1, 512]               0
           Linear-13                [-1, 1, 10]           5,130
          Sigmoid-14                [-1, 1, 10]               0
================================================================
Total params: 13,779,466
Trainable params: 13,779,466
Non-trainable params: 0
----------------------------------------------------------------
Input size (MB): 0.00
Forward/backward pass size (MB): 0.18
Params size (MB): 52.56
Estimated Total Size (MB): 52.74
----------------------------------------------------------------
…
Epoch:    8  | Loss = 0.05192 | Val_loss: 0.04950 | Accuracy: 92.19 %
Training Done. 4.231166124343872 (s)
Prediction..
Model Saved.
===================== Training Done. File: ABlists_393_-26000_-25000_42000_48000.npy
Generate data from the file: 1372_ABlists_394_-26000_-25000_48000_54000
data_batch Changed:  5120
0, 1, 2, 3, 4, 5, 6, 7, 8, 9, Time consumed: 44.827707052230835 (s)
----------------------------------------------------------------
        Layer (type)               Output Shape         Param #
================================================================
            Linear-1              [-1, 1, 4096]       3,256,320
              ReLU-2              [-1, 1, 4096]               0
           Dropout-3              [-1, 1, 4096]               0
            Linear-4              [-1, 1, 2048]       8,390,656
              ReLU-5              [-1, 1, 2048]               0
           Dropout-6              [-1, 1, 2048]               0
            Linear-7              [-1, 1, 1024]       2,098,176
              ReLU-8              [-1, 1, 1024]               0
           Dropout-9              [-1, 1, 1024]               0
           Linear-10               [-1, 1, 512]         524,800
             ReLU-11               [-1, 1, 512]               0
          Dropout-12               [-1, 1, 512]               0
           Linear-13                [-1, 1, 10]           5,130
          Sigmoid-14                [-1, 1, 10]               0
================================================================
Total params: 14,275,082
Trainable params: 14,275,082
Non-trainable params: 0
----------------------------------------------------------------
Input size (MB): 0.00
Forward/backward pass size (MB): 0.18
Params size (MB): 54.46
Estimated Total Size (MB): 54.63
----------------------------------------------------------------
…
Epoch:    9  | Loss = 0.04742 | Val_loss: 0.04826 | Accuracy: 92.31 %
Training Done. 4.851037502288818 (s)
Prediction..
Model Saved.
===================== Training Done. File: ABlists_394_-26000_-25000_48000_54000.npy
Generate data from the file: 1374_ABlists_395_-26000_-25000_54000_60000
data_batch Changed:  5120
0, 1, 2, 3, 4, 5, 6, 7, 8, 9, Time consumed: 52.92172169685364 (s)
----------------------------------------------------------------
        Layer (type)               Output Shape         Param #
================================================================
            Linear-1              [-1, 1, 4096]       3,866,624
              ReLU-2              [-1, 1, 4096]               0
           Dropout-3              [-1, 1, 4096]               0
            Linear-4              [-1, 1, 2048]       8,390,656
              ReLU-5              [-1, 1, 2048]               0
           Dropout-6              [-1, 1, 2048]               0
            Linear-7              [-1, 1, 1024]       2,098,176
              ReLU-8              [-1, 1, 1024]               0
           Dropout-9              [-1, 1, 1024]               0
           Linear-10               [-1, 1, 512]         524,800
             ReLU-11               [-1, 1, 512]               0
          Dropout-12               [-1, 1, 512]               0
           Linear-13                [-1, 1, 10]           5,130
          Sigmoid-14                [-1, 1, 10]               0
================================================================
Total params: 14,885,386
Trainable params: 14,885,386
Non-trainable params: 0
----------------------------------------------------------------
Input size (MB): 0.00
Forward/backward pass size (MB): 0.18
Params size (MB): 56.78
Estimated Total Size (MB): 56.96
----------------------------------------------------------------
…
Epoch:   10  | Loss = 0.05398 | Val_loss: 0.05314 | Accuracy: 92.02 %
Training Done. 5.735316514968872 (s)
Prediction..
Model Saved.
===================== Training Done. File: ABlists_395_-26000_-25000_54000_60000.npy
Generate data from the file: 1376_ABlists_396_-26000_-25000_60000_66000
data_batch Changed:  5120
0, 1, 2, 3, 4, 5, 6, 7, 8, 9, Time consumed: 62.48678231239319 (s)
----------------------------------------------------------------
        Layer (type)               Output Shape         Param #
================================================================
            Linear-1              [-1, 1, 4096]       4,513,792
              ReLU-2              [-1, 1, 4096]               0
           Dropout-3              [-1, 1, 4096]               0
            Linear-4              [-1, 1, 2048]       8,390,656
              ReLU-5              [-1, 1, 2048]               0
           Dropout-6              [-1, 1, 2048]               0
            Linear-7              [-1, 1, 1024]       2,098,176
              ReLU-8              [-1, 1, 1024]               0
           Dropout-9              [-1, 1, 1024]               0
           Linear-10               [-1, 1, 512]         524,800
             ReLU-11               [-1, 1, 512]               0
          Dropout-12               [-1, 1, 512]               0
           Linear-13                [-1, 1, 10]           5,130
          Sigmoid-14                [-1, 1, 10]               0
================================================================
Total params: 15,532,554
Trainable params: 15,532,554
Non-trainable params: 0
----------------------------------------------------------------
Input size (MB): 0.00
Forward/backward pass size (MB): 0.18
Params size (MB): 59.25
Estimated Total Size (MB): 59.43
----------------------------------------------------------------
…
Epoch:   14  | Loss = 0.05071 | Val_loss: 0.05317 | Accuracy: 91.66 %
Epoch:   15  | Loss = 0.04237 | Val_loss: 0.04809 | Accuracy: 92.39 %
Training Done. 8.94584846496582 (s)
Prediction..
Model Saved.
===================== Training Done. File: ABlists_396_-26000_-25000_60000_66000.npy
Generate data from the file: 1378_ABlists_397_-26000_-25000_66000_4000
0, 1, 2, 3, 4, 5, 6, 7, 8, 9, Time consumed: 79.30342483520508 (s)
----------------------------------------------------------------
        Layer (type)               Output Shape         Param #
================================================================
            Linear-1              [-1, 1, 4096]       5,693,440
              ReLU-2              [-1, 1, 4096]               0
           Dropout-3              [-1, 1, 4096]               0
            Linear-4              [-1, 1, 2048]       8,390,656
              ReLU-5              [-1, 1, 2048]               0
           Dropout-6              [-1, 1, 2048]               0
            Linear-7              [-1, 1, 1024]       2,098,176
              ReLU-8              [-1, 1, 1024]               0
           Dropout-9              [-1, 1, 1024]               0
           Linear-10               [-1, 1, 512]         524,800
             ReLU-11               [-1, 1, 512]               0
          Dropout-12               [-1, 1, 512]               0
           Linear-13                [-1, 1, 10]           5,130
          Sigmoid-14                [-1, 1, 10]               0
================================================================
Total params: 16,712,202
Trainable params: 16,712,202
Non-trainable params: 0
----------------------------------------------------------------
Input size (MB): 0.01
Forward/backward pass size (MB): 0.18
Params size (MB): 63.75
Estimated Total Size (MB): 63.93
----------------------------------------------------------------
…
Epoch:   34  | Loss = 0.12416 | Val_loss: 0.13567 | Accuracy: 57.23 %
Training Done. 28.12312626838684 (s)
Prediction..
Model Saved.
===================== Training Done. File: ABlists_397_-26000_-25000_66000_4000.npy
Generate data from the file: 1380_ABlists_398_-25000_-24000_4000_10000
PRE_PRECESSING Changed: False --> True, power: 8
0, 1, 2, 3, 4, 5, 6, 7, 8, 9, Time consumed: 27.55227041244507 (s)
----------------------------------------------------------------
        Layer (type)               Output Shape         Param #
================================================================
            Linear-1              [-1, 1, 4096]       1,679,360
              ReLU-2              [-1, 1, 4096]               0
           Dropout-3              [-1, 1, 4096]               0
            Linear-4              [-1, 1, 2048]       8,390,656
              ReLU-5              [-1, 1, 2048]               0
           Dropout-6              [-1, 1, 2048]               0
            Linear-7              [-1, 1, 1024]       2,098,176
              ReLU-8              [-1, 1, 1024]               0
           Dropout-9              [-1, 1, 1024]               0
           Linear-10               [-1, 1, 512]         524,800
             ReLU-11               [-1, 1, 512]               0
          Dropout-12               [-1, 1, 512]               0
           Linear-13                [-1, 1, 10]           5,130
          Sigmoid-14                [-1, 1, 10]               0
================================================================
Total params: 12,698,122
Trainable params: 12,698,122
Non-trainable params: 0
----------------------------------------------------------------
Input size (MB): 0.00
Forward/backward pass size (MB): 0.18
Params size (MB): 48.44
Estimated Total Size (MB): 48.62
----------------------------------------------------------------
…
Epoch:   33  | Loss = 0.22603 | Val_loss: 0.23411 | Accuracy: 42.47 %
Training Done. 15.848837614059448 (s)
Prediction..
Model Saved.
===================== Training Done. File: ABlists_398_-25000_-24000_4000_10000.npy
Generate data from the file: 1382_ABlists_399_-25000_-24000_10000_16000
PRE_PRECESSING Changed: False --> True, power: 8
0, 1, 2, 3, 4, 5, 6, 7, 8, 9, Time consumed: 23.10323667526245 (s)
----------------------------------------------------------------
        Layer (type)               Output Shape         Param #
================================================================
            Linear-1              [-1, 1, 4096]       1,753,088
              ReLU-2              [-1, 1, 4096]               0
           Dropout-3              [-1, 1, 4096]               0
            Linear-4              [-1, 1, 2048]       8,390,656
              ReLU-5              [-1, 1, 2048]               0
           Dropout-6              [-1, 1, 2048]               0
            Linear-7              [-1, 1, 1024]       2,098,176
              ReLU-8              [-1, 1, 1024]               0
           Dropout-9              [-1, 1, 1024]               0
           Linear-10               [-1, 1, 512]         524,800
             ReLU-11               [-1, 1, 512]               0
          Dropout-12               [-1, 1, 512]               0
           Linear-13                [-1, 1, 10]           5,130
          Sigmoid-14                [-1, 1, 10]               0
================================================================
Total params: 12,771,850
Trainable params: 12,771,850
Non-trainable params: 0
----------------------------------------------------------------
Input size (MB): 0.00
Forward/backward pass size (MB): 0.18
Params size (MB): 48.72
Estimated Total Size (MB): 48.90
----------------------------------------------------------------
…
Epoch:   31  | Loss = 0.12825 | Val_loss: 0.18206 | Accuracy: 58.76 %
Training Done. 14.829573631286621 (s)
Prediction..
Model Saved.
===================== Training Done. File: ABlists_399_-25000_-24000_10000_16000.npy
Generate data from the file: 1384_ABlists_39_-57000_-56000_26000_32000
data_batch Changed:  5120
0, 1, 2, 3, 4, 5, 6, 7, 8, 9, Time consumed: 30.274065017700195 (s)
----------------------------------------------------------------
        Layer (type)               Output Shape         Param #
================================================================
            Linear-1              [-1, 1, 4096]       1,904,640
              ReLU-2              [-1, 1, 4096]               0
           Dropout-3              [-1, 1, 4096]               0
            Linear-4              [-1, 1, 2048]       8,390,656
              ReLU-5              [-1, 1, 2048]               0
           Dropout-6              [-1, 1, 2048]               0
            Linear-7              [-1, 1, 1024]       2,098,176
              ReLU-8              [-1, 1, 1024]               0
           Dropout-9              [-1, 1, 1024]               0
           Linear-10               [-1, 1, 512]         524,800
             ReLU-11               [-1, 1, 512]               0
          Dropout-12               [-1, 1, 512]               0
           Linear-13                [-1, 1, 10]           5,130
          Sigmoid-14                [-1, 1, 10]               0
================================================================
Total params: 12,923,402
Trainable params: 12,923,402
Non-trainable params: 0
----------------------------------------------------------------
Input size (MB): 0.00
Forward/backward pass size (MB): 0.18
Params size (MB): 49.30
Estimated Total Size (MB): 49.48
----------------------------------------------------------------
…
Epoch:   10  | Loss = 0.04171 | Val_loss: 0.04817 | Accuracy: 91.43 %
Epoch:   11  | Loss = 0.03787 | Val_loss: 0.03722 | Accuracy: 93.87 %
Training Done. 5.261103868484497 (s)
Prediction..
Model Saved.
===================== Training Done. File: ABlists_39_-57000_-56000_26000_32000.npy
Generate data from the file: 1386_ABlists_3_-60000_-59000_14000_20000
0, 1, 2, 3, 4, 5, 6, 7, 8, 9, Time consumed: 21.71001696586609 (s)
----------------------------------------------------------------
        Layer (type)               Output Shape         Param #
================================================================
            Linear-1              [-1, 1, 4096]       1,724,416
              ReLU-2              [-1, 1, 4096]               0
           Dropout-3              [-1, 1, 4096]               0
            Linear-4              [-1, 1, 2048]       8,390,656
              ReLU-5              [-1, 1, 2048]               0
           Dropout-6              [-1, 1, 2048]               0
            Linear-7              [-1, 1, 1024]       2,098,176
              ReLU-8              [-1, 1, 1024]               0
           Dropout-9              [-1, 1, 1024]               0
           Linear-10               [-1, 1, 512]         524,800
             ReLU-11               [-1, 1, 512]               0
          Dropout-12               [-1, 1, 512]               0
           Linear-13                [-1, 1, 10]           5,130
          Sigmoid-14                [-1, 1, 10]               0
================================================================
Total params: 12,743,178
Trainable params: 12,743,178
Non-trainable params: 0
----------------------------------------------------------------
Input size (MB): 0.00
Forward/backward pass size (MB): 0.18
Params size (MB): 48.61
Estimated Total Size (MB): 48.79
----------------------------------------------------------------
…
Epoch:   36  | Loss = 0.04991 | Val_loss: 0.11866 | Accuracy: 75.34 %
Epoch:   37  | Loss = 0.18515 | Val_loss: 0.12985 | Accuracy: 71.76 %
Training Done. 17.602839469909668 (s)
Prediction..
Model Saved.
===================== Training Done. File: ABlists_3_-60000_-59000_14000_20000.npy
Generate data from the file: 1388_ABlists_400_-25000_-24000_16000_22000
0, 1, 2, 3, 4, 5, 6, 7, 8, 9, Time consumed: 26.387091398239136 (s)
----------------------------------------------------------------
        Layer (type)               Output Shape         Param #
================================================================
            Linear-1              [-1, 1, 4096]       1,830,912
              ReLU-2              [-1, 1, 4096]               0
           Dropout-3              [-1, 1, 4096]               0
            Linear-4              [-1, 1, 2048]       8,390,656
              ReLU-5              [-1, 1, 2048]               0
           Dropout-6              [-1, 1, 2048]               0
            Linear-7              [-1, 1, 1024]       2,098,176
              ReLU-8              [-1, 1, 1024]               0
           Dropout-9              [-1, 1, 1024]               0
           Linear-10               [-1, 1, 512]         524,800
             ReLU-11               [-1, 1, 512]               0
          Dropout-12               [-1, 1, 512]               0
           Linear-13                [-1, 1, 10]           5,130
          Sigmoid-14                [-1, 1, 10]               0
================================================================
Total params: 12,849,674
Trainable params: 12,849,674
Non-trainable params: 0
----------------------------------------------------------------
Input size (MB): 0.00
Forward/backward pass size (MB): 0.18
Params size (MB): 49.02
Estimated Total Size (MB): 49.20
----------------------------------------------------------------
…
Epoch:   13  | Loss = 0.03685 | Val_loss: 0.04132 | Accuracy: 92.46 %
Training Done. 6.100105047225952 (s)
Prediction..
Model Saved.
===================== Training Done. File: ABlists_401_-25000_-24000_22000_28000.npy
Generate data from the file: 1392_ABlists_402_-25000_-24000_28000_34000
data_batch Changed:  5120
0, 1, 2, 3, 4, 5, 6, 7, 8, 9, Time consumed: 27.84017252922058 (s)
----------------------------------------------------------------
        Layer (type)               Output Shape         Param #
================================================================
            Linear-1              [-1, 1, 4096]       1,990,656
              ReLU-2              [-1, 1, 4096]               0
           Dropout-3              [-1, 1, 4096]               0
            Linear-4              [-1, 1, 2048]       8,390,656
              ReLU-5              [-1, 1, 2048]               0
           Dropout-6              [-1, 1, 2048]               0
            Linear-7              [-1, 1, 1024]       2,098,176
              ReLU-8              [-1, 1, 1024]               0
           Dropout-9              [-1, 1, 1024]               0
           Linear-10               [-1, 1, 512]         524,800
             ReLU-11               [-1, 1, 512]               0
          Dropout-12               [-1, 1, 512]               0
           Linear-13                [-1, 1, 10]           5,130
          Sigmoid-14                [-1, 1, 10]               0
================================================================
Total params: 13,009,418
Trainable params: 13,009,418
Non-trainable params: 0
----------------------------------------------------------------
Input size (MB): 0.00
Forward/backward pass size (MB): 0.18
Params size (MB): 49.63
Estimated Total Size (MB): 49.80
----------------------------------------------------------------
…
Epoch:    7  | Loss = 0.05916 | Val_loss: 0.05081 | Accuracy: 92.04 %
Training Done. 3.428908348083496 (s)
Prediction..
Model Saved.
===================== Training Done. File: ABlists_402_-25000_-24000_28000_34000.npy
Generate data from the file: 1394_ABlists_403_-25000_-24000_34000_40000
data_batch Changed:  5120
0, 1, 2, 3, 4, 5, 6, 7, 8, 9, Time consumed: 30.590131282806396 (s)
----------------------------------------------------------------
        Layer (type)               Output Shape         Param #
================================================================
            Linear-1              [-1, 1, 4096]       2,248,704
              ReLU-2              [-1, 1, 4096]               0
           Dropout-3              [-1, 1, 4096]               0
            Linear-4              [-1, 1, 2048]       8,390,656
              ReLU-5              [-1, 1, 2048]               0
           Dropout-6              [-1, 1, 2048]               0
            Linear-7              [-1, 1, 1024]       2,098,176
              ReLU-8              [-1, 1, 1024]               0
           Dropout-9              [-1, 1, 1024]               0
           Linear-10               [-1, 1, 512]         524,800
             ReLU-11               [-1, 1, 512]               0
          Dropout-12               [-1, 1, 512]               0
           Linear-13                [-1, 1, 10]           5,130
          Sigmoid-14                [-1, 1, 10]               0
================================================================
Total params: 13,267,466
Trainable params: 13,267,466
Non-trainable params: 0
----------------------------------------------------------------
Input size (MB): 0.00
Forward/backward pass size (MB): 0.18
Params size (MB): 50.61
Estimated Total Size (MB): 50.79
----------------------------------------------------------------
…
Epoch:    6  | Loss = 0.06944 | Val_loss: 0.05862 | Accuracy: 92.32 %
Training Done. 3.00877046585083 (s)
Prediction..
Model Saved.
===================== Training Done. File: ABlists_403_-25000_-24000_34000_40000.npy
Generate data from the file: 1396_ABlists_404_-25000_-24000_40000_46000
data_batch Changed:  5120
0, 1, 2, 3, 4, 5, 6, 7, 8, 9, Time consumed: 35.436219215393066 (s)
----------------------------------------------------------------
        Layer (type)               Output Shape         Param #
================================================================
            Linear-1              [-1, 1, 4096]       2,617,344
              ReLU-2              [-1, 1, 4096]               0
           Dropout-3              [-1, 1, 4096]               0
            Linear-4              [-1, 1, 2048]       8,390,656
              ReLU-5              [-1, 1, 2048]               0
           Dropout-6              [-1, 1, 2048]               0
            Linear-7              [-1, 1, 1024]       2,098,176
              ReLU-8              [-1, 1, 1024]               0
           Dropout-9              [-1, 1, 1024]               0
           Linear-10               [-1, 1, 512]         524,800
             ReLU-11               [-1, 1, 512]               0
          Dropout-12               [-1, 1, 512]               0
           Linear-13                [-1, 1, 10]           5,130
          Sigmoid-14                [-1, 1, 10]               0
================================================================
Total params: 13,636,106
Trainable params: 13,636,106
Non-trainable params: 0
----------------------------------------------------------------
Input size (MB): 0.00
Forward/backward pass size (MB): 0.18
Params size (MB): 52.02
Estimated Total Size (MB): 52.20
----------------------------------------------------------------
…
Epoch:    9  | Loss = 0.04349 | Val_loss: 0.04213 | Accuracy: 93.12 %
Training Done. 4.615155935287476 (s)
Prediction..
Model Saved.
===================== Training Done. File: ABlists_404_-25000_-24000_40000_46000.npy
Generate data from the file: 1398_ABlists_405_-25000_-24000_46000_52000
data_batch Changed:  5120
0, 1, 2, 3, 4, 5, 6, 7, 8, 9, Time consumed: 41.488444328308105 (s)
----------------------------------------------------------------
        Layer (type)               Output Shape         Param #
================================================================
            Linear-1              [-1, 1, 4096]       2,990,080
              ReLU-2              [-1, 1, 4096]               0
           Dropout-3              [-1, 1, 4096]               0
            Linear-4              [-1, 1, 2048]       8,390,656
              ReLU-5              [-1, 1, 2048]               0
           Dropout-6              [-1, 1, 2048]               0
            Linear-7              [-1, 1, 1024]       2,098,176
              ReLU-8              [-1, 1, 1024]               0
           Dropout-9              [-1, 1, 1024]               0
           Linear-10               [-1, 1, 512]         524,800
             ReLU-11               [-1, 1, 512]               0
          Dropout-12               [-1, 1, 512]               0
           Linear-13                [-1, 1, 10]           5,130
          Sigmoid-14                [-1, 1, 10]               0
================================================================
Total params: 14,008,842
Trainable params: 14,008,842
Non-trainable params: 0
----------------------------------------------------------------
Input size (MB): 0.00
Forward/backward pass size (MB): 0.18
Params size (MB): 53.44
Estimated Total Size (MB): 53.62
----------------------------------------------------------------
…
Epoch:   10  | Loss = 0.03790 | Val_loss: 0.04445 | Accuracy: 92.53 %
Training Done. 5.365976572036743 (s)
Prediction..
Model Saved.
===================== Training Done. File: ABlists_405_-25000_-24000_46000_52000.npy
Generate data from the file: 1400_ABlists_406_-25000_-24000_52000_58000
data_batch Changed:  5120
0, 1, 2, 3, 4, 5, 6, 7, 8, 9, Time consumed: 50.65273308753967 (s)
----------------------------------------------------------------
        Layer (type)               Output Shape         Param #
================================================================
            Linear-1              [-1, 1, 4096]       3,510,272
              ReLU-2              [-1, 1, 4096]               0
           Dropout-3              [-1, 1, 4096]               0
            Linear-4              [-1, 1, 2048]       8,390,656
              ReLU-5              [-1, 1, 2048]               0
           Dropout-6              [-1, 1, 2048]               0
            Linear-7              [-1, 1, 1024]       2,098,176
              ReLU-8              [-1, 1, 1024]               0
           Dropout-9              [-1, 1, 1024]               0
           Linear-10               [-1, 1, 512]         524,800
             ReLU-11               [-1, 1, 512]               0
          Dropout-12               [-1, 1, 512]               0
           Linear-13                [-1, 1, 10]           5,130
          Sigmoid-14                [-1, 1, 10]               0
================================================================
Total params: 14,529,034
Trainable params: 14,529,034
Non-trainable params: 0
----------------------------------------------------------------
Input size (MB): 0.00
Forward/backward pass size (MB): 0.18
Params size (MB): 55.42
Estimated Total Size (MB): 55.60
----------------------------------------------------------------
…
Epoch:   10  | Loss = 0.04838 | Val_loss: 0.04945 | Accuracy: 92.48 %
Training Done. 5.324321508407593 (s)
Prediction..
Model Saved.
===================== Training Done. File: ABlists_406_-25000_-24000_52000_58000.npy
Generate data from the file: 1402_ABlists_407_-25000_-24000_58000_64000
data_batch Changed:  5120
0, 1, 2, 3, 4, 5, 6, 7, 8, 9, Time consumed: 61.01340103149414 (s)
----------------------------------------------------------------
        Layer (type)               Output Shape         Param #
================================================================
            Linear-1              [-1, 1, 4096]       4,182,016
              ReLU-2              [-1, 1, 4096]               0
           Dropout-3              [-1, 1, 4096]               0
            Linear-4              [-1, 1, 2048]       8,390,656
              ReLU-5              [-1, 1, 2048]               0
           Dropout-6              [-1, 1, 2048]               0
            Linear-7              [-1, 1, 1024]       2,098,176
              ReLU-8              [-1, 1, 1024]               0
           Dropout-9              [-1, 1, 1024]               0
           Linear-10               [-1, 1, 512]         524,800
             ReLU-11               [-1, 1, 512]               0
          Dropout-12               [-1, 1, 512]               0
           Linear-13                [-1, 1, 10]           5,130
          Sigmoid-14                [-1, 1, 10]               0
================================================================
Total params: 15,200,778
Trainable params: 15,200,778
Non-trainable params: 0
----------------------------------------------------------------
Input size (MB): 0.00
Forward/backward pass size (MB): 0.18
Params size (MB): 57.99
Estimated Total Size (MB): 58.17
----------------------------------------------------------------
…
Epoch:   14  | Loss = 0.04449 | Val_loss: 0.04686 | Accuracy: 92.73 %
Training Done. 8.00529408454895 (s)
Prediction..
Model Saved.
===================== Training Done. File: ABlists_407_-25000_-24000_58000_64000.npy
Generate data from the file: 1404_ABlists_408_-25000_-24000_64000_70000
data_batch Changed:  5120
0, 1, 2, 3, 4, 5, 6, 7, 8, 9, Time consumed: 62.531962394714355 (s)
----------------------------------------------------------------
        Layer (type)               Output Shape         Param #
================================================================
            Linear-1              [-1, 1, 4096]       4,558,848
              ReLU-2              [-1, 1, 4096]               0
           Dropout-3              [-1, 1, 4096]               0
            Linear-4              [-1, 1, 2048]       8,390,656
              ReLU-5              [-1, 1, 2048]               0
           Dropout-6              [-1, 1, 2048]               0
            Linear-7              [-1, 1, 1024]       2,098,176
              ReLU-8              [-1, 1, 1024]               0
           Dropout-9              [-1, 1, 1024]               0
           Linear-10               [-1, 1, 512]         524,800
             ReLU-11               [-1, 1, 512]               0
          Dropout-12               [-1, 1, 512]               0
           Linear-13                [-1, 1, 10]           5,130
          Sigmoid-14                [-1, 1, 10]               0
================================================================
Total params: 15,577,610
Trainable params: 15,577,610
Non-trainable params: 0
----------------------------------------------------------------
Input size (MB): 0.00
Forward/backward pass size (MB): 0.18
Params size (MB): 59.42
Estimated Total Size (MB): 59.60
----------------------------------------------------------------
…
Epoch:   19  | Loss = 0.04682 | Val_loss: 0.04512 | Accuracy: 92.11 %
Training Done. 13.053265810012817 (s)
Prediction..
Model Saved.
===================== Training Done. File: ABlists_408_-25000_-24000_64000_70000.npy
Generate data from the file: 1406_ABlists_409_-24000_-23000_2000_8000
PRE_PRECESSING Changed: False --> True, power: 8
0, 1, 2, 3, 4, 5, 6, 7, 8, 9, Time consumed: 20.540972471237183 (s)
----------------------------------------------------------------
        Layer (type)               Output Shape         Param #
================================================================
            Linear-1              [-1, 1, 4096]       1,617,920
              ReLU-2              [-1, 1, 4096]               0
           Dropout-3              [-1, 1, 4096]               0
            Linear-4              [-1, 1, 2048]       8,390,656
              ReLU-5              [-1, 1, 2048]               0
           Dropout-6              [-1, 1, 2048]               0
            Linear-7              [-1, 1, 1024]       2,098,176
              ReLU-8              [-1, 1, 1024]               0
           Dropout-9              [-1, 1, 1024]               0
           Linear-10               [-1, 1, 512]         524,800
             ReLU-11               [-1, 1, 512]               0
          Dropout-12               [-1, 1, 512]               0
           Linear-13                [-1, 1, 10]           5,130
          Sigmoid-14                [-1, 1, 10]               0
================================================================
Total params: 12,636,682
Trainable params: 12,636,682
Non-trainable params: 0
----------------------------------------------------------------
Input size (MB): 0.00
Forward/backward pass size (MB): 0.18
Params size (MB): 48.21
Estimated Total Size (MB): 48.38
----------------------------------------------------------------
…
Epoch:   26  | Loss = 0.24401 | Val_loss: 0.25476 | Accuracy: 32.49 %
Training Done. 12.36375641822815 (s)
Prediction..
Model Saved.
===================== Training Done. File: ABlists_409_-24000_-23000_2000_8000.npy
Generate data from the file: 1408_ABlists_40_-57000_-56000_32000_38000
data_batch Changed:  5120
0, 1, 2, 3, 4, 5, 6, 7, 8, 9, Time consumed: 31.843896627426147 (s)
----------------------------------------------------------------
        Layer (type)               Output Shape         Param #
================================================================
            Linear-1              [-1, 1, 4096]       2,314,240
              ReLU-2              [-1, 1, 4096]               0
           Dropout-3              [-1, 1, 4096]               0
            Linear-4              [-1, 1, 2048]       8,390,656
              ReLU-5              [-1, 1, 2048]               0
           Dropout-6              [-1, 1, 2048]               0
            Linear-7              [-1, 1, 1024]       2,098,176
              ReLU-8              [-1, 1, 1024]               0
           Dropout-9              [-1, 1, 1024]               0
           Linear-10               [-1, 1, 512]         524,800
             ReLU-11               [-1, 1, 512]               0
          Dropout-12               [-1, 1, 512]               0
           Linear-13                [-1, 1, 10]           5,130
          Sigmoid-14                [-1, 1, 10]               0
================================================================
Total params: 13,333,002
Trainable params: 13,333,002
Non-trainable params: 0
----------------------------------------------------------------
Input size (MB): 0.00
Forward/backward pass size (MB): 0.18
Params size (MB): 50.86
Estimated Total Size (MB): 51.04
----------------------------------------------------------------
…
Epoch:    8  | Loss = 0.05650 | Val_loss: 0.05112 | Accuracy: 92.30 %
Training Done. 3.980523109436035 (s)
Prediction..
Model Saved.
===================== Training Done. File: ABlists_40_-57000_-56000_32000_38000.npy
Generate data from the file: 1410_ABlists_410_-24000_-23000_8000_14000
PRE_PRECESSING Changed: False --> True, power: 8
0, 1, 2, 3, 4, 5, 6, 7, 8, 9, Time consumed: 26.388345956802368 (s)
----------------------------------------------------------------
        Layer (type)               Output Shape         Param #
================================================================
            Linear-1              [-1, 1, 4096]       1,691,648
              ReLU-2              [-1, 1, 4096]               0
           Dropout-3              [-1, 1, 4096]               0
            Linear-4              [-1, 1, 2048]       8,390,656
              ReLU-5              [-1, 1, 2048]               0
           Dropout-6              [-1, 1, 2048]               0
            Linear-7              [-1, 1, 1024]       2,098,176
              ReLU-8              [-1, 1, 1024]               0
           Dropout-9              [-1, 1, 1024]               0
           Linear-10               [-1, 1, 512]         524,800
             ReLU-11               [-1, 1, 512]               0
          Dropout-12               [-1, 1, 512]               0
           Linear-13                [-1, 1, 10]           5,130
          Sigmoid-14                [-1, 1, 10]               0
================================================================
Total params: 12,710,410
Trainable params: 12,710,410
Non-trainable params: 0
----------------------------------------------------------------
Input size (MB): 0.00
Forward/backward pass size (MB): 0.18
Params size (MB): 48.49
Estimated Total Size (MB): 48.66
----------------------------------------------------------------
…
Epoch:   31  | Loss = 0.14243 | Val_loss: 0.19887 | Accuracy: 55.24 %
Epoch:   32  | Loss = 0.14317 | Val_loss: 0.18896 | Accuracy: 58.00 %
Training Done. 15.233046293258667 (s)
Prediction..
Model Saved.
===================== Training Done. File: ABlists_410_-24000_-23000_8000_14000.npy
Generate data from the file: 1412_ABlists_411_-24000_-23000_14000_20000
0, 1, 2, 3, 4, 5, 6, 7, 8, 9, Time consumed: 23.47504949569702 (s)
----------------------------------------------------------------
        Layer (type)               Output Shape         Param #
================================================================
            Linear-1              [-1, 1, 4096]       1,761,280
              ReLU-2              [-1, 1, 4096]               0
           Dropout-3              [-1, 1, 4096]               0
            Linear-4              [-1, 1, 2048]       8,390,656
              ReLU-5              [-1, 1, 2048]               0
           Dropout-6              [-1, 1, 2048]               0
            Linear-7              [-1, 1, 1024]       2,098,176
              ReLU-8              [-1, 1, 1024]               0
           Dropout-9              [-1, 1, 1024]               0
           Linear-10               [-1, 1, 512]         524,800
             ReLU-11               [-1, 1, 512]               0
          Dropout-12               [-1, 1, 512]               0
           Linear-13                [-1, 1, 10]           5,130
          Sigmoid-14                [-1, 1, 10]               0
================================================================
Total params: 12,780,042
Trainable params: 12,780,042
Non-trainable params: 0
----------------------------------------------------------------
Input size (MB): 0.00
Forward/backward pass size (MB): 0.18
Params size (MB): 48.75
Estimated Total Size (MB): 48.93
----------------------------------------------------------------
…
Epoch:   33  | Loss = 0.10359 | Val_loss: 0.18221 | Accuracy: 59.79 %
Training Done. 15.581106424331665 (s)
Prediction..
Model Saved.
===================== Training Done. File: ABlists_411_-24000_-23000_14000_20000.npy
Generate data from the file: 1414_ABlists_412_-24000_-23000_20000_26000
data_batch Changed:  5120
0, 1, 2, 3, 4, 5, 6, 7, 8, 9, Time consumed: 26.967525482177734 (s)
----------------------------------------------------------------
        Layer (type)               Output Shape         Param #
================================================================
            Linear-1              [-1, 1, 4096]       1,847,296
              ReLU-2              [-1, 1, 4096]               0
           Dropout-3              [-1, 1, 4096]               0
            Linear-4              [-1, 1, 2048]       8,390,656
              ReLU-5              [-1, 1, 2048]               0
           Dropout-6              [-1, 1, 2048]               0
            Linear-7              [-1, 1, 1024]       2,098,176
              ReLU-8              [-1, 1, 1024]               0
           Dropout-9              [-1, 1, 1024]               0
           Linear-10               [-1, 1, 512]         524,800
             ReLU-11               [-1, 1, 512]               0
          Dropout-12               [-1, 1, 512]               0
           Linear-13                [-1, 1, 10]           5,130
          Sigmoid-14                [-1, 1, 10]               0
================================================================
Total params: 12,866,058
Trainable params: 12,866,058
Non-trainable params: 0
----------------------------------------------------------------
Input size (MB): 0.00
Forward/backward pass size (MB): 0.18
Params size (MB): 49.08
Estimated Total Size (MB): 49.26
----------------------------------------------------------------
…
Epoch:   19  | Loss = 0.02991 | Val_loss: 0.04008 | Accuracy: 92.36 %
Training Done. 9.139147520065308 (s)
Prediction..
Model Saved.
===================== Training Done. File: ABlists_412_-24000_-23000_20000_26000.npy
Generate data from the file: 1416_ABlists_413_-24000_-23000_26000_32000
data_batch Changed:  5120
0, 1, 2, 3, 4, 5, 6, 7, 8, 9, Time consumed: 27.808746099472046 (s)
----------------------------------------------------------------
        Layer (type)               Output Shape         Param #
================================================================
            Linear-1              [-1, 1, 4096]       1,933,312
              ReLU-2              [-1, 1, 4096]               0
           Dropout-3              [-1, 1, 4096]               0
            Linear-4              [-1, 1, 2048]       8,390,656
              ReLU-5              [-1, 1, 2048]               0
           Dropout-6              [-1, 1, 2048]               0
            Linear-7              [-1, 1, 1024]       2,098,176
              ReLU-8              [-1, 1, 1024]               0
           Dropout-9              [-1, 1, 1024]               0
           Linear-10               [-1, 1, 512]         524,800
             ReLU-11               [-1, 1, 512]               0
          Dropout-12               [-1, 1, 512]               0
           Linear-13                [-1, 1, 10]           5,130
          Sigmoid-14                [-1, 1, 10]               0
================================================================
Total params: 12,952,074
Trainable params: 12,952,074
Non-trainable params: 0
----------------------------------------------------------------
Input size (MB): 0.00
Forward/backward pass size (MB): 0.18
Params size (MB): 49.41
Estimated Total Size (MB): 49.59
----------------------------------------------------------------
…
Epoch:    8  | Loss = 0.04785 | Val_loss: 0.04458 | Accuracy: 92.56 %
Training Done. 3.9143686294555664 (s)
Prediction..
Model Saved.
===================== Training Done. File: ABlists_413_-24000_-23000_26000_32000.npy
Generate data from the file: 1418_ABlists_414_-24000_-23000_32000_38000
data_batch Changed:  5120
0, 1, 2, 3, 4, 5, 6, 7, 8, 9, Time consumed: 29.583427906036377 (s)
----------------------------------------------------------------
        Layer (type)               Output Shape         Param #
================================================================
            Linear-1              [-1, 1, 4096]       2,129,920
              ReLU-2              [-1, 1, 4096]               0
           Dropout-3              [-1, 1, 4096]               0
            Linear-4              [-1, 1, 2048]       8,390,656
              ReLU-5              [-1, 1, 2048]               0
           Dropout-6              [-1, 1, 2048]               0
            Linear-7              [-1, 1, 1024]       2,098,176
              ReLU-8              [-1, 1, 1024]               0
           Dropout-9              [-1, 1, 1024]               0
           Linear-10               [-1, 1, 512]         524,800
             ReLU-11               [-1, 1, 512]               0
          Dropout-12               [-1, 1, 512]               0
           Linear-13                [-1, 1, 10]           5,130
          Sigmoid-14                [-1, 1, 10]               0
================================================================
Total params: 13,148,682
Trainable params: 13,148,682
Non-trainable params: 0
----------------------------------------------------------------
Input size (MB): 0.00
Forward/backward pass size (MB): 0.18
Params size (MB): 50.16
Estimated Total Size (MB): 50.34
----------------------------------------------------------------
…
Epoch:    6  | Loss = 0.06376 | Val_loss: 0.05333 | Accuracy: 92.57 %
Training Done. 2.983609199523926 (s)
Prediction..
Model Saved.
===================== Training Done. File: ABlists_414_-24000_-23000_32000_38000.npy
Generate data from the file: 1420_ABlists_415_-24000_-23000_38000_44000
data_batch Changed:  5120
0, 1, 2, 3, 4, 5, 6, 7, 8, 9, Time consumed: 34.36103868484497 (s)
----------------------------------------------------------------
        Layer (type)               Output Shape         Param #
================================================================
            Linear-1              [-1, 1, 4096]       2,510,848
              ReLU-2              [-1, 1, 4096]               0
           Dropout-3              [-1, 1, 4096]               0
            Linear-4              [-1, 1, 2048]       8,390,656
              ReLU-5              [-1, 1, 2048]               0
           Dropout-6              [-1, 1, 2048]               0
            Linear-7              [-1, 1, 1024]       2,098,176
              ReLU-8              [-1, 1, 1024]               0
           Dropout-9              [-1, 1, 1024]               0
           Linear-10               [-1, 1, 512]         524,800
             ReLU-11               [-1, 1, 512]               0
          Dropout-12               [-1, 1, 512]               0
           Linear-13                [-1, 1, 10]           5,130
          Sigmoid-14                [-1, 1, 10]               0
================================================================
Total params: 13,529,610
Trainable params: 13,529,610
Non-trainable params: 0
----------------------------------------------------------------
Input size (MB): 0.00
Forward/backward pass size (MB): 0.18
Params size (MB): 51.61
Estimated Total Size (MB): 51.79
----------------------------------------------------------------
…
Epoch:    8  | Loss = 0.04181 | Val_loss: 0.04198 | Accuracy: 93.47 %
Training Done. 4.098358392715454 (s)
Prediction..
Model Saved.
===================== Training Done. File: ABlists_415_-24000_-23000_38000_44000.npy
Generate data from the file: 1422_ABlists_416_-24000_-23000_44000_50000
data_batch Changed:  5120
0, 1, 2, 3, 4, 5, 6, 7, 8, 9, Time consumed: 37.94718050956726 (s)
----------------------------------------------------------------
        Layer (type)               Output Shape         Param #
================================================================
            Linear-1              [-1, 1, 4096]       2,838,528
              ReLU-2              [-1, 1, 4096]               0
           Dropout-3              [-1, 1, 4096]               0
            Linear-4              [-1, 1, 2048]       8,390,656
              ReLU-5              [-1, 1, 2048]               0
           Dropout-6              [-1, 1, 2048]               0
            Linear-7              [-1, 1, 1024]       2,098,176
              ReLU-8              [-1, 1, 1024]               0
           Dropout-9              [-1, 1, 1024]               0
           Linear-10               [-1, 1, 512]         524,800
             ReLU-11               [-1, 1, 512]               0
          Dropout-12               [-1, 1, 512]               0
           Linear-13                [-1, 1, 10]           5,130
          Sigmoid-14                [-1, 1, 10]               0
================================================================
Total params: 13,857,290
Trainable params: 13,857,290
Non-trainable params: 0
----------------------------------------------------------------
Input size (MB): 0.00
Forward/backward pass size (MB): 0.18
Params size (MB): 52.86
Estimated Total Size (MB): 53.04
----------------------------------------------------------------
…
Epoch:    9  | Loss = 0.04826 | Val_loss: 0.04636 | Accuracy: 92.96 %
Training Done. 4.6931517124176025 (s)
Prediction..
Model Saved.
===================== Training Done. File: ABlists_416_-24000_-23000_44000_50000.npy
Generate data from the file: 1424_ABlists_417_-24000_-23000_50000_56000
data_batch Changed:  5120
0, 1, 2, 3, 4, 5, 6, 7, 8, 9, Time consumed: 46.47917556762695 (s)
----------------------------------------------------------------
        Layer (type)               Output Shape         Param #
================================================================
            Linear-1              [-1, 1, 4096]       3,280,896
              ReLU-2              [-1, 1, 4096]               0
           Dropout-3              [-1, 1, 4096]               0
            Linear-4              [-1, 1, 2048]       8,390,656
              ReLU-5              [-1, 1, 2048]               0
           Dropout-6              [-1, 1, 2048]               0
            Linear-7              [-1, 1, 1024]       2,098,176
              ReLU-8              [-1, 1, 1024]               0
           Dropout-9              [-1, 1, 1024]               0
           Linear-10               [-1, 1, 512]         524,800
             ReLU-11               [-1, 1, 512]               0
          Dropout-12               [-1, 1, 512]               0
           Linear-13                [-1, 1, 10]           5,130
          Sigmoid-14                [-1, 1, 10]               0
================================================================
Total params: 14,299,658
Trainable params: 14,299,658
Non-trainable params: 0
----------------------------------------------------------------
Input size (MB): 0.00
Forward/backward pass size (MB): 0.18
Params size (MB): 54.55
Estimated Total Size (MB): 54.73
----------------------------------------------------------------
…
Epoch:   10  | Loss = 0.04374 | Val_loss: 0.04568 | Accuracy: 92.75 %
Training Done. 5.257998466491699 (s)
Prediction..
Model Saved.
===================== Training Done. File: ABlists_417_-24000_-23000_50000_56000.npy
Generate data from the file: 1426_ABlists_418_-24000_-23000_56000_62000
data_batch Changed:  5120
0, 1, 2, 3, 4, 5, 6, 7, 8, 9, Time consumed: 53.13879179954529 (s)
----------------------------------------------------------------
        Layer (type)               Output Shape         Param #
================================================================
            Linear-1              [-1, 1, 4096]       3,801,088
              ReLU-2              [-1, 1, 4096]               0
           Dropout-3              [-1, 1, 4096]               0
            Linear-4              [-1, 1, 2048]       8,390,656
              ReLU-5              [-1, 1, 2048]               0
           Dropout-6              [-1, 1, 2048]               0
            Linear-7              [-1, 1, 1024]       2,098,176
              ReLU-8              [-1, 1, 1024]               0
           Dropout-9              [-1, 1, 1024]               0
           Linear-10               [-1, 1, 512]         524,800
             ReLU-11               [-1, 1, 512]               0
          Dropout-12               [-1, 1, 512]               0
           Linear-13                [-1, 1, 10]           5,130
          Sigmoid-14                [-1, 1, 10]               0
================================================================
Total params: 14,819,850
Trainable params: 14,819,850
Non-trainable params: 0
----------------------------------------------------------------
Input size (MB): 0.00
Forward/backward pass size (MB): 0.18
Params size (MB): 56.53
Estimated Total Size (MB): 56.71
----------------------------------------------------------------
…
Epoch:   11  | Loss = 0.04452 | Val_loss: 0.04619 | Accuracy: 92.96 %
Training Done. 6.18667459487915 (s)
Prediction..
Model Saved.
===================== Training Done. File: ABlists_418_-24000_-23000_56000_62000.npy
Generate data from the file: 1428_ABlists_419_-24000_-23000_62000_68000
data_batch Changed:  5120
0, 1, 2, 3, 4, 5, 6, 7, 8, 9, Time consumed: 63.67335295677185 (s)
----------------------------------------------------------------
        Layer (type)               Output Shape         Param #
================================================================
            Linear-1              [-1, 1, 4096]       4,259,840
              ReLU-2              [-1, 1, 4096]               0
           Dropout-3              [-1, 1, 4096]               0
            Linear-4              [-1, 1, 2048]       8,390,656
              ReLU-5              [-1, 1, 2048]               0
           Dropout-6              [-1, 1, 2048]               0
            Linear-7              [-1, 1, 1024]       2,098,176
              ReLU-8              [-1, 1, 1024]               0
           Dropout-9              [-1, 1, 1024]               0
           Linear-10               [-1, 1, 512]         524,800
             ReLU-11               [-1, 1, 512]               0
          Dropout-12               [-1, 1, 512]               0
           Linear-13                [-1, 1, 10]           5,130
          Sigmoid-14                [-1, 1, 10]               0
================================================================
Total params: 15,278,602
Trainable params: 15,278,602
Non-trainable params: 0
----------------------------------------------------------------
Input size (MB): 0.00
Forward/backward pass size (MB): 0.18
Params size (MB): 58.28
Estimated Total Size (MB): 58.46
----------------------------------------------------------------
…
Epoch:   15  | Loss = 0.04069 | Val_loss: 0.04347 | Accuracy: 92.76 %
Training Done. 8.677781820297241 (s)
Prediction..
Model Saved.
===================== Training Done. File: ABlists_419_-24000_-23000_62000_68000.npy
Generate data from the file: 1430_ABlists_41_-57000_-56000_38000_44000
data_batch Changed:  5120
0, 1, 2, 3, 4, 5, 6, 7, 8, 9, Time consumed: 37.29335141181946 (s)
----------------------------------------------------------------
        Layer (type)               Output Shape         Param #
================================================================
            Linear-1              [-1, 1, 4096]       2,498,560
              ReLU-2              [-1, 1, 4096]               0
           Dropout-3              [-1, 1, 4096]               0
            Linear-4              [-1, 1, 2048]       8,390,656
              ReLU-5              [-1, 1, 2048]               0
           Dropout-6              [-1, 1, 2048]               0
            Linear-7              [-1, 1, 1024]       2,098,176
              ReLU-8              [-1, 1, 1024]               0
           Dropout-9              [-1, 1, 1024]               0
           Linear-10               [-1, 1, 512]         524,800
             ReLU-11               [-1, 1, 512]               0
          Dropout-12               [-1, 1, 512]               0
           Linear-13                [-1, 1, 10]           5,130
          Sigmoid-14                [-1, 1, 10]               0
================================================================
Total params: 13,517,322
Trainable params: 13,517,322
Non-trainable params: 0
----------------------------------------------------------------
Input size (MB): 0.00
Forward/backward pass size (MB): 0.18
Params size (MB): 51.56
Estimated Total Size (MB): 51.74
----------------------------------------------------------------
…
Epoch:    9  | Loss = 0.04733 | Val_loss: 0.04465 | Accuracy: 92.87 %
Training Done. 4.6131322383880615 (s)
Prediction..
Model Saved.
===================== Training Done. File: ABlists_41_-57000_-56000_38000_44000.npy
Generate data from the file: 1432_ABlists_420_-24000_-23000_68000_6000
PRE_PRECESSING Changed: False --> True, power: 8
0, 1, 2, 3, 4, 5, 6, 7, 8, 9, Time consumed: 72.89627385139465 (s)
----------------------------------------------------------------
        Layer (type)               Output Shape         Param #
================================================================
            Linear-1              [-1, 1, 4096]       4,907,008
              ReLU-2              [-1, 1, 4096]               0
           Dropout-3              [-1, 1, 4096]               0
            Linear-4              [-1, 1, 2048]       8,390,656
              ReLU-5              [-1, 1, 2048]               0
           Dropout-6              [-1, 1, 2048]               0
            Linear-7              [-1, 1, 1024]       2,098,176
              ReLU-8              [-1, 1, 1024]               0
           Dropout-9              [-1, 1, 1024]               0
           Linear-10               [-1, 1, 512]         524,800
             ReLU-11               [-1, 1, 512]               0
          Dropout-12               [-1, 1, 512]               0
           Linear-13                [-1, 1, 10]           5,130
          Sigmoid-14                [-1, 1, 10]               0
================================================================
Total params: 15,925,770
Trainable params: 15,925,770
Non-trainable params: 0
----------------------------------------------------------------
Input size (MB): 0.00
Forward/backward pass size (MB): 0.18
Params size (MB): 60.75
Estimated Total Size (MB): 60.93
----------------------------------------------------------------
…
Epoch:   17  | Loss = 0.22595 | Val_loss: 0.22363 | Accuracy: 37.29 %
Training Done. 10.916783094406128 (s)
Prediction..
Model Saved.
===================== Training Done. File: ABlists_420_-24000_-23000_68000_6000.npy
Generate data from the file: 1434_ABlists_421_-23000_-22000_6000_12000
PRE_PRECESSING Changed: False --> True, power: 8
0, 1, 2, 3, 4, 5, 6, 7, 8, 9, Time consumed: 19.300333738327026 (s)
----------------------------------------------------------------
        Layer (type)               Output Shape         Param #
================================================================
            Linear-1              [-1, 1, 4096]       1,654,784
              ReLU-2              [-1, 1, 4096]               0
           Dropout-3              [-1, 1, 4096]               0
            Linear-4              [-1, 1, 2048]       8,390,656
              ReLU-5              [-1, 1, 2048]               0
           Dropout-6              [-1, 1, 2048]               0
            Linear-7              [-1, 1, 1024]       2,098,176
              ReLU-8              [-1, 1, 1024]               0
           Dropout-9              [-1, 1, 1024]               0
           Linear-10               [-1, 1, 512]         524,800
             ReLU-11               [-1, 1, 512]               0
          Dropout-12               [-1, 1, 512]               0
           Linear-13                [-1, 1, 10]           5,130
          Sigmoid-14                [-1, 1, 10]               0
================================================================
Total params: 12,673,546
Trainable params: 12,673,546
Non-trainable params: 0
----------------------------------------------------------------
Input size (MB): 0.00
Forward/backward pass size (MB): 0.18
Params size (MB): 48.35
Estimated Total Size (MB): 48.52
----------------------------------------------------------------
…
Epoch:   26  | Loss = 0.23756 | Val_loss: 0.22993 | Accuracy: 42.84 %
Training Done. 12.084670305252075 (s)
Prediction..
Model Saved.
===================== Training Done. File: ABlists_421_-23000_-22000_6000_12000.npy
Generate data from the file: 1436_ABlists_422_-23000_-22000_12000_18000
PRE_PRECESSING Changed: False --> True, power: 8
0, 1, 2, 3, 4, 5, 6, 7, 8, 9, Time consumed: 22.861804723739624 (s)
----------------------------------------------------------------
        Layer (type)               Output Shape         Param #
================================================================
            Linear-1              [-1, 1, 4096]       1,720,320
              ReLU-2              [-1, 1, 4096]               0
           Dropout-3              [-1, 1, 4096]               0
            Linear-4              [-1, 1, 2048]       8,390,656
              ReLU-5              [-1, 1, 2048]               0
           Dropout-6              [-1, 1, 2048]               0
            Linear-7              [-1, 1, 1024]       2,098,176
              ReLU-8              [-1, 1, 1024]               0
           Dropout-9              [-1, 1, 1024]               0
           Linear-10               [-1, 1, 512]         524,800
             ReLU-11               [-1, 1, 512]               0
          Dropout-12               [-1, 1, 512]               0
           Linear-13                [-1, 1, 10]           5,130
          Sigmoid-14                [-1, 1, 10]               0
================================================================
Total params: 12,739,082
Trainable params: 12,739,082
Non-trainable params: 0
----------------------------------------------------------------
Input size (MB): 0.00
Forward/backward pass size (MB): 0.18
Params size (MB): 48.60
Estimated Total Size (MB): 48.77
----------------------------------------------------------------
…
Epoch:   29  | Loss = 0.12108 | Val_loss: 0.14935 | Accuracy: 66.13 %
Epoch:   30  | Loss = 0.11510 | Val_loss: 0.16761 | Accuracy: 62.78 %
Training Done. 14.12856388092041 (s)
Prediction..
Model Saved.
===================== Training Done. File: ABlists_422_-23000_-22000_12000_18000.npy
Generate data from the file: 1438_ABlists_423_-23000_-22000_18000_24000
0, 1, 2, 3, 4, 5, 6, 7, 8, 9, Time consumed: 23.283010482788086 (s)
----------------------------------------------------------------
        Layer (type)               Output Shape         Param #
================================================================
            Linear-1              [-1, 1, 4096]       1,806,336
              ReLU-2              [-1, 1, 4096]               0
           Dropout-3              [-1, 1, 4096]               0
            Linear-4              [-1, 1, 2048]       8,390,656
              ReLU-5              [-1, 1, 2048]               0
           Dropout-6              [-1, 1, 2048]               0
            Linear-7              [-1, 1, 1024]       2,098,176
              ReLU-8              [-1, 1, 1024]               0
           Dropout-9              [-1, 1, 1024]               0
           Linear-10               [-1, 1, 512]         524,800
             ReLU-11               [-1, 1, 512]               0
          Dropout-12               [-1, 1, 512]               0
           Linear-13                [-1, 1, 10]           5,130
          Sigmoid-14                [-1, 1, 10]               0
================================================================
Total params: 12,825,098
Trainable params: 12,825,098
Non-trainable params: 0
----------------------------------------------------------------
Input size (MB): 0.00
Forward/backward pass size (MB): 0.18
Params size (MB): 48.92
Estimated Total Size (MB): 49.10
----------------------------------------------------------------
…
Epoch:   10  | Loss = 0.04014 | Val_loss: 0.03941 | Accuracy: 92.85 %
Training Done. 4.757213115692139 (s)
Prediction..
Model Saved.
===================== Training Done. File: ABlists_424_-23000_-22000_24000_30000.npy
Generate data from the file: 1442_ABlists_425_-23000_-22000_30000_36000
data_batch Changed:  5120
0, 1, 2, 3, 4, 5, 6, 7, 8, 9, Time consumed: 28.907331705093384 (s)
----------------------------------------------------------------
        Layer (type)               Output Shape         Param #
================================================================
            Linear-1              [-1, 1, 4096]       2,007,040
              ReLU-2              [-1, 1, 4096]               0
           Dropout-3              [-1, 1, 4096]               0
            Linear-4              [-1, 1, 2048]       8,390,656
              ReLU-5              [-1, 1, 2048]               0
           Dropout-6              [-1, 1, 2048]               0
            Linear-7              [-1, 1, 1024]       2,098,176
              ReLU-8              [-1, 1, 1024]               0
           Dropout-9              [-1, 1, 1024]               0
           Linear-10               [-1, 1, 512]         524,800
             ReLU-11               [-1, 1, 512]               0
          Dropout-12               [-1, 1, 512]               0
           Linear-13                [-1, 1, 10]           5,130
          Sigmoid-14                [-1, 1, 10]               0
================================================================
Total params: 13,025,802
Trainable params: 13,025,802
Non-trainable params: 0
----------------------------------------------------------------
Input size (MB): 0.00
Forward/backward pass size (MB): 0.18
Params size (MB): 49.69
Estimated Total Size (MB): 49.87
----------------------------------------------------------------
…
Epoch:    7  | Loss = 0.04886 | Val_loss: 0.04381 | Accuracy: 93.73 %
Training Done. 3.41292405128479 (s)
Prediction..
Model Saved.
===================== Training Done. File: ABlists_425_-23000_-22000_30000_36000.npy
Generate data from the file: 1444_ABlists_426_-23000_-22000_36000_42000
data_batch Changed:  5120
0, 1, 2, 3, 4, 5, 6, 7, 8, 9, Time consumed: 33.40871238708496 (s)
----------------------------------------------------------------
        Layer (type)               Output Shape         Param #
================================================================
            Linear-1              [-1, 1, 4096]       2,383,872
              ReLU-2              [-1, 1, 4096]               0
           Dropout-3              [-1, 1, 4096]               0
            Linear-4              [-1, 1, 2048]       8,390,656
              ReLU-5              [-1, 1, 2048]               0
           Dropout-6              [-1, 1, 2048]               0
            Linear-7              [-1, 1, 1024]       2,098,176
              ReLU-8              [-1, 1, 1024]               0
           Dropout-9              [-1, 1, 1024]               0
           Linear-10               [-1, 1, 512]         524,800
             ReLU-11               [-1, 1, 512]               0
          Dropout-12               [-1, 1, 512]               0
           Linear-13                [-1, 1, 10]           5,130
          Sigmoid-14                [-1, 1, 10]               0
================================================================
Total params: 13,402,634
Trainable params: 13,402,634
Non-trainable params: 0
----------------------------------------------------------------
Input size (MB): 0.00
Forward/backward pass size (MB): 0.18
Params size (MB): 51.13
Estimated Total Size (MB): 51.31
----------------------------------------------------------------
…
Epoch:    7  | Loss = 0.04689 | Val_loss: 0.04434 | Accuracy: 93.53 %
Training Done. 3.5474536418914795 (s)
Prediction..
Model Saved.
===================== Training Done. File: ABlists_426_-23000_-22000_36000_42000.npy
Generate data from the file: 1446_ABlists_427_-23000_-22000_42000_48000
data_batch Changed:  5120
0, 1, 2, 3, 4, 5, 6, 7, 8, 9, Time consumed: 37.302032470703125 (s)
----------------------------------------------------------------
        Layer (type)               Output Shape         Param #
================================================================
            Linear-1              [-1, 1, 4096]       2,650,112
              ReLU-2              [-1, 1, 4096]               0
           Dropout-3              [-1, 1, 4096]               0
            Linear-4              [-1, 1, 2048]       8,390,656
              ReLU-5              [-1, 1, 2048]               0
           Dropout-6              [-1, 1, 2048]               0
            Linear-7              [-1, 1, 1024]       2,098,176
              ReLU-8              [-1, 1, 1024]               0
           Dropout-9              [-1, 1, 1024]               0
           Linear-10               [-1, 1, 512]         524,800
             ReLU-11               [-1, 1, 512]               0
          Dropout-12               [-1, 1, 512]               0
           Linear-13                [-1, 1, 10]           5,130
          Sigmoid-14                [-1, 1, 10]               0
================================================================
Total params: 13,668,874
Trainable params: 13,668,874
Non-trainable params: 0
----------------------------------------------------------------
Input size (MB): 0.00
Forward/backward pass size (MB): 0.18
Params size (MB): 52.14
Estimated Total Size (MB): 52.32
----------------------------------------------------------------
…
Epoch:    9  | Loss = 0.04631 | Val_loss: 0.04752 | Accuracy: 92.17 %
Training Done. 4.666295289993286 (s)
Prediction..
Model Saved.
===================== Training Done. File: ABlists_427_-23000_-22000_42000_48000.npy
Generate data from the file: 1448_ABlists_428_-23000_-22000_48000_54000
data_batch Changed:  5120
0, 1, 2, 3, 4, 5, 6, 7, 8, 9, Time consumed: 42.689129114151 (s)
----------------------------------------------------------------
        Layer (type)               Output Shape         Param #
================================================================
            Linear-1              [-1, 1, 4096]       3,051,520
              ReLU-2              [-1, 1, 4096]               0
           Dropout-3              [-1, 1, 4096]               0
            Linear-4              [-1, 1, 2048]       8,390,656
              ReLU-5              [-1, 1, 2048]               0
           Dropout-6              [-1, 1, 2048]               0
            Linear-7              [-1, 1, 1024]       2,098,176
              ReLU-8              [-1, 1, 1024]               0
           Dropout-9              [-1, 1, 1024]               0
           Linear-10               [-1, 1, 512]         524,800
             ReLU-11               [-1, 1, 512]               0
          Dropout-12               [-1, 1, 512]               0
           Linear-13                [-1, 1, 10]           5,130
          Sigmoid-14                [-1, 1, 10]               0
================================================================
Total params: 14,070,282
Trainable params: 14,070,282
Non-trainable params: 0
----------------------------------------------------------------
Input size (MB): 0.00
Forward/backward pass size (MB): 0.18
Params size (MB): 53.67
Estimated Total Size (MB): 53.85
----------------------------------------------------------------
…
Epoch:   10  | Loss = 0.04082 | Val_loss: 0.04250 | Accuracy: 93.25 %
Training Done. 5.098833084106445 (s)
Prediction..
Model Saved.
===================== Training Done. File: ABlists_428_-23000_-22000_48000_54000.npy
Generate data from the file: 1450_ABlists_429_-23000_-22000_54000_60000
data_batch Changed:  5120
0, 1, 2, 3, 4, 5, 6, 7, 8, 9, Time consumed: 51.408639430999756 (s)
----------------------------------------------------------------
        Layer (type)               Output Shape         Param #
================================================================
            Linear-1              [-1, 1, 4096]       3,465,216
              ReLU-2              [-1, 1, 4096]               0
           Dropout-3              [-1, 1, 4096]               0
            Linear-4              [-1, 1, 2048]       8,390,656
              ReLU-5              [-1, 1, 2048]               0
           Dropout-6              [-1, 1, 2048]               0
            Linear-7              [-1, 1, 1024]       2,098,176
              ReLU-8              [-1, 1, 1024]               0
           Dropout-9              [-1, 1, 1024]               0
           Linear-10               [-1, 1, 512]         524,800
             ReLU-11               [-1, 1, 512]               0
          Dropout-12               [-1, 1, 512]               0
           Linear-13                [-1, 1, 10]           5,130
          Sigmoid-14                [-1, 1, 10]               0
================================================================
Total params: 14,483,978
Trainable params: 14,483,978
Non-trainable params: 0
----------------------------------------------------------------
Input size (MB): 0.00
Forward/backward pass size (MB): 0.18
Params size (MB): 55.25
Estimated Total Size (MB): 55.43
----------------------------------------------------------------
…
Epoch:   10  | Loss = 0.04937 | Val_loss: 0.04658 | Accuracy: 92.57 %
Training Done. 5.467551946640015 (s)
Prediction..
Model Saved.
===================== Training Done. File: ABlists_429_-23000_-22000_54000_60000.npy
Generate data from the file: 1452_ABlists_42_-57000_-56000_44000_50000
data_batch Changed:  5120
0, 1, 2, 3, 4, 5, 6, 7, 8, 9, Time consumed: 43.483134031295776 (s)
----------------------------------------------------------------
        Layer (type)               Output Shape         Param #
================================================================
            Linear-1              [-1, 1, 4096]       3,080,192
              ReLU-2              [-1, 1, 4096]               0
           Dropout-3              [-1, 1, 4096]               0
            Linear-4              [-1, 1, 2048]       8,390,656
              ReLU-5              [-1, 1, 2048]               0
           Dropout-6              [-1, 1, 2048]               0
            Linear-7              [-1, 1, 1024]       2,098,176
              ReLU-8              [-1, 1, 1024]               0
           Dropout-9              [-1, 1, 1024]               0
           Linear-10               [-1, 1, 512]         524,800
             ReLU-11               [-1, 1, 512]               0
          Dropout-12               [-1, 1, 512]               0
           Linear-13                [-1, 1, 10]           5,130
          Sigmoid-14                [-1, 1, 10]               0
================================================================
Total params: 14,098,954
Trainable params: 14,098,954
Non-trainable params: 0
----------------------------------------------------------------
Input size (MB): 0.00
Forward/backward pass size (MB): 0.18
Params size (MB): 53.78
Estimated Total Size (MB): 53.96
----------------------------------------------------------------
…
Epoch:   11  | Loss = 0.04076 | Val_loss: 0.04746 | Accuracy: 92.29 %
Training Done. 5.8070642948150635 (s)
Prediction..
Model Saved.
===================== Training Done. File: ABlists_42_-57000_-56000_44000_50000.npy
Generate data from the file: 1454_ABlists_430_-23000_-22000_60000_66000
data_batch Changed:  5120
0, 1, 2, 3, 4, 5, 6, 7, 8, 9, Time consumed: 56.14921450614929 (s)
----------------------------------------------------------------
        Layer (type)               Output Shape         Param #
================================================================
            Linear-1              [-1, 1, 4096]       3,940,352
              ReLU-2              [-1, 1, 4096]               0
           Dropout-3              [-1, 1, 4096]               0
            Linear-4              [-1, 1, 2048]       8,390,656
              ReLU-5              [-1, 1, 2048]               0
           Dropout-6              [-1, 1, 2048]               0
            Linear-7              [-1, 1, 1024]       2,098,176
              ReLU-8              [-1, 1, 1024]               0
           Dropout-9              [-1, 1, 1024]               0
           Linear-10               [-1, 1, 512]         524,800
             ReLU-11               [-1, 1, 512]               0
          Dropout-12               [-1, 1, 512]               0
           Linear-13                [-1, 1, 10]           5,130
          Sigmoid-14                [-1, 1, 10]               0
================================================================
Total params: 14,959,114
Trainable params: 14,959,114
Non-trainable params: 0
----------------------------------------------------------------
Input size (MB): 0.00
Forward/backward pass size (MB): 0.18
Params size (MB): 57.06
Estimated Total Size (MB): 57.24
----------------------------------------------------------------
…
Epoch:   10  | Loss = 0.05673 | Val_loss: 0.05177 | Accuracy: 91.47 %
Epoch:   11  | Loss = 0.04665 | Val_loss: 0.04478 | Accuracy: 93.01 %
Training Done. 6.6285927295684814 (s)
Prediction..
Model Saved.
===================== Training Done. File: ABlists_430_-23000_-22000_60000_66000.npy
Generate data from the file: 1456_ABlists_431_-23000_-22000_66000_4000
0, 1, 2, 3, 4, 5, 6, 7, 8, 9, Time consumed: 74.38702774047852 (s)
----------------------------------------------------------------
        Layer (type)               Output Shape         Param #
================================================================
            Linear-1              [-1, 1, 4096]       5,058,560
              ReLU-2              [-1, 1, 4096]               0
           Dropout-3              [-1, 1, 4096]               0
            Linear-4              [-1, 1, 2048]       8,390,656
              ReLU-5              [-1, 1, 2048]               0
           Dropout-6              [-1, 1, 2048]               0
            Linear-7              [-1, 1, 1024]       2,098,176
              ReLU-8              [-1, 1, 1024]               0
           Dropout-9              [-1, 1, 1024]               0
           Linear-10               [-1, 1, 512]         524,800
             ReLU-11               [-1, 1, 512]               0
          Dropout-12               [-1, 1, 512]               0
           Linear-13                [-1, 1, 10]           5,130
          Sigmoid-14                [-1, 1, 10]               0
================================================================
Total params: 16,077,322
Trainable params: 16,077,322
Non-trainable params: 0
----------------------------------------------------------------
Input size (MB): 0.00
Forward/backward pass size (MB): 0.18
Params size (MB): 61.33
Estimated Total Size (MB): 61.51
----------------------------------------------------------------
…
Epoch:   27  | Loss = 0.12023 | Val_loss: 0.13411 | Accuracy: 58.13 %
Training Done. 19.300063848495483 (s)
Prediction..
Model Saved.
===================== Training Done. File: ABlists_431_-23000_-22000_66000_4000.npy
Generate data from the file: 1458_ABlists_432_-22000_-21000_4000_10000
PRE_PRECESSING Changed: False --> True, power: 8
0, 1, 2, 3, 4, 5, 6, 7, 8, 9, Time consumed: 24.601933479309082 (s)
----------------------------------------------------------------
        Layer (type)               Output Shape         Param #
================================================================
            Linear-1              [-1, 1, 4096]       1,601,536
              ReLU-2              [-1, 1, 4096]               0
           Dropout-3              [-1, 1, 4096]               0
            Linear-4              [-1, 1, 2048]       8,390,656
              ReLU-5              [-1, 1, 2048]               0
           Dropout-6              [-1, 1, 2048]               0
            Linear-7              [-1, 1, 1024]       2,098,176
              ReLU-8              [-1, 1, 1024]               0
           Dropout-9              [-1, 1, 1024]               0
           Linear-10               [-1, 1, 512]         524,800
             ReLU-11               [-1, 1, 512]               0
          Dropout-12               [-1, 1, 512]               0
           Linear-13                [-1, 1, 10]           5,130
          Sigmoid-14                [-1, 1, 10]               0
================================================================
Total params: 12,620,298
Trainable params: 12,620,298
Non-trainable params: 0
----------------------------------------------------------------
Input size (MB): 0.00
Forward/backward pass size (MB): 0.18
Params size (MB): 48.14
Estimated Total Size (MB): 48.32
----------------------------------------------------------------
…
Epoch:   37  | Loss = 0.18423 | Val_loss: 0.23059 | Accuracy: 43.52 %
Training Done. 17.37001609802246 (s)
Prediction..
Model Saved.
===================== Training Done. File: ABlists_432_-22000_-21000_4000_10000.npy
Generate data from the file: 1460_ABlists_433_-22000_-21000_10000_16000
PRE_PRECESSING Changed: False --> True, power: 8
0, 1, 2, 3, 4, 5, 6, 7, 8, 9, Time consumed: 22.4672532081604 (s)
----------------------------------------------------------------
        Layer (type)               Output Shape         Param #
================================================================
            Linear-1              [-1, 1, 4096]       1,687,552
              ReLU-2              [-1, 1, 4096]               0
           Dropout-3              [-1, 1, 4096]               0
            Linear-4              [-1, 1, 2048]       8,390,656
              ReLU-5              [-1, 1, 2048]               0
           Dropout-6              [-1, 1, 2048]               0
            Linear-7              [-1, 1, 1024]       2,098,176
              ReLU-8              [-1, 1, 1024]               0
           Dropout-9              [-1, 1, 1024]               0
           Linear-10               [-1, 1, 512]         524,800
             ReLU-11               [-1, 1, 512]               0
          Dropout-12               [-1, 1, 512]               0
           Linear-13                [-1, 1, 10]           5,130
          Sigmoid-14                [-1, 1, 10]               0
================================================================
Total params: 12,706,314
Trainable params: 12,706,314
Non-trainable params: 0
----------------------------------------------------------------
Input size (MB): 0.00
Forward/backward pass size (MB): 0.18
Params size (MB): 48.47
Estimated Total Size (MB): 48.65
----------------------------------------------------------------
…
Epoch:   35  | Loss = 0.06287 | Val_loss: 0.10836 | Accuracy: 76.25 %
Training Done. 16.782018423080444 (s)
Prediction..
Model Saved.
===================== Training Done. File: ABlists_434_-22000_-21000_16000_22000.npy
Generate data from the file: 1464_ABlists_435_-22000_-21000_22000_28000
data_batch Changed:  5120
0, 1, 2, 3, 4, 5, 6, 7, 8, 9, Time consumed: 22.957347869873047 (s)
----------------------------------------------------------------
        Layer (type)               Output Shape         Param #
================================================================
            Linear-1              [-1, 1, 4096]       1,822,720
              ReLU-2              [-1, 1, 4096]               0
           Dropout-3              [-1, 1, 4096]               0
            Linear-4              [-1, 1, 2048]       8,390,656
              ReLU-5              [-1, 1, 2048]               0
           Dropout-6              [-1, 1, 2048]               0
            Linear-7              [-1, 1, 1024]       2,098,176
              ReLU-8              [-1, 1, 1024]               0
           Dropout-9              [-1, 1, 1024]               0
           Linear-10               [-1, 1, 512]         524,800
             ReLU-11               [-1, 1, 512]               0
          Dropout-12               [-1, 1, 512]               0
           Linear-13                [-1, 1, 10]           5,130
          Sigmoid-14                [-1, 1, 10]               0
================================================================
Total params: 12,841,482
Trainable params: 12,841,482
Non-trainable params: 0
----------------------------------------------------------------
Input size (MB): 0.00
Forward/backward pass size (MB): 0.18
Params size (MB): 48.99
Estimated Total Size (MB): 49.16
----------------------------------------------------------------
…
Epoch:    7  | Loss = 0.05771 | Val_loss: 0.04504 | Accuracy: 93.96 %
Training Done. 3.4724273681640625 (s)
Prediction..
Model Saved.
===================== Training Done. File: ABlists_437_-22000_-21000_34000_40000.npy
Generate data from the file: 1470_ABlists_438_-22000_-21000_40000_46000
data_batch Changed:  5120
0, 1, 2, 3, 4, 5, 6, 7, 8, 9, Time consumed: 34.97992658615112 (s)
----------------------------------------------------------------
        Layer (type)               Output Shape         Param #
================================================================
            Linear-1              [-1, 1, 4096]       2,494,464
              ReLU-2              [-1, 1, 4096]               0
           Dropout-3              [-1, 1, 4096]               0
            Linear-4              [-1, 1, 2048]       8,390,656
              ReLU-5              [-1, 1, 2048]               0
           Dropout-6              [-1, 1, 2048]               0
            Linear-7              [-1, 1, 1024]       2,098,176
              ReLU-8              [-1, 1, 1024]               0
           Dropout-9              [-1, 1, 1024]               0
           Linear-10               [-1, 1, 512]         524,800
             ReLU-11               [-1, 1, 512]               0
          Dropout-12               [-1, 1, 512]               0
           Linear-13                [-1, 1, 10]           5,130
          Sigmoid-14                [-1, 1, 10]               0
================================================================
Total params: 13,513,226
Trainable params: 13,513,226
Non-trainable params: 0
----------------------------------------------------------------
Input size (MB): 0.00
Forward/backward pass size (MB): 0.18
Params size (MB): 51.55
Estimated Total Size (MB): 51.73
----------------------------------------------------------------
…
Epoch:    9  | Loss = 0.03803 | Val_loss: 0.04094 | Accuracy: 93.35 %
Training Done. 4.463265657424927 (s)
Prediction..
Model Saved.
===================== Training Done. File: ABlists_438_-22000_-21000_40000_46000.npy
Generate data from the file: 1472_ABlists_439_-22000_-21000_46000_52000
data_batch Changed:  5120
0, 1, 2, 3, 4, 5, 6, 7, 8, 9, Time consumed: 40.01924443244934 (s)
----------------------------------------------------------------
        Layer (type)               Output Shape         Param #
================================================================
            Linear-1              [-1, 1, 4096]       2,785,280
              ReLU-2              [-1, 1, 4096]               0
           Dropout-3              [-1, 1, 4096]               0
            Linear-4              [-1, 1, 2048]       8,390,656
              ReLU-5              [-1, 1, 2048]               0
           Dropout-6              [-1, 1, 2048]               0
            Linear-7              [-1, 1, 1024]       2,098,176
              ReLU-8              [-1, 1, 1024]               0
           Dropout-9              [-1, 1, 1024]               0
           Linear-10               [-1, 1, 512]         524,800
             ReLU-11               [-1, 1, 512]               0
          Dropout-12               [-1, 1, 512]               0
           Linear-13                [-1, 1, 10]           5,130
          Sigmoid-14                [-1, 1, 10]               0
================================================================
Total params: 13,804,042
Trainable params: 13,804,042
Non-trainable params: 0
----------------------------------------------------------------
Input size (MB): 0.00
Forward/backward pass size (MB): 0.18
Params size (MB): 52.66
Estimated Total Size (MB): 52.84
----------------------------------------------------------------
…
Epoch:   11  | Loss = 0.04009 | Val_loss: 0.04720 | Accuracy: 92.02 %
Training Done. 5.765642166137695 (s)
Prediction..
Model Saved.
===================== Training Done. File: ABlists_439_-22000_-21000_46000_52000.npy
Generate data from the file: 1474_ABlists_43_-57000_-56000_50000_56000
data_batch Changed:  5120
0, 1, 2, 3, 4, 5, 6, 7, 8, 9, Time consumed: 54.602158308029175 (s)
----------------------------------------------------------------
        Layer (type)               Output Shape         Param #
================================================================
            Linear-1              [-1, 1, 4096]       3,764,224
              ReLU-2              [-1, 1, 4096]               0
           Dropout-3              [-1, 1, 4096]               0
            Linear-4              [-1, 1, 2048]       8,390,656
              ReLU-5              [-1, 1, 2048]               0
           Dropout-6              [-1, 1, 2048]               0
            Linear-7              [-1, 1, 1024]       2,098,176
              ReLU-8              [-1, 1, 1024]               0
           Dropout-9              [-1, 1, 1024]               0
           Linear-10               [-1, 1, 512]         524,800
             ReLU-11               [-1, 1, 512]               0
          Dropout-12               [-1, 1, 512]               0
           Linear-13                [-1, 1, 10]           5,130
          Sigmoid-14                [-1, 1, 10]               0
================================================================
Total params: 14,782,986
Trainable params: 14,782,986
Non-trainable params: 0
----------------------------------------------------------------
Input size (MB): 0.00
Forward/backward pass size (MB): 0.18
Params size (MB): 56.39
Estimated Total Size (MB): 56.57
----------------------------------------------------------------
…
Epoch:   12  | Loss = 0.04346 | Val_loss: 0.04782 | Accuracy: 92.70 %
Training Done. 6.902665138244629 (s)
Prediction..
Model Saved.
===================== Training Done. File: ABlists_43_-57000_-56000_50000_56000.npy
Generate data from the file: 1476_ABlists_440_-22000_-21000_52000_58000
data_batch Changed:  5120
0, 1, 2, 3, 4, 5, 6, 7, 8, 9, Time consumed: 44.19599747657776 (s)
----------------------------------------------------------------
        Layer (type)               Output Shape         Param #
================================================================
            Linear-1              [-1, 1, 4096]       3,158,016
              ReLU-2              [-1, 1, 4096]               0
           Dropout-3              [-1, 1, 4096]               0
            Linear-4              [-1, 1, 2048]       8,390,656
              ReLU-5              [-1, 1, 2048]               0
           Dropout-6              [-1, 1, 2048]               0
            Linear-7              [-1, 1, 1024]       2,098,176
              ReLU-8              [-1, 1, 1024]               0
           Dropout-9              [-1, 1, 1024]               0
           Linear-10               [-1, 1, 512]         524,800
             ReLU-11               [-1, 1, 512]               0
          Dropout-12               [-1, 1, 512]               0
           Linear-13                [-1, 1, 10]           5,130
          Sigmoid-14                [-1, 1, 10]               0
================================================================
Total params: 14,176,778
Trainable params: 14,176,778
Non-trainable params: 0
----------------------------------------------------------------
Input size (MB): 0.00
Forward/backward pass size (MB): 0.18
Params size (MB): 54.08
Estimated Total Size (MB): 54.26
----------------------------------------------------------------
…
Epoch:   10  | Loss = 0.04832 | Val_loss: 0.04688 | Accuracy: 92.66 %
Training Done. 5.405200481414795 (s)
Prediction..
Model Saved.
===================== Training Done. File: ABlists_440_-22000_-21000_52000_58000.npy
Generate data from the file: 1478_ABlists_441_-22000_-21000_58000_64000
data_batch Changed:  5120
0, 1, 2, 3, 4, 5, 6, 7, 8, 9, Time consumed: 51.46135997772217 (s)
----------------------------------------------------------------
        Layer (type)               Output Shape         Param #
================================================================
            Linear-1              [-1, 1, 4096]       3,629,056
              ReLU-2              [-1, 1, 4096]               0
           Dropout-3              [-1, 1, 4096]               0
            Linear-4              [-1, 1, 2048]       8,390,656
              ReLU-5              [-1, 1, 2048]               0
           Dropout-6              [-1, 1, 2048]               0
            Linear-7              [-1, 1, 1024]       2,098,176
              ReLU-8              [-1, 1, 1024]               0
           Dropout-9              [-1, 1, 1024]               0
           Linear-10               [-1, 1, 512]         524,800
             ReLU-11               [-1, 1, 512]               0
          Dropout-12               [-1, 1, 512]               0
           Linear-13                [-1, 1, 10]           5,130
          Sigmoid-14                [-1, 1, 10]               0
================================================================
Total params: 14,647,818
Trainable params: 14,647,818
Non-trainable params: 0
----------------------------------------------------------------
Input size (MB): 0.00
Forward/backward pass size (MB): 0.18
Params size (MB): 55.88
Estimated Total Size (MB): 56.06
----------------------------------------------------------------
…
Epoch:   11  | Loss = 0.05724 | Val_loss: 0.05365 | Accuracy: 92.00 %
Training Done. 6.317707300186157 (s)
Prediction..
Model Saved.
===================== Training Done. File: ABlists_441_-22000_-21000_58000_64000.npy
Generate data from the file: 1480_ABlists_442_-22000_-21000_64000_70000
data_batch Changed:  5120
0, 1, 2, 3, 4, 5, 6, 7, 8, 9, Time consumed: 55.56381940841675 (s)
----------------------------------------------------------------
        Layer (type)               Output Shape         Param #
================================================================
            Linear-1              [-1, 1, 4096]       4,014,080
              ReLU-2              [-1, 1, 4096]               0
           Dropout-3              [-1, 1, 4096]               0
            Linear-4              [-1, 1, 2048]       8,390,656
              ReLU-5              [-1, 1, 2048]               0
           Dropout-6              [-1, 1, 2048]               0
            Linear-7              [-1, 1, 1024]       2,098,176
              ReLU-8              [-1, 1, 1024]               0
           Dropout-9              [-1, 1, 1024]               0
           Linear-10               [-1, 1, 512]         524,800
             ReLU-11               [-1, 1, 512]               0
          Dropout-12               [-1, 1, 512]               0
           Linear-13                [-1, 1, 10]           5,130
          Sigmoid-14                [-1, 1, 10]               0
================================================================
Total params: 15,032,842
Trainable params: 15,032,842
Non-trainable params: 0
----------------------------------------------------------------
Input size (MB): 0.00
Forward/backward pass size (MB): 0.18
Params size (MB): 57.35
Estimated Total Size (MB): 57.53
----------------------------------------------------------------
…
Epoch:   14  | Loss = 0.04307 | Val_loss: 0.04445 | Accuracy: 92.26 %
Training Done. 8.121686458587646 (s)
Prediction..
Model Saved.
===================== Training Done. File: ABlists_442_-22000_-21000_64000_70000.npy
Generate data from the file: 1482_ABlists_443_-21000_-20000_2000_8000
PRE_PRECESSING Changed: False --> True, power: 8
0, 1, 2, 3, 4, 5, 6, 7, 8, 9, Time consumed: 22.82678461074829 (s)
----------------------------------------------------------------
        Layer (type)               Output Shape         Param #
================================================================
            Linear-1              [-1, 1, 4096]       1,540,096
              ReLU-2              [-1, 1, 4096]               0
           Dropout-3              [-1, 1, 4096]               0
            Linear-4              [-1, 1, 2048]       8,390,656
              ReLU-5              [-1, 1, 2048]               0
           Dropout-6              [-1, 1, 2048]               0
            Linear-7              [-1, 1, 1024]       2,098,176
              ReLU-8              [-1, 1, 1024]               0
           Dropout-9              [-1, 1, 1024]               0
           Linear-10               [-1, 1, 512]         524,800
             ReLU-11               [-1, 1, 512]               0
          Dropout-12               [-1, 1, 512]               0
           Linear-13                [-1, 1, 10]           5,130
          Sigmoid-14                [-1, 1, 10]               0
================================================================
Total params: 12,558,858
Trainable params: 12,558,858
Non-trainable params: 0
----------------------------------------------------------------
Input size (MB): 0.00
Forward/backward pass size (MB): 0.18
Params size (MB): 47.91
Estimated Total Size (MB): 48.09
----------------------------------------------------------------
…
Epoch:   28  | Loss = 0.24478 | Val_loss: 0.26704 | Accuracy: 29.15 %
Training Done. 12.865245580673218 (s)
Prediction..
Model Saved.
===================== Training Done. File: ABlists_443_-21000_-20000_2000_8000.npy
Generate data from the file: 1484_ABlists_444_-21000_-20000_8000_14000
PRE_PRECESSING Changed: False --> True, power: 8
0, 1, 2, 3, 4, 5, 6, 7, 8, 9, Time consumed: 24.694852590560913 (s)
----------------------------------------------------------------
        Layer (type)               Output Shape         Param #
================================================================
            Linear-1              [-1, 1, 4096]       1,642,496
              ReLU-2              [-1, 1, 4096]               0
           Dropout-3              [-1, 1, 4096]               0
            Linear-4              [-1, 1, 2048]       8,390,656
              ReLU-5              [-1, 1, 2048]               0
           Dropout-6              [-1, 1, 2048]               0
            Linear-7              [-1, 1, 1024]       2,098,176
              ReLU-8              [-1, 1, 1024]               0
           Dropout-9              [-1, 1, 1024]               0
           Linear-10               [-1, 1, 512]         524,800
             ReLU-11               [-1, 1, 512]               0
          Dropout-12               [-1, 1, 512]               0
           Linear-13                [-1, 1, 10]           5,130
          Sigmoid-14                [-1, 1, 10]               0
================================================================
Total params: 12,661,258
Trainable params: 12,661,258
Non-trainable params: 0
----------------------------------------------------------------
Input size (MB): 0.00
Forward/backward pass size (MB): 0.18
Params size (MB): 48.30
Estimated Total Size (MB): 48.48
----------------------------------------------------------------
…
Epoch:   36  | Loss = 0.13928 | Val_loss: 0.18971 | Accuracy: 57.20 %
Epoch:   37  | Loss = 0.14101 | Val_loss: 0.19027 | Accuracy: 57.66 %
Training Done. 17.087732791900635 (s)
Prediction..
Model Saved.
===================== Training Done. File: ABlists_444_-21000_-20000_8000_14000.npy
Generate data from the file: 1486_ABlists_445_-21000_-20000_14000_20000
0, 1, 2, 3, 4, 5, 6, 7, 8, 9, Time consumed: 25.099986791610718 (s)
----------------------------------------------------------------
        Layer (type)               Output Shape         Param #
================================================================
            Linear-1              [-1, 1, 4096]       1,699,840
              ReLU-2              [-1, 1, 4096]               0
           Dropout-3              [-1, 1, 4096]               0
            Linear-4              [-1, 1, 2048]       8,390,656
              ReLU-5              [-1, 1, 2048]               0
           Dropout-6              [-1, 1, 2048]               0
            Linear-7              [-1, 1, 1024]       2,098,176
              ReLU-8              [-1, 1, 1024]               0
           Dropout-9              [-1, 1, 1024]               0
           Linear-10               [-1, 1, 512]         524,800
             ReLU-11               [-1, 1, 512]               0
          Dropout-12               [-1, 1, 512]               0
           Linear-13                [-1, 1, 10]           5,130
          Sigmoid-14                [-1, 1, 10]               0
================================================================
Total params: 12,718,602
Trainable params: 12,718,602
Non-trainable params: 0
----------------------------------------------------------------
Input size (MB): 0.00
Forward/backward pass size (MB): 0.18
Params size (MB): 48.52
Estimated Total Size (MB): 48.70
----------------------------------------------------------------
…
Epoch:   38  | Loss = 0.10054 | Val_loss: 0.17439 | Accuracy: 63.59 %
Training Done. 17.95382070541382 (s)
Prediction..
Model Saved.
===================== Training Done. File: ABlists_445_-21000_-20000_14000_20000.npy
Generate data from the file: 1488_ABlists_446_-21000_-20000_20000_26000
data_batch Changed:  5120
0, 1, 2, 3, 4, 5, 6, 7, 8, 9, Time consumed: 25.12083911895752 (s)
----------------------------------------------------------------
        Layer (type)               Output Shape         Param #
================================================================
            Linear-1              [-1, 1, 4096]       1,773,568
              ReLU-2              [-1, 1, 4096]               0
           Dropout-3              [-1, 1, 4096]               0
            Linear-4              [-1, 1, 2048]       8,390,656
              ReLU-5              [-1, 1, 2048]               0
           Dropout-6              [-1, 1, 2048]               0
            Linear-7              [-1, 1, 1024]       2,098,176
              ReLU-8              [-1, 1, 1024]               0
           Dropout-9              [-1, 1, 1024]               0
           Linear-10               [-1, 1, 512]         524,800
             ReLU-11               [-1, 1, 512]               0
          Dropout-12               [-1, 1, 512]               0
           Linear-13                [-1, 1, 10]           5,130
          Sigmoid-14                [-1, 1, 10]               0
================================================================
Total params: 12,792,330
Trainable params: 12,792,330
Non-trainable params: 0
----------------------------------------------------------------
Input size (MB): 0.00
Forward/backward pass size (MB): 0.18
Params size (MB): 48.80
Estimated Total Size (MB): 48.98
----------------------------------------------------------------
…
Epoch:   10  | Loss = 0.03782 | Val_loss: 0.04026 | Accuracy: 93.10 %
Training Done. 4.728288888931274 (s)
Prediction..
Model Saved.
===================== Training Done. File: ABlists_447_-21000_-20000_26000_32000.npy
Generate data from the file: 1492_ABlists_448_-21000_-20000_32000_38000
data_batch Changed:  5120
0, 1, 2, 3, 4, 5, 6, 7, 8, 9, Time consumed: 28.817646026611328 (s)
----------------------------------------------------------------
        Layer (type)               Output Shape         Param #
================================================================
            Linear-1              [-1, 1, 4096]       2,064,384
              ReLU-2              [-1, 1, 4096]               0
           Dropout-3              [-1, 1, 4096]               0
            Linear-4              [-1, 1, 2048]       8,390,656
              ReLU-5              [-1, 1, 2048]               0
           Dropout-6              [-1, 1, 2048]               0
            Linear-7              [-1, 1, 1024]       2,098,176
              ReLU-8              [-1, 1, 1024]               0
           Dropout-9              [-1, 1, 1024]               0
           Linear-10               [-1, 1, 512]         524,800
             ReLU-11               [-1, 1, 512]               0
          Dropout-12               [-1, 1, 512]               0
           Linear-13                [-1, 1, 10]           5,130
          Sigmoid-14                [-1, 1, 10]               0
================================================================
Total params: 13,083,146
Trainable params: 13,083,146
Non-trainable params: 0
----------------------------------------------------------------
Input size (MB): 0.00
Forward/backward pass size (MB): 0.18
Params size (MB): 49.91
Estimated Total Size (MB): 50.09
----------------------------------------------------------------
…
Epoch:    7  | Loss = 0.05137 | Val_loss: 0.04636 | Accuracy: 93.20 %
Training Done. 3.4242708683013916 (s)
Prediction..
Model Saved.
===================== Training Done. File: ABlists_448_-21000_-20000_32000_38000.npy
Generate data from the file: 1494_ABlists_449_-21000_-20000_38000_44000
data_batch Changed:  5120
0, 1, 2, 3, 4, 5, 6, 7, 8, 9, Time consumed: 33.65419125556946 (s)
----------------------------------------------------------------
        Layer (type)               Output Shape         Param #
================================================================
            Linear-1              [-1, 1, 4096]       2,387,968
              ReLU-2              [-1, 1, 4096]               0
           Dropout-3              [-1, 1, 4096]               0
            Linear-4              [-1, 1, 2048]       8,390,656
              ReLU-5              [-1, 1, 2048]               0
           Dropout-6              [-1, 1, 2048]               0
            Linear-7              [-1, 1, 1024]       2,098,176
              ReLU-8              [-1, 1, 1024]               0
           Dropout-9              [-1, 1, 1024]               0
           Linear-10               [-1, 1, 512]         524,800
             ReLU-11               [-1, 1, 512]               0
          Dropout-12               [-1, 1, 512]               0
           Linear-13                [-1, 1, 10]           5,130
          Sigmoid-14                [-1, 1, 10]               0
================================================================
Total params: 13,406,730
Trainable params: 13,406,730
Non-trainable params: 0
----------------------------------------------------------------
Input size (MB): 0.00
Forward/backward pass size (MB): 0.18
Params size (MB): 51.14
Estimated Total Size (MB): 51.32
----------------------------------------------------------------
…
Epoch:    8  | Loss = 0.04989 | Val_loss: 0.04763 | Accuracy: 92.53 %
Training Done. 4.018092155456543 (s)
Prediction..
Model Saved.
===================== Training Done. File: ABlists_449_-21000_-20000_38000_44000.npy
Generate data from the file: 1496_ABlists_44_-57000_-56000_56000_62000
data_batch Changed:  5120
0, 1, 2, 3, 4, 5, 6, 7, 8, 9, Time consumed: 61.71181583404541 (s)
----------------------------------------------------------------
        Layer (type)               Output Shape         Param #
================================================================
            Linear-1              [-1, 1, 4096]       4,251,648
              ReLU-2              [-1, 1, 4096]               0
           Dropout-3              [-1, 1, 4096]               0
            Linear-4              [-1, 1, 2048]       8,390,656
              ReLU-5              [-1, 1, 2048]               0
           Dropout-6              [-1, 1, 2048]               0
            Linear-7              [-1, 1, 1024]       2,098,176
              ReLU-8              [-1, 1, 1024]               0
           Dropout-9              [-1, 1, 1024]               0
           Linear-10               [-1, 1, 512]         524,800
             ReLU-11               [-1, 1, 512]               0
          Dropout-12               [-1, 1, 512]               0
           Linear-13                [-1, 1, 10]           5,130
          Sigmoid-14                [-1, 1, 10]               0
================================================================
Total params: 15,270,410
Trainable params: 15,270,410
Non-trainable params: 0
----------------------------------------------------------------
Input size (MB): 0.00
Forward/backward pass size (MB): 0.18
Params size (MB): 58.25
Estimated Total Size (MB): 58.43
----------------------------------------------------------------
…
Epoch:   13  | Loss = 0.05180 | Val_loss: 0.05226 | Accuracy: 92.02 %
Training Done. 9.120989322662354 (s)
Prediction..
Model Saved.
===================== Training Done. File: ABlists_44_-57000_-56000_56000_62000.npy
Generate data from the file: 1498_ABlists_450_-21000_-20000_44000_50000
data_batch Changed:  5120
0, 1, 2, 3, 4, 5, 6, 7, 8, 9, Time consumed: 37.17823386192322 (s)
----------------------------------------------------------------
        Layer (type)               Output Shape         Param #
================================================================
            Linear-1              [-1, 1, 4096]       2,629,632
              ReLU-2              [-1, 1, 4096]               0
           Dropout-3              [-1, 1, 4096]               0
            Linear-4              [-1, 1, 2048]       8,390,656
              ReLU-5              [-1, 1, 2048]               0
           Dropout-6              [-1, 1, 2048]               0
            Linear-7              [-1, 1, 1024]       2,098,176
              ReLU-8              [-1, 1, 1024]               0
           Dropout-9              [-1, 1, 1024]               0
           Linear-10               [-1, 1, 512]         524,800
             ReLU-11               [-1, 1, 512]               0
          Dropout-12               [-1, 1, 512]               0
           Linear-13                [-1, 1, 10]           5,130
          Sigmoid-14                [-1, 1, 10]               0
================================================================
Total params: 13,648,394
Trainable params: 13,648,394
Non-trainable params: 0
----------------------------------------------------------------
Input size (MB): 0.00
Forward/backward pass size (MB): 0.18
Params size (MB): 52.06
Estimated Total Size (MB): 52.24
----------------------------------------------------------------
…
Epoch:   10  | Loss = 0.04473 | Val_loss: 0.04546 | Accuracy: 92.79 %
Training Done. 5.170671224594116 (s)
Prediction..
Model Saved.
===================== Training Done. File: ABlists_450_-21000_-20000_44000_50000.npy
Generate data from the file: 1500_ABlists_451_-21000_-20000_50000_56000
data_batch Changed:  5120
0, 1, 2, 3, 4, 5, 6, 7, 8, 9, Time consumed: 42.1093533039093 (s)
----------------------------------------------------------------
        Layer (type)               Output Shape         Param #
================================================================
            Linear-1              [-1, 1, 4096]       2,932,736
              ReLU-2              [-1, 1, 4096]               0
           Dropout-3              [-1, 1, 4096]               0
            Linear-4              [-1, 1, 2048]       8,390,656
              ReLU-5              [-1, 1, 2048]               0
           Dropout-6              [-1, 1, 2048]               0
            Linear-7              [-1, 1, 1024]       2,098,176
              ReLU-8              [-1, 1, 1024]               0
           Dropout-9              [-1, 1, 1024]               0
           Linear-10               [-1, 1, 512]         524,800
             ReLU-11               [-1, 1, 512]               0
          Dropout-12               [-1, 1, 512]               0
           Linear-13                [-1, 1, 10]           5,130
          Sigmoid-14                [-1, 1, 10]               0
================================================================
Total params: 13,951,498
Trainable params: 13,951,498
Non-trainable params: 0
----------------------------------------------------------------
Input size (MB): 0.00
Forward/backward pass size (MB): 0.18
Params size (MB): 53.22
Estimated Total Size (MB): 53.40
----------------------------------------------------------------
…
Epoch:    9  | Loss = 0.04668 | Val_loss: 0.04627 | Accuracy: 93.01 %
Training Done. 4.7639992237091064 (s)
Prediction..
Model Saved.
===================== Training Done. File: ABlists_451_-21000_-20000_50000_56000.npy
Generate data from the file: 1502_ABlists_452_-21000_-20000_56000_62000
data_batch Changed:  5120
0, 1, 2, 3, 4, 5, 6, 7, 8, 9, Time consumed: 46.6787211894989 (s)
----------------------------------------------------------------
        Layer (type)               Output Shape         Param #
================================================================
            Linear-1              [-1, 1, 4096]       3,268,608
              ReLU-2              [-1, 1, 4096]               0
           Dropout-3              [-1, 1, 4096]               0
            Linear-4              [-1, 1, 2048]       8,390,656
              ReLU-5              [-1, 1, 2048]               0
           Dropout-6              [-1, 1, 2048]               0
            Linear-7              [-1, 1, 1024]       2,098,176
              ReLU-8              [-1, 1, 1024]               0
           Dropout-9              [-1, 1, 1024]               0
           Linear-10               [-1, 1, 512]         524,800
             ReLU-11               [-1, 1, 512]               0
          Dropout-12               [-1, 1, 512]               0
           Linear-13                [-1, 1, 10]           5,130
          Sigmoid-14                [-1, 1, 10]               0
================================================================
Total params: 14,287,370
Trainable params: 14,287,370
Non-trainable params: 0
----------------------------------------------------------------
Input size (MB): 0.00
Forward/backward pass size (MB): 0.18
Params size (MB): 54.50
Estimated Total Size (MB): 54.68
----------------------------------------------------------------
…
Epoch:    9  | Loss = 0.04980 | Val_loss: 0.04756 | Accuracy: 92.98 %
Training Done. 4.891090393066406 (s)
Prediction..
Model Saved.
===================== Training Done. File: ABlists_452_-21000_-20000_56000_62000.npy
Generate data from the file: 1504_ABlists_453_-21000_-20000_62000_68000
data_batch Changed:  5120
0, 1, 2, 3, 4, 5, 6, 7, 8, 9, Time consumed: 52.524532318115234 (s)
----------------------------------------------------------------
        Layer (type)               Output Shape         Param #
================================================================
            Linear-1              [-1, 1, 4096]       3,731,456
              ReLU-2              [-1, 1, 4096]               0
           Dropout-3              [-1, 1, 4096]               0
            Linear-4              [-1, 1, 2048]       8,390,656
              ReLU-5              [-1, 1, 2048]               0
           Dropout-6              [-1, 1, 2048]               0
            Linear-7              [-1, 1, 1024]       2,098,176
              ReLU-8              [-1, 1, 1024]               0
           Dropout-9              [-1, 1, 1024]               0
           Linear-10               [-1, 1, 512]         524,800
             ReLU-11               [-1, 1, 512]               0
          Dropout-12               [-1, 1, 512]               0
           Linear-13                [-1, 1, 10]           5,130
          Sigmoid-14                [-1, 1, 10]               0
================================================================
Total params: 14,750,218
Trainable params: 14,750,218
Non-trainable params: 0
----------------------------------------------------------------
Input size (MB): 0.00
Forward/backward pass size (MB): 0.18
Params size (MB): 56.27
Estimated Total Size (MB): 56.45
----------------------------------------------------------------
…
Epoch:   13  | Loss = 0.04050 | Val_loss: 0.04195 | Accuracy: 92.94 %
Training Done. 7.245556592941284 (s)
Prediction..
Model Saved.
===================== Training Done. File: ABlists_453_-21000_-20000_62000_68000.npy
Generate data from the file: 1506_ABlists_454_-21000_-20000_68000_6000
PRE_PRECESSING Changed: False --> True, power: 8
0, 1, 2, 3, 4, 5, 6, 7, 8, 9, Time consumed: 54.4942684173584 (s)
----------------------------------------------------------------
        Layer (type)               Output Shape         Param #
================================================================
            Linear-1              [-1, 1, 4096]       4,296,704
              ReLU-2              [-1, 1, 4096]               0
           Dropout-3              [-1, 1, 4096]               0
            Linear-4              [-1, 1, 2048]       8,390,656
              ReLU-5              [-1, 1, 2048]               0
           Dropout-6              [-1, 1, 2048]               0
            Linear-7              [-1, 1, 1024]       2,098,176
              ReLU-8              [-1, 1, 1024]               0
           Dropout-9              [-1, 1, 1024]               0
           Linear-10               [-1, 1, 512]         524,800
             ReLU-11               [-1, 1, 512]               0
          Dropout-12               [-1, 1, 512]               0
           Linear-13                [-1, 1, 10]           5,130
          Sigmoid-14                [-1, 1, 10]               0
================================================================
Total params: 15,315,466
Trainable params: 15,315,466
Non-trainable params: 0
----------------------------------------------------------------
Input size (MB): 0.00
Forward/backward pass size (MB): 0.18
Params size (MB): 58.42
Estimated Total Size (MB): 58.60
----------------------------------------------------------------
…
Epoch:   17  | Loss = 0.21028 | Val_loss: 0.22177 | Accuracy: 36.44 %
Training Done. 11.85029935836792 (s)
Prediction..
Model Saved.
===================== Training Done. File: ABlists_454_-21000_-20000_68000_6000.npy
Generate data from the file: 1508_ABlists_455_-20000_-19000_6000_12000
PRE_PRECESSING Changed: False --> True, power: 8
0, 1, 2, 3, 4, 5, 6, 7, 8, 9, Time consumed: 19.237359046936035 (s)
----------------------------------------------------------------
        Layer (type)               Output Shape         Param #
================================================================
            Linear-1              [-1, 1, 4096]       1,572,864
              ReLU-2              [-1, 1, 4096]               0
           Dropout-3              [-1, 1, 4096]               0
            Linear-4              [-1, 1, 2048]       8,390,656
              ReLU-5              [-1, 1, 2048]               0
           Dropout-6              [-1, 1, 2048]               0
            Linear-7              [-1, 1, 1024]       2,098,176
              ReLU-8              [-1, 1, 1024]               0
           Dropout-9              [-1, 1, 1024]               0
           Linear-10               [-1, 1, 512]         524,800
             ReLU-11               [-1, 1, 512]               0
          Dropout-12               [-1, 1, 512]               0
           Linear-13                [-1, 1, 10]           5,130
          Sigmoid-14                [-1, 1, 10]               0
================================================================
Total params: 12,591,626
Trainable params: 12,591,626
Non-trainable params: 0
----------------------------------------------------------------
Input size (MB): 0.00
Forward/backward pass size (MB): 0.18
Params size (MB): 48.03
Estimated Total Size (MB): 48.21
----------------------------------------------------------------
…
Epoch:   34  | Loss = 0.21025 | Val_loss: 0.22395 | Accuracy: 46.31 %
Training Done. 15.77661681175232 (s)
Prediction..
Model Saved.
===================== Training Done. File: ABlists_455_-20000_-19000_6000_12000.npy
Generate data from the file: 1510_ABlists_456_-20000_-19000_12000_18000
PRE_PRECESSING Changed: False --> True, power: 8
0, 1, 2, 3, 4, 5, 6, 7, 8, 9, Time consumed: 24.072405576705933 (s)
----------------------------------------------------------------
        Layer (type)               Output Shape         Param #
================================================================
            Linear-1              [-1, 1, 4096]       1,667,072
              ReLU-2              [-1, 1, 4096]               0
           Dropout-3              [-1, 1, 4096]               0
            Linear-4              [-1, 1, 2048]       8,390,656
              ReLU-5              [-1, 1, 2048]               0
           Dropout-6              [-1, 1, 2048]               0
            Linear-7              [-1, 1, 1024]       2,098,176
              ReLU-8              [-1, 1, 1024]               0
           Dropout-9              [-1, 1, 1024]               0
           Linear-10               [-1, 1, 512]         524,800
             ReLU-11               [-1, 1, 512]               0
          Dropout-12               [-1, 1, 512]               0
           Linear-13                [-1, 1, 10]           5,130
          Sigmoid-14                [-1, 1, 10]               0
================================================================
Total params: 12,685,834
Trainable params: 12,685,834
Non-trainable params: 0
----------------------------------------------------------------
Input size (MB): 0.00
Forward/backward pass size (MB): 0.18
Params size (MB): 48.39
Estimated Total Size (MB): 48.57
----------------------------------------------------------------
…
Epoch:   31  | Loss = 0.03862 | Val_loss: 0.07844 | Accuracy: 83.84 %
Training Done. 14.642801523208618 (s)
Prediction..
Model Saved.
===================== Training Done. File: ABlists_457_-20000_-19000_18000_24000.npy
Generate data from the file: 1514_ABlists_458_-20000_-19000_24000_30000
data_batch Changed:  5120
0, 1, 2, 3, 4, 5, 6, 7, 8, 9, Time consumed: 27.032516717910767 (s)
----------------------------------------------------------------
        Layer (type)               Output Shape         Param #
================================================================
            Linear-1              [-1, 1, 4096]       1,818,624
              ReLU-2              [-1, 1, 4096]               0
           Dropout-3              [-1, 1, 4096]               0
            Linear-4              [-1, 1, 2048]       8,390,656
              ReLU-5              [-1, 1, 2048]               0
           Dropout-6              [-1, 1, 2048]               0
            Linear-7              [-1, 1, 1024]       2,098,176
              ReLU-8              [-1, 1, 1024]               0
           Dropout-9              [-1, 1, 1024]               0
           Linear-10               [-1, 1, 512]         524,800
             ReLU-11               [-1, 1, 512]               0
          Dropout-12               [-1, 1, 512]               0
           Linear-13                [-1, 1, 10]           5,130
          Sigmoid-14                [-1, 1, 10]               0
================================================================
Total params: 12,837,386
Trainable params: 12,837,386
Non-trainable params: 0
----------------------------------------------------------------
Input size (MB): 0.00
Forward/backward pass size (MB): 0.18
Params size (MB): 48.97
Estimated Total Size (MB): 49.15
----------------------------------------------------------------
…
Epoch:   13  | Loss = 0.03993 | Val_loss: 0.04069 | Accuracy: 92.14 %
Training Done. 6.153737545013428 (s)
Prediction..
Model Saved.
===================== Training Done. File: ABlists_458_-20000_-19000_24000_30000.npy
Generate data from the file: 1516_ABlists_459_-20000_-19000_30000_36000
data_batch Changed:  5120
0, 1, 2, 3, 4, 5, 6, 7, 8, 9, Time consumed: 29.43224024772644 (s)
----------------------------------------------------------------
        Layer (type)               Output Shape         Param #
================================================================
            Linear-1              [-1, 1, 4096]       1,970,176
              ReLU-2              [-1, 1, 4096]               0
           Dropout-3              [-1, 1, 4096]               0
            Linear-4              [-1, 1, 2048]       8,390,656
              ReLU-5              [-1, 1, 2048]               0
           Dropout-6              [-1, 1, 2048]               0
            Linear-7              [-1, 1, 1024]       2,098,176
              ReLU-8              [-1, 1, 1024]               0
           Dropout-9              [-1, 1, 1024]               0
           Linear-10               [-1, 1, 512]         524,800
             ReLU-11               [-1, 1, 512]               0
          Dropout-12               [-1, 1, 512]               0
           Linear-13                [-1, 1, 10]           5,130
          Sigmoid-14                [-1, 1, 10]               0
================================================================
Total params: 12,988,938
Trainable params: 12,988,938
Non-trainable params: 0
----------------------------------------------------------------
Input size (MB): 0.00
Forward/backward pass size (MB): 0.18
Params size (MB): 49.55
Estimated Total Size (MB): 49.73
----------------------------------------------------------------
…
Epoch:    9  | Loss = 0.04453 | Val_loss: 0.04229 | Accuracy: 92.82 %
Training Done. 4.275629043579102 (s)
Prediction..
Model Saved.
===================== Training Done. File: ABlists_459_-20000_-19000_30000_36000.npy
Generate data from the file: 1518_ABlists_45_-57000_-56000_62000_68000
data_batch Changed:  5120
0, 1, 2, 3, 4, 5, 6, 7, 8, 9, Time consumed: 70.75774073600769 (s)
----------------------------------------------------------------
        Layer (type)               Output Shape         Param #
================================================================
            Linear-1              [-1, 1, 4096]       4,710,400
              ReLU-2              [-1, 1, 4096]               0
           Dropout-3              [-1, 1, 4096]               0
            Linear-4              [-1, 1, 2048]       8,390,656
              ReLU-5              [-1, 1, 2048]               0
           Dropout-6              [-1, 1, 2048]               0
            Linear-7              [-1, 1, 1024]       2,098,176
              ReLU-8              [-1, 1, 1024]               0
           Dropout-9              [-1, 1, 1024]               0
           Linear-10               [-1, 1, 512]         524,800
             ReLU-11               [-1, 1, 512]               0
          Dropout-12               [-1, 1, 512]               0
           Linear-13                [-1, 1, 10]           5,130
          Sigmoid-14                [-1, 1, 10]               0
================================================================
Total params: 15,729,162
Trainable params: 15,729,162
Non-trainable params: 0
----------------------------------------------------------------
Input size (MB): 0.00
Forward/backward pass size (MB): 0.18
Params size (MB): 60.00
Estimated Total Size (MB): 60.18
----------------------------------------------------------------
…
Epoch:   17  | Loss = 0.04137 | Val_loss: 0.04300 | Accuracy: 92.37 %
Training Done. 11.716316223144531 (s)
Prediction..
Model Saved.
===================== Training Done. File: ABlists_45_-57000_-56000_62000_68000.npy
Generate data from the file: 1520_ABlists_460_-20000_-19000_36000_42000
data_batch Changed:  5120
0, 1, 2, 3, 4, 5, 6, 7, 8, 9, Time consumed: 35.109461307525635 (s)
----------------------------------------------------------------
        Layer (type)               Output Shape         Param #
================================================================
            Linear-1              [-1, 1, 4096]       2,252,800
              ReLU-2              [-1, 1, 4096]               0
           Dropout-3              [-1, 1, 4096]               0
            Linear-4              [-1, 1, 2048]       8,390,656
              ReLU-5              [-1, 1, 2048]               0
           Dropout-6              [-1, 1, 2048]               0
            Linear-7              [-1, 1, 1024]       2,098,176
              ReLU-8              [-1, 1, 1024]               0
           Dropout-9              [-1, 1, 1024]               0
           Linear-10               [-1, 1, 512]         524,800
             ReLU-11               [-1, 1, 512]               0
          Dropout-12               [-1, 1, 512]               0
           Linear-13                [-1, 1, 10]           5,130
          Sigmoid-14                [-1, 1, 10]               0
================================================================
Total params: 13,271,562
Trainable params: 13,271,562
Non-trainable params: 0
----------------------------------------------------------------
Input size (MB): 0.00
Forward/backward pass size (MB): 0.18
Params size (MB): 50.63
Estimated Total Size (MB): 50.81
----------------------------------------------------------------
…
Epoch:    8  | Loss = 0.04999 | Val_loss: 0.04758 | Accuracy: 92.76 %
Training Done. 3.9914889335632324 (s)
Prediction..
Model Saved.
===================== Training Done. File: ABlists_460_-20000_-19000_36000_42000.npy
Generate data from the file: 1522_ABlists_461_-20000_-19000_42000_48000
data_batch Changed:  5120
0, 1, 2, 3, 4, 5, 6, 7, 8, 9, Time consumed: 37.26122736930847 (s)
----------------------------------------------------------------
        Layer (type)               Output Shape         Param #
================================================================
            Linear-1              [-1, 1, 4096]       2,482,176
              ReLU-2              [-1, 1, 4096]               0
           Dropout-3              [-1, 1, 4096]               0
            Linear-4              [-1, 1, 2048]       8,390,656
              ReLU-5              [-1, 1, 2048]               0
           Dropout-6              [-1, 1, 2048]               0
            Linear-7              [-1, 1, 1024]       2,098,176
              ReLU-8              [-1, 1, 1024]               0
           Dropout-9              [-1, 1, 1024]               0
           Linear-10               [-1, 1, 512]         524,800
             ReLU-11               [-1, 1, 512]               0
          Dropout-12               [-1, 1, 512]               0
           Linear-13                [-1, 1, 10]           5,130
          Sigmoid-14                [-1, 1, 10]               0
================================================================
Total params: 13,500,938
Trainable params: 13,500,938
Non-trainable params: 0
----------------------------------------------------------------
Input size (MB): 0.00
Forward/backward pass size (MB): 0.18
Params size (MB): 51.50
Estimated Total Size (MB): 51.68
----------------------------------------------------------------
…
Epoch:    9  | Loss = 0.04924 | Val_loss: 0.04651 | Accuracy: 92.59 %
Training Done. 4.59056830406189 (s)
Prediction..
Model Saved.
===================== Training Done. File: ABlists_461_-20000_-19000_42000_48000.npy
Generate data from the file: 1524_ABlists_462_-20000_-19000_48000_54000
data_batch Changed:  5120
0, 1, 2, 3, 4, 5, 6, 7, 8, 9, Time consumed: 38.646056175231934 (s)
----------------------------------------------------------------
        Layer (type)               Output Shape         Param #
================================================================
            Linear-1              [-1, 1, 4096]       2,695,168
              ReLU-2              [-1, 1, 4096]               0
           Dropout-3              [-1, 1, 4096]               0
            Linear-4              [-1, 1, 2048]       8,390,656
              ReLU-5              [-1, 1, 2048]               0
           Dropout-6              [-1, 1, 2048]               0
            Linear-7              [-1, 1, 1024]       2,098,176
              ReLU-8              [-1, 1, 1024]               0
           Dropout-9              [-1, 1, 1024]               0
           Linear-10               [-1, 1, 512]         524,800
             ReLU-11               [-1, 1, 512]               0
          Dropout-12               [-1, 1, 512]               0
           Linear-13                [-1, 1, 10]           5,130
          Sigmoid-14                [-1, 1, 10]               0
================================================================
Total params: 13,713,930
Trainable params: 13,713,930
Non-trainable params: 0
----------------------------------------------------------------
Input size (MB): 0.00
Forward/backward pass size (MB): 0.18
Params size (MB): 52.31
Estimated Total Size (MB): 52.49
----------------------------------------------------------------
…
Epoch:   10  | Loss = 0.04333 | Val_loss: 0.04487 | Accuracy: 92.89 %
Training Done. 5.254320383071899 (s)
Prediction..
Model Saved.
===================== Training Done. File: ABlists_462_-20000_-19000_48000_54000.npy
Generate data from the file: 1526_ABlists_463_-20000_-19000_54000_60000
data_batch Changed:  5120
0, 1, 2, 3, 4, 5, 6, 7, 8, 9, Time consumed: 40.733811378479004 (s)
----------------------------------------------------------------
        Layer (type)               Output Shape         Param #
================================================================
            Linear-1              [-1, 1, 4096]       3,076,096
              ReLU-2              [-1, 1, 4096]               0
           Dropout-3              [-1, 1, 4096]               0
            Linear-4              [-1, 1, 2048]       8,390,656
              ReLU-5              [-1, 1, 2048]               0
           Dropout-6              [-1, 1, 2048]               0
            Linear-7              [-1, 1, 1024]       2,098,176
              ReLU-8              [-1, 1, 1024]               0
           Dropout-9              [-1, 1, 1024]               0
           Linear-10               [-1, 1, 512]         524,800
             ReLU-11               [-1, 1, 512]               0
          Dropout-12               [-1, 1, 512]               0
           Linear-13                [-1, 1, 10]           5,130
          Sigmoid-14                [-1, 1, 10]               0
================================================================
Total params: 14,094,858
Trainable params: 14,094,858
Non-trainable params: 0
----------------------------------------------------------------
Input size (MB): 0.00
Forward/backward pass size (MB): 0.18
Params size (MB): 53.77
Estimated Total Size (MB): 53.95
----------------------------------------------------------------
…
Epoch:    9  | Loss = 0.04874 | Val_loss: 0.04976 | Accuracy: 92.50 %
Training Done. 4.887394428253174 (s)
Prediction..
Model Saved.
===================== Training Done. File: ABlists_463_-20000_-19000_54000_60000.npy
Generate data from the file: 1528_ABlists_464_-20000_-19000_60000_66000
data_batch Changed:  5120
0, 1, 2, 3, 4, 5, 6, 7, 8, 9, Time consumed: 48.87042212486267 (s)
----------------------------------------------------------------
        Layer (type)               Output Shape         Param #
================================================================
            Linear-1              [-1, 1, 4096]       3,493,888
              ReLU-2              [-1, 1, 4096]               0
           Dropout-3              [-1, 1, 4096]               0
            Linear-4              [-1, 1, 2048]       8,390,656
              ReLU-5              [-1, 1, 2048]               0
           Dropout-6              [-1, 1, 2048]               0
            Linear-7              [-1, 1, 1024]       2,098,176
              ReLU-8              [-1, 1, 1024]               0
           Dropout-9              [-1, 1, 1024]               0
           Linear-10               [-1, 1, 512]         524,800
             ReLU-11               [-1, 1, 512]               0
          Dropout-12               [-1, 1, 512]               0
           Linear-13                [-1, 1, 10]           5,130
          Sigmoid-14                [-1, 1, 10]               0
================================================================
Total params: 14,512,650
Trainable params: 14,512,650
Non-trainable params: 0
----------------------------------------------------------------
Input size (MB): 0.00
Forward/backward pass size (MB): 0.18
Params size (MB): 55.36
Estimated Total Size (MB): 55.54
----------------------------------------------------------------
…
Epoch:   10  | Loss = 0.04886 | Val_loss: 0.04740 | Accuracy: 91.59 %
Epoch:   11  | Loss = 0.03896 | Val_loss: 0.03687 | Accuracy: 94.36 %
Training Done. 6.108864068984985 (s)
Prediction..
Model Saved.
===================== Training Done. File: ABlists_464_-20000_-19000_60000_66000.npy
Generate data from the file: 1530_ABlists_465_-20000_-19000_66000_4000
0, 1, 2, 3, 4, 5, 6, 7, 8, 9, Time consumed: 62.05038356781006 (s)
----------------------------------------------------------------
        Layer (type)               Output Shape         Param #
================================================================
            Linear-1              [-1, 1, 4096]       4,526,080
              ReLU-2              [-1, 1, 4096]               0
           Dropout-3              [-1, 1, 4096]               0
            Linear-4              [-1, 1, 2048]       8,390,656
              ReLU-5              [-1, 1, 2048]               0
           Dropout-6              [-1, 1, 2048]               0
            Linear-7              [-1, 1, 1024]       2,098,176
              ReLU-8              [-1, 1, 1024]               0
           Dropout-9              [-1, 1, 1024]               0
…
          Sigmoid-14                [-1, 1, 10]               0
================================================================
Total params: 13,042,186
Trainable params: 13,042,186
Non-trainable params: 0
----------------------------------------------------------------
Input size (MB): 0.00
Forward/backward pass size (MB): 0.18
Params size (MB): 49.75
Estimated Total Size (MB): 49.93
----------------------------------------------------------------
…
Epoch:   35  | Loss = 0.09354 | Val_loss: 0.14358 | Accuracy: 68.30 %
Training Done. 16.867817163467407 (s)
Prediction..
Model Saved.
===================== Training Done. File: ABlists_93_-52000_-51000_10000_16000.npy
Generate data from the file: 2586_ABlists_940_22000_23000_60000_66000
data_batch Changed:  5120
0, 1, 2, 3, 4, 5, 6, 7, 8, 9, Time consumed: 50.91569995880127 (s)
----------------------------------------------------------------
        Layer (type)               Output Shape         Param #
================================================================
            Linear-1              [-1, 1, 4096]       3,592,192
              ReLU-2              [-1, 1, 4096]               0
           Dropout-3              [-1, 1, 4096]               0
            Linear-4              [-1, 1, 2048]       8,390,656
              ReLU-5              [-1, 1, 2048]               0
           Dropout-6              [-1, 1, 2048]               0
            Linear-7              [-1, 1, 1024]       2,098,176
              ReLU-8              [-1, 1, 1024]               0
           Dropout-9              [-1, 1, 1024]               0
           Linear-10               [-1, 1, 512]         524,800
             ReLU-11               [-1, 1, 512]               0
          Dropout-12               [-1, 1, 512]               0
           Linear-13                [-1, 1, 10]           5,130
          Sigmoid-14                [-1, 1, 10]               0
================================================================
Total params: 14,610,954
Trainable params: 14,610,954
Non-trainable params: 0
----------------------------------------------------------------
Input size (MB): 0.00
Forward/backward pass size (MB): 0.18
Params size (MB): 55.74
Estimated Total Size (MB): 55.92
----------------------------------------------------------------
…
Epoch:    9  | Loss = 0.06555 | Val_loss: 0.05729 | Accuracy: 90.89 %
Epoch:   10  | Loss = 0.05128 | Val_loss: 0.04677 | Accuracy: 92.37 %
Training Done. 5.489753246307373 (s)
Prediction..
Model Saved.
===================== Training Done. File: ABlists_940_22000_23000_60000_66000.npy
Generate data from the file: 2588_ABlists_941_22000_23000_66000_4000
0, 1, 2, 3, 4, 5, 6, 7, 8, 9, Time consumed: 76.93376421928406 (s)
----------------------------------------------------------------
        Layer (type)               Output Shape         Param #
================================================================
            Linear-1              [-1, 1, 4096]       5,165,056
              ReLU-2              [-1, 1, 4096]               0
           Dropout-3              [-1, 1, 4096]               0
            Linear-4              [-1, 1, 2048]       8,390,656
              ReLU-5              [-1, 1, 2048]               0
           Dropout-6              [-1, 1, 2048]               0
            Linear-7              [-1, 1, 1024]       2,098,176
              ReLU-8              [-1, 1, 1024]               0
           Dropout-9              [-1, 1, 1024]               0
           Linear-10               [-1, 1, 512]         524,800
             ReLU-11               [-1, 1, 512]               0
          Dropout-12               [-1, 1, 512]               0
           Linear-13                [-1, 1, 10]           5,130
          Sigmoid-14                [-1, 1, 10]               0
================================================================
Total params: 16,183,818
Trainable params: 16,183,818
Non-trainable params: 0
----------------------------------------------------------------
Input size (MB): 0.00
Forward/backward pass size (MB): 0.18
Params size (MB): 61.74
Estimated Total Size (MB): 61.92
----------------------------------------------------------------
…
Epoch:   27  | Loss = 0.14124 | Val_loss: 0.16740 | Accuracy: 61.29 %
Epoch:   28  | Loss = 0.13961 | Val_loss: 0.18026 | Accuracy: 58.79 %
Training Done. 13.411724328994751 (s)
Prediction..
Model Saved.
===================== Training Done. File: ABlists_943_23000_24000_10000_16000.npy
Generate data from the file: 2594_ABlists_944_23000_24000_16000_22000
0, 1, 2, 3, 4, 5, 6, 7, 8, 9, Time consumed: 20.827062129974365 (s)
----------------------------------------------------------------
        Layer (type)               Output Shape         Param #
================================================================
            Linear-1              [-1, 1, 4096]       1,826,816
              ReLU-2              [-1, 1, 4096]               0
           Dropout-3              [-1, 1, 4096]               0
            Linear-4              [-1, 1, 2048]       8,390,656
              ReLU-5              [-1, 1, 2048]               0
           Dropout-6              [-1, 1, 2048]               0
            Linear-7              [-1, 1, 1024]       2,098,176
              ReLU-8              [-1, 1, 1024]               0
           Dropout-9              [-1, 1, 1024]               0
           Linear-10               [-1, 1, 512]         524,800
             ReLU-11               [-1, 1, 512]               0
          Dropout-12               [-1, 1, 512]               0
           Linear-13                [-1, 1, 10]           5,130
          Sigmoid-14                [-1, 1, 10]               0
================================================================
Total params: 12,845,578
Trainable params: 12,845,578
Non-trainable params: 0
----------------------------------------------------------------
Input size (MB): 0.00
Forward/backward pass size (MB): 0.18
Params size (MB): 49.00
Estimated Total Size (MB): 49.18
----------------------------------------------------------------
…
Epoch:   27  | Loss = 0.12819 | Val_loss: 0.13983 | Accuracy: 66.81 %
Training Done. 12.758710622787476 (s)
Prediction..
Model Saved.
===================== Training Done. File: ABlists_944_23000_24000_16000_22000.npy
Generate data from the file: 2596_ABlists_945_23000_24000_22000_28000
data_batch Changed:  5120
0, 1, 2, 3, 4, 5, 6, 7, 8, 9, Time consumed: 21.87406587600708 (s)
----------------------------------------------------------------
        Layer (type)               Output Shape         Param #
================================================================
            Linear-1              [-1, 1, 4096]       1,929,216
              ReLU-2              [-1, 1, 4096]               0
           Dropout-3              [-1, 1, 4096]               0
            Linear-4              [-1, 1, 2048]       8,390,656
              ReLU-5              [-1, 1, 2048]               0
           Dropout-6              [-1, 1, 2048]               0
            Linear-7              [-1, 1, 1024]       2,098,176
              ReLU-8              [-1, 1, 1024]               0
           Dropout-9              [-1, 1, 1024]               0
           Linear-10               [-1, 1, 512]         524,800
             ReLU-11               [-1, 1, 512]               0
          Dropout-12               [-1, 1, 512]               0
           Linear-13                [-1, 1, 10]           5,130
          Sigmoid-14                [-1, 1, 10]               0
================================================================
Total params: 12,947,978
Trainable params: 12,947,978
Non-trainable params: 0
----------------------------------------------------------------
Input size (MB): 0.00
Forward/backward pass size (MB): 0.18
Params size (MB): 49.39
Estimated Total Size (MB): 49.57
----------------------------------------------------------------
…
Epoch:   22  | Loss = 0.02751 | Val_loss: 0.04021 | Accuracy: 92.06 %
Training Done. 10.607678890228271 (s)
Prediction..
Model Saved.
===================== Training Done. File: ABlists_945_23000_24000_22000_28000.npy
Generate data from the file: 2598_ABlists_946_23000_24000_28000_34000
data_batch Changed:  5120
0, 1, 2, 3, 4, 5, 6, 7, 8, 9, Time consumed: 22.611531257629395 (s)
----------------------------------------------------------------
        Layer (type)               Output Shape         Param #
================================================================
            Linear-1              [-1, 1, 4096]       1,982,464
              ReLU-2              [-1, 1, 4096]               0
           Dropout-3              [-1, 1, 4096]               0
            Linear-4              [-1, 1, 2048]       8,390,656
              ReLU-5              [-1, 1, 2048]               0
           Dropout-6              [-1, 1, 2048]               0
            Linear-7              [-1, 1, 1024]       2,098,176
              ReLU-8              [-1, 1, 1024]               0
           Dropout-9              [-1, 1, 1024]               0
           Linear-10               [-1, 1, 512]         524,800
             ReLU-11               [-1, 1, 512]               0
          Dropout-12               [-1, 1, 512]               0
           Linear-13                [-1, 1, 10]           5,130
          Sigmoid-14                [-1, 1, 10]               0
================================================================
Total params: 13,001,226
Trainable params: 13,001,226
Non-trainable params: 0
----------------------------------------------------------------
Input size (MB): 0.00
Forward/backward pass size (MB): 0.18
Params size (MB): 49.60
Estimated Total Size (MB): 49.77
----------------------------------------------------------------
…
Epoch:   11  | Loss = 0.03781 | Val_loss: 0.03787 | Accuracy: 92.98 %
Training Done. 5.365062475204468 (s)
Prediction..
Model Saved.
===================== Training Done. File: ABlists_946_23000_24000_28000_34000.npy
Generate data from the file: 2600_ABlists_947_23000_24000_34000_40000
data_batch Changed:  5120
0, 1, 2, 3, 4, 5, 6, 7, 8, 9, Time consumed: 24.09433102607727 (s)
----------------------------------------------------------------
        Layer (type)               Output Shape         Param #
================================================================
            Linear-1              [-1, 1, 4096]       2,101,248
              ReLU-2              [-1, 1, 4096]               0
           Dropout-3              [-1, 1, 4096]               0
            Linear-4              [-1, 1, 2048]       8,390,656
              ReLU-5              [-1, 1, 2048]               0
           Dropout-6              [-1, 1, 2048]               0
            Linear-7              [-1, 1, 1024]       2,098,176
              ReLU-8              [-1, 1, 1024]               0
           Dropout-9              [-1, 1, 1024]               0
           Linear-10               [-1, 1, 512]         524,800
             ReLU-11               [-1, 1, 512]               0
          Dropout-12               [-1, 1, 512]               0
           Linear-13                [-1, 1, 10]           5,130
          Sigmoid-14                [-1, 1, 10]               0
================================================================
Total params: 13,120,010
Trainable params: 13,120,010
Non-trainable params: 0
----------------------------------------------------------------
Input size (MB): 0.00
Forward/backward pass size (MB): 0.18
Params size (MB): 50.05
Estimated Total Size (MB): 50.23
----------------------------------------------------------------
…
Epoch:    8  | Loss = 0.05021 | Val_loss: 0.04714 | Accuracy: 93.10 %
Training Done. 3.806373357772827 (s)
Prediction..
Model Saved.
===================== Training Done. File: ABlists_947_23000_24000_34000_40000.npy
Generate data from the file: 2602_ABlists_948_23000_24000_40000_46000
data_batch Changed:  5120
0, 1, 2, 3, 4, 5, 6, 7, 8, 9, Time consumed: 27.309674501419067 (s)
----------------------------------------------------------------
        Layer (type)               Output Shape         Param #
================================================================
            Linear-1              [-1, 1, 4096]       2,424,832
              ReLU-2              [-1, 1, 4096]               0
           Dropout-3              [-1, 1, 4096]               0
            Linear-4              [-1, 1, 2048]       8,390,656
              ReLU-5              [-1, 1, 2048]               0
           Dropout-6              [-1, 1, 2048]               0
            Linear-7              [-1, 1, 1024]       2,098,176
              ReLU-8              [-1, 1, 1024]               0
           Dropout-9              [-1, 1, 1024]               0
           Linear-10               [-1, 1, 512]         524,800
             ReLU-11               [-1, 1, 512]               0
          Dropout-12               [-1, 1, 512]               0
           Linear-13                [-1, 1, 10]           5,130
          Sigmoid-14                [-1, 1, 10]               0
================================================================
Total params: 13,443,594
Trainable params: 13,443,594
Non-trainable params: 0
----------------------------------------------------------------
Input size (MB): 0.00
Forward/backward pass size (MB): 0.18
Params size (MB): 51.28
Estimated Total Size (MB): 51.46
----------------------------------------------------------------
…
Epoch:   37  | Loss = 0.03082 | Val_loss: 0.09761 | Accuracy: 82.05 %
Training Done. 17.370594263076782 (s)
Prediction..
Model Saved.
===================== Training Done. File: ABlists_94_-52000_-51000_16000_22000.npy
Generate data from the file: 2608_ABlists_950_23000_24000_52000_58000
data_batch Changed:  5120
0, 1, 2, 3, 4, 5, 6, 7, 8, 9, Time consumed: 34.67743372917175 (s)
----------------------------------------------------------------
        Layer (type)               Output Shape         Param #
================================================================
            Linear-1              [-1, 1, 4096]       3,047,424
              ReLU-2              [-1, 1, 4096]               0
           Dropout-3              [-1, 1, 4096]               0
            Linear-4              [-1, 1, 2048]       8,390,656
              ReLU-5              [-1, 1, 2048]               0
           Dropout-6              [-1, 1, 2048]               0
            Linear-7              [-1, 1, 1024]       2,098,176
              ReLU-8              [-1, 1, 1024]               0
           Dropout-9              [-1, 1, 1024]               0
           Linear-10               [-1, 1, 512]         524,800
             ReLU-11               [-1, 1, 512]               0
          Dropout-12               [-1, 1, 512]               0
           Linear-13                [-1, 1, 10]           5,130
          Sigmoid-14                [-1, 1, 10]               0
================================================================
Total params: 14,066,186
Trainable params: 14,066,186
Non-trainable params: 0
----------------------------------------------------------------
Input size (MB): 0.00
Forward/backward pass size (MB): 0.18
Params size (MB): 53.66
Estimated Total Size (MB): 53.84
----------------------------------------------------------------
…
Epoch:   20  | Loss = 0.23658 | Val_loss: 0.22773 | Accuracy: 40.22 %
Training Done. 9.242753028869629 (s)
Prediction..
Model Saved.
===================== Training Done. File: ABlists_955_24000_25000_14000_20000.npy
Generate data from the file: 2620_ABlists_956_24000_25000_20000_26000
data_batch Changed:  5120
0, 1, 2, 3, 4, 5, 6, 7, 8, 9, Time consumed: 21.457074403762817 (s)
----------------------------------------------------------------
        Layer (type)               Output Shape         Param #
================================================================
            Linear-1              [-1, 1, 4096]       1,884,160
              ReLU-2              [-1, 1, 4096]               0
           Dropout-3              [-1, 1, 4096]               0
            Linear-4              [-1, 1, 2048]       8,390,656
              ReLU-5              [-1, 1, 2048]               0
           Dropout-6              [-1, 1, 2048]               0
            Linear-7              [-1, 1, 1024]       2,098,176
              ReLU-8              [-1, 1, 1024]               0
           Dropout-9              [-1, 1, 1024]               0
           Linear-10               [-1, 1, 512]         524,800
             ReLU-11               [-1, 1, 512]               0
          Dropout-12               [-1, 1, 512]               0
           Linear-13                [-1, 1, 10]           5,130
          Sigmoid-14                [-1, 1, 10]               0
================================================================
Total params: 12,902,922
Trainable params: 12,902,922
Non-trainable params: 0
----------------------------------------------------------------
Input size (MB): 0.00
Forward/backward pass size (MB): 0.18
Params size (MB): 49.22
Estimated Total Size (MB): 49.40
----------------------------------------------------------------
…
Epoch:   34  | Loss = 0.02552 | Val_loss: 0.06181 | Accuracy: 88.38 %
Training Done. 16.23522663116455 (s)
Prediction..
Model Saved.
===================== Training Done. File: ABlists_956_24000_25000_20000_26000.npy
Generate data from the file: 2622_ABlists_957_24000_25000_26000_32000
data_batch Changed:  5120
0, 1, 2, 3, 4, 5, 6, 7, 8, 9, Time consumed: 22.384822368621826 (s)
----------------------------------------------------------------
        Layer (type)               Output Shape         Param #
================================================================
            Linear-1              [-1, 1, 4096]       1,961,984
              ReLU-2              [-1, 1, 4096]               0
           Dropout-3              [-1, 1, 4096]               0
            Linear-4              [-1, 1, 2048]       8,390,656
              ReLU-5              [-1, 1, 2048]               0
           Dropout-6              [-1, 1, 2048]               0
            Linear-7              [-1, 1, 1024]       2,098,176
              ReLU-8              [-1, 1, 1024]               0
           Dropout-9              [-1, 1, 1024]               0
           Linear-10               [-1, 1, 512]         524,800
             ReLU-11               [-1, 1, 512]               0
          Dropout-12               [-1, 1, 512]               0
           Linear-13                [-1, 1, 10]           5,130
          Sigmoid-14                [-1, 1, 10]               0
================================================================
Total params: 12,980,746
Trainable params: 12,980,746
Non-trainable params: 0
----------------------------------------------------------------
Input size (MB): 0.00
Forward/backward pass size (MB): 0.18
Params size (MB): 49.52
Estimated Total Size (MB): 49.70
----------------------------------------------------------------
…
Epoch:    9  | Loss = 0.04823 | Val_loss: 0.04830 | Accuracy: 92.63 %
Training Done. 4.641026735305786 (s)
Prediction..
Model Saved.
===================== Training Done. File: ABlists_961_24000_25000_50000_56000.npy
Generate data from the file: 2634_ABlists_962_24000_25000_56000_62000
data_batch Changed:  5120
0, 1, 2, 3, 4, 5, 6, 7, 8, 9, Time consumed: 35.32593512535095 (s)
----------------------------------------------------------------
        Layer (type)               Output Shape         Param #
================================================================
            Linear-1              [-1, 1, 4096]       3,170,304
              ReLU-2              [-1, 1, 4096]               0
           Dropout-3              [-1, 1, 4096]               0
            Linear-4              [-1, 1, 2048]       8,390,656
              ReLU-5              [-1, 1, 2048]               0
           Dropout-6              [-1, 1, 2048]               0
            Linear-7              [-1, 1, 1024]       2,098,176
              ReLU-8              [-1, 1, 1024]               0
           Dropout-9              [-1, 1, 1024]               0
           Linear-10               [-1, 1, 512]         524,800
             ReLU-11               [-1, 1, 512]               0
          Dropout-12               [-1, 1, 512]               0
           Linear-13                [-1, 1, 10]           5,130
          Sigmoid-14                [-1, 1, 10]               0
================================================================
Total params: 14,189,066
Trainable params: 14,189,066
Non-trainable params: 0
----------------------------------------------------------------
Input size (MB): 0.00
Forward/backward pass size (MB): 0.18
Params size (MB): 54.13
Estimated Total Size (MB): 54.31
----------------------------------------------------------------
…
Epoch:   10  | Loss = 0.04383 | Val_loss: 0.04226 | Accuracy: 93.36 %
Training Done. 5.301962375640869 (s)
Prediction..
Model Saved.
===================== Training Done. File: ABlists_962_24000_25000_56000_62000.npy
Generate data from the file: 2636_ABlists_963_24000_25000_62000_68000
data_batch Changed:  5120
0, 1, 2, 3, 4, 5, 6, 7, 8, 9, Time consumed: 40.70667290687561 (s)
----------------------------------------------------------------
        Layer (type)               Output Shape         Param #
================================================================
            Linear-1              [-1, 1, 4096]       3,600,384
              ReLU-2              [-1, 1, 4096]               0
           Dropout-3              [-1, 1, 4096]               0
            Linear-4              [-1, 1, 2048]       8,390,656
              ReLU-5              [-1, 1, 2048]               0
           Dropout-6              [-1, 1, 2048]               0
            Linear-7              [-1, 1, 1024]       2,098,176
              ReLU-8              [-1, 1, 1024]               0
           Dropout-9              [-1, 1, 1024]               0
           Linear-10               [-1, 1, 512]         524,800
             ReLU-11               [-1, 1, 512]               0
          Dropout-12               [-1, 1, 512]               0
           Linear-13                [-1, 1, 10]           5,130
          Sigmoid-14                [-1, 1, 10]               0
================================================================
Total params: 14,619,146
Trainable params: 14,619,146
Non-trainable params: 0
----------------------------------------------------------------
Input size (MB): 0.00
Forward/backward pass size (MB): 0.18
Params size (MB): 55.77
Estimated Total Size (MB): 55.95
----------------------------------------------------------------
…
Epoch:   11  | Loss = 0.04174 | Val_loss: 0.04271 | Accuracy: 93.06 %
Training Done. 6.084064960479736 (s)
Prediction..
Model Saved.
===================== Training Done. File: ABlists_963_24000_25000_62000_68000.npy
Generate data from the file: 2638_ABlists_964_24000_25000_68000_6000
PRE_PRECESSING Changed: False --> True, power: 8
0, 1, 2, 3, 4, 5, 6, 7, 8, 9, Time consumed: 52.3799192905426 (s)
----------------------------------------------------------------
        Layer (type)               Output Shape         Param #
================================================================
            Linear-1              [-1, 1, 4096]       4,677,632
              ReLU-2              [-1, 1, 4096]               0
           Dropout-3              [-1, 1, 4096]               0
            Linear-4              [-1, 1, 2048]       8,390,656
              ReLU-5              [-1, 1, 2048]               0
           Dropout-6              [-1, 1, 2048]               0
            Linear-7              [-1, 1, 1024]       2,098,176
              ReLU-8              [-1, 1, 1024]               0
           Dropout-9              [-1, 1, 1024]               0
           Linear-10               [-1, 1, 512]         524,800
             ReLU-11               [-1, 1, 512]               0
          Dropout-12               [-1, 1, 512]               0
           Linear-13                [-1, 1, 10]           5,130
          Sigmoid-14                [-1, 1, 10]               0
================================================================
Total params: 15,696,394
Trainable params: 15,696,394
Non-trainable params: 0
----------------------------------------------------------------
Input size (MB): 0.00
Forward/backward pass size (MB): 0.18
Params size (MB): 59.88
Estimated Total Size (MB): 60.06
----------------------------------------------------------------
…
Epoch:   31  | Loss = 0.09309 | Val_loss: 0.13089 | Accuracy: 71.00 %
Epoch:   32  | Loss = 0.10981 | Val_loss: 0.13343 | Accuracy: 70.32 %
Training Done. 15.145869731903076 (s)
Prediction..
Model Saved.
===================== Training Done. File: ABlists_966_25000_26000_12000_18000.npy
Generate data from the file: 2644_ABlists_967_25000_26000_18000_24000
0, 1, 2, 3, 4, 5, 6, 7, 8, 9, Time consumed: 21.084092140197754 (s)
----------------------------------------------------------------
        Layer (type)               Output Shape         Param #
================================================================
            Linear-1              [-1, 1, 4096]       1,863,680
              ReLU-2              [-1, 1, 4096]               0
           Dropout-3              [-1, 1, 4096]               0
            Linear-4              [-1, 1, 2048]       8,390,656
              ReLU-5              [-1, 1, 2048]               0
           Dropout-6              [-1, 1, 2048]               0
            Linear-7              [-1, 1, 1024]       2,098,176
              ReLU-8              [-1, 1, 1024]               0
           Dropout-9              [-1, 1, 1024]               0
           Linear-10               [-1, 1, 512]         524,800
             ReLU-11               [-1, 1, 512]               0
          Dropout-12               [-1, 1, 512]               0
           Linear-13                [-1, 1, 10]           5,130
          Sigmoid-14                [-1, 1, 10]               0
================================================================
Total params: 12,882,442
Trainable params: 12,882,442
Non-trainable params: 0
----------------------------------------------------------------
Input size (MB): 0.00
Forward/backward pass size (MB): 0.18
Params size (MB): 49.14
Estimated Total Size (MB): 49.32
----------------------------------------------------------------
…
Epoch:   10  | Loss = 0.04186 | Val_loss: 0.03925 | Accuracy: 93.43 %
Training Done. 4.768236398696899 (s)
Prediction..
Model Saved.
===================== Training Done. File: ABlists_969_25000_26000_30000_36000.npy
Generate data from the file: 2650_ABlists_96_-52000_-51000_28000_34000
data_batch Changed:  5120
0, 1, 2, 3, 4, 5, 6, 7, 8, 9, Time consumed: 23.365207195281982 (s)
----------------------------------------------------------------
        Layer (type)               Output Shape         Param #
================================================================
            Linear-1              [-1, 1, 4096]       2,031,616
              ReLU-2              [-1, 1, 4096]               0
           Dropout-3              [-1, 1, 4096]               0
            Linear-4              [-1, 1, 2048]       8,390,656
              ReLU-5              [-1, 1, 2048]               0
           Dropout-6              [-1, 1, 2048]               0
            Linear-7              [-1, 1, 1024]       2,098,176
              ReLU-8              [-1, 1, 1024]               0
           Dropout-9              [-1, 1, 1024]               0
           Linear-10               [-1, 1, 512]         524,800
             ReLU-11               [-1, 1, 512]               0
          Dropout-12               [-1, 1, 512]               0
           Linear-13                [-1, 1, 10]           5,130
          Sigmoid-14                [-1, 1, 10]               0
================================================================
Total params: 13,050,378
Trainable params: 13,050,378
Non-trainable params: 0
----------------------------------------------------------------
Input size (MB): 0.00
Forward/backward pass size (MB): 0.18
Params size (MB): 49.78
Estimated Total Size (MB): 49.96
----------------------------------------------------------------
…
Epoch:   10  | Loss = 0.05108 | Val_loss: 0.05048 | Accuracy: 92.08 %
Training Done. 5.262152910232544 (s)
Prediction..
Model Saved.
===================== Training Done. File: ABlists_973_25000_26000_54000_60000.npy
Generate data from the file: 2660_ABlists_974_25000_26000_60000_66000
data_batch Changed:  5120
0, 1, 2, 3, 4, 5, 6, 7, 8, 9, Time consumed: 38.330358266830444 (s)
----------------------------------------------------------------
        Layer (type)               Output Shape         Param #
================================================================
            Linear-1              [-1, 1, 4096]       3,395,584
              ReLU-2              [-1, 1, 4096]               0
           Dropout-3              [-1, 1, 4096]               0
            Linear-4              [-1, 1, 2048]       8,390,656
              ReLU-5              [-1, 1, 2048]               0
           Dropout-6              [-1, 1, 2048]               0
            Linear-7              [-1, 1, 1024]       2,098,176
              ReLU-8              [-1, 1, 1024]               0
           Dropout-9              [-1, 1, 1024]               0
           Linear-10               [-1, 1, 512]         524,800
             ReLU-11               [-1, 1, 512]               0
          Dropout-12               [-1, 1, 512]               0
           Linear-13                [-1, 1, 10]           5,130
          Sigmoid-14                [-1, 1, 10]               0
================================================================
Total params: 14,414,346
Trainable params: 14,414,346
Non-trainable params: 0
----------------------------------------------------------------
Input size (MB): 0.00
Forward/backward pass size (MB): 0.18
Params size (MB): 54.99
Estimated Total Size (MB): 55.17
----------------------------------------------------------------
…
Epoch:   11  | Loss = 0.05351 | Val_loss: 0.05007 | Accuracy: 91.72 %
Epoch:   12  | Loss = 0.04196 | Val_loss: 0.04249 | Accuracy: 93.28 %
Training Done. 6.4947967529296875 (s)
Prediction..
Model Saved.
===================== Training Done. File: ABlists_974_25000_26000_60000_66000.npy
Generate data from the file: 2662_ABlists_975_25000_26000_66000_4000
0, 1, 2, 3, 4, 5, 6, 7, 8, 9, Time consumed: 54.97105693817139 (s)
----------------------------------------------------------------
        Layer (type)               Output Shape         Param #
================================================================
            Linear-1              [-1, 1, 4096]       4,866,048
              ReLU-2              [-1, 1, 4096]               0
           Dropout-3              [-1, 1, 4096]               0
            Linear-4              [-1, 1, 2048]       8,390,656
              ReLU-5              [-1, 1, 2048]               0
           Dropout-6              [-1, 1, 2048]               0
            Linear-7              [-1, 1, 1024]       2,098,176
              ReLU-8              [-1, 1, 1024]               0
           Dropout-9              [-1, 1, 1024]               0
           Linear-10               [-1, 1, 512]         524,800
             ReLU-11               [-1, 1, 512]               0
          Dropout-12               [-1, 1, 512]               0
           Linear-13                [-1, 1, 10]           5,130
          Sigmoid-14                [-1, 1, 10]               0
================================================================
Total params: 15,884,810
Trainable params: 15,884,810
Non-trainable params: 0
----------------------------------------------------------------
Input size (MB): 0.00
Forward/backward pass size (MB): 0.18
Params size (MB): 60.60
Estimated Total Size (MB): 60.78
----------------------------------------------------------------
…
Epoch:   31  | Loss = 0.11981 | Val_loss: 0.12851 | Accuracy: 59.58 %
Training Done. 21.035425662994385 (s)
Prediction..
Model Saved.
===================== Training Done. File: ABlists_975_25000_26000_66000_4000.npy
Generate data from the file: 2664_ABlists_976_26000_27000_4000_10000
PRE_PRECESSING Changed: False --> True, power: 8
0, 1, 2, 3, 4, 5, 6, 7, 8, 9, Time consumed: 18.839452266693115 (s)
----------------------------------------------------------------
        Layer (type)               Output Shape         Param #
================================================================
            Linear-1              [-1, 1, 4096]       1,650,688
              ReLU-2              [-1, 1, 4096]               0
           Dropout-3              [-1, 1, 4096]               0
            Linear-4              [-1, 1, 2048]       8,390,656
              ReLU-5              [-1, 1, 2048]               0
           Dropout-6              [-1, 1, 2048]               0
            Linear-7              [-1, 1, 1024]       2,098,176
              ReLU-8              [-1, 1, 1024]               0
           Dropout-9              [-1, 1, 1024]               0
           Linear-10               [-1, 1, 512]         524,800
             ReLU-11               [-1, 1, 512]               0
          Dropout-12               [-1, 1, 512]               0
           Linear-13                [-1, 1, 10]           5,130
          Sigmoid-14                [-1, 1, 10]               0
================================================================
Total params: 12,669,450
Trainable params: 12,669,450
Non-trainable params: 0
----------------------------------------------------------------
Input size (MB): 0.00
Forward/backward pass size (MB): 0.18
Params size (MB): 48.33
Estimated Total Size (MB): 48.51
----------------------------------------------------------------
…
Epoch:   36  | Loss = 0.13668 | Val_loss: 0.14769 | Accuracy: 64.91 %
Training Done. 16.900742292404175 (s)
Prediction..
Model Saved.
===================== Training Done. File: ABlists_978_26000_27000_16000_22000.npy
Generate data from the file: 2670_ABlists_979_26000_27000_22000_28000
data_batch Changed:  5120
0, 1, 2, 3, 4, 5, 6, 7, 8, 9, Time consumed: 20.23062491416931 (s)
----------------------------------------------------------------
        Layer (type)               Output Shape         Param #
================================================================
            Linear-1              [-1, 1, 4096]       1,814,528
              ReLU-2              [-1, 1, 4096]               0
           Dropout-3              [-1, 1, 4096]               0
            Linear-4              [-1, 1, 2048]       8,390,656
              ReLU-5              [-1, 1, 2048]               0
           Dropout-6              [-1, 1, 2048]               0
            Linear-7              [-1, 1, 1024]       2,098,176
              ReLU-8              [-1, 1, 1024]               0
           Dropout-9              [-1, 1, 1024]               0
           Linear-10               [-1, 1, 512]         524,800
             ReLU-11               [-1, 1, 512]               0
          Dropout-12               [-1, 1, 512]               0
           Linear-13                [-1, 1, 10]           5,130
          Sigmoid-14                [-1, 1, 10]               0
================================================================
Total params: 12,833,290
Trainable params: 12,833,290
Non-trainable params: 0
----------------------------------------------------------------
Input size (MB): 0.00
Forward/backward pass size (MB): 0.18
Params size (MB): 48.96
Estimated Total Size (MB): 49.13
----------------------------------------------------------------
…
Epoch:    8  | Loss = 0.05209 | Val_loss: 0.04885 | Accuracy: 93.08 %
Training Done. 3.9796981811523438 (s)
Prediction..
Model Saved.
===================== Training Done. File: ABlists_982_26000_27000_40000_46000.npy
Generate data from the file: 2680_ABlists_983_26000_27000_46000_52000
data_batch Changed:  5120
0, 1, 2, 3, 4, 5, 6, 7, 8, 9, Time consumed: 27.259931802749634 (s)
----------------------------------------------------------------
        Layer (type)               Output Shape         Param #
================================================================
            Linear-1              [-1, 1, 4096]       2,441,216
              ReLU-2              [-1, 1, 4096]               0
           Dropout-3              [-1, 1, 4096]               0
            Linear-4              [-1, 1, 2048]       8,390,656
              ReLU-5              [-1, 1, 2048]               0
           Dropout-6              [-1, 1, 2048]               0
            Linear-7              [-1, 1, 1024]       2,098,176
              ReLU-8              [-1, 1, 1024]               0
           Dropout-9              [-1, 1, 1024]               0
           Linear-10               [-1, 1, 512]         524,800
             ReLU-11               [-1, 1, 512]               0
          Dropout-12               [-1, 1, 512]               0
           Linear-13                [-1, 1, 10]           5,130
          Sigmoid-14                [-1, 1, 10]               0
================================================================
Total params: 13,459,978
Trainable params: 13,459,978
Non-trainable params: 0
----------------------------------------------------------------
Input size (MB): 0.00
Forward/backward pass size (MB): 0.18
Params size (MB): 51.35
Estimated Total Size (MB): 51.52
----------------------------------------------------------------
…
Epoch:    9  | Loss = 0.04350 | Val_loss: 0.04614 | Accuracy: 92.94 %
Training Done. 4.534190654754639 (s)
Prediction..
Model Saved.
===================== Training Done. File: ABlists_983_26000_27000_46000_52000.npy
Generate data from the file: 2682_ABlists_984_26000_27000_52000_58000
data_batch Changed:  5120
0, 1, 2, 3, 4, 5, 6, 7, 8, 9, Time consumed: 31.481866359710693 (s)
----------------------------------------------------------------
        Layer (type)               Output Shape         Param #
================================================================
            Linear-1              [-1, 1, 4096]       2,813,952
              ReLU-2              [-1, 1, 4096]               0
           Dropout-3              [-1, 1, 4096]               0
            Linear-4              [-1, 1, 2048]       8,390,656
              ReLU-5              [-1, 1, 2048]               0
           Dropout-6              [-1, 1, 2048]               0
            Linear-7              [-1, 1, 1024]       2,098,176
              ReLU-8              [-1, 1, 1024]               0
           Dropout-9              [-1, 1, 1024]               0
           Linear-10               [-1, 1, 512]         524,800
             ReLU-11               [-1, 1, 512]               0
          Dropout-12               [-1, 1, 512]               0
           Linear-13                [-1, 1, 10]           5,130
          Sigmoid-14                [-1, 1, 10]               0
================================================================
Total params: 13,832,714
Trainable params: 13,832,714
Non-trainable params: 0
----------------------------------------------------------------
Input size (MB): 0.00
Forward/backward pass size (MB): 0.18
Params size (MB): 52.77
Estimated Total Size (MB): 52.95
----------------------------------------------------------------
…
Epoch:   11  | Loss = 0.04434 | Val_loss: 0.04743 | Accuracy: 92.84 %
Training Done. 5.672173023223877 (s)
Prediction..
Model Saved.
===================== Training Done. File: ABlists_984_26000_27000_52000_58000.npy
Generate data from the file: 2684_ABlists_985_26000_27000_58000_64000
data_batch Changed:  5120
0, 1, 2, 3, 4, 5, 6, 7, 8, 9, Time consumed: 34.70883750915527 (s)
----------------------------------------------------------------
        Layer (type)               Output Shape         Param #
================================================================
            Linear-1              [-1, 1, 4096]       3,178,496
              ReLU-2              [-1, 1, 4096]               0
           Dropout-3              [-1, 1, 4096]               0
            Linear-4              [-1, 1, 2048]       8,390,656
              ReLU-5              [-1, 1, 2048]               0
           Dropout-6              [-1, 1, 2048]               0
            Linear-7              [-1, 1, 1024]       2,098,176
              ReLU-8              [-1, 1, 1024]               0
           Dropout-9              [-1, 1, 1024]               0
           Linear-10               [-1, 1, 512]         524,800
             ReLU-11               [-1, 1, 512]               0
          Dropout-12               [-1, 1, 512]               0
           Linear-13                [-1, 1, 10]           5,130
          Sigmoid-14                [-1, 1, 10]               0
================================================================
Total params: 14,197,258
Trainable params: 14,197,258
Non-trainable params: 0
----------------------------------------------------------------
Input size (MB): 0.00
Forward/backward pass size (MB): 0.18
Params size (MB): 54.16
Estimated Total Size (MB): 54.34
----------------------------------------------------------------
…
Epoch:   12  | Loss = 0.03903 | Val_loss: 0.03784 | Accuracy: 93.23 %
Training Done. 6.648101806640625 (s)
Prediction..
Model Saved.
===================== Training Done. File: ABlists_986_26000_27000_64000_70000.npy
Generate data from the file: 2688_ABlists_987_27000_28000_2000_8000
PRE_PRECESSING Changed: False --> True, power: 8
0, 1, 2, 3, 4, 5, 6, 7, 8, 9, Time consumed: 17.733983755111694 (s)
----------------------------------------------------------------
        Layer (type)               Output Shape         Param #
================================================================
            Linear-1              [-1, 1, 4096]       1,560,576
              ReLU-2              [-1, 1, 4096]               0
           Dropout-3              [-1, 1, 4096]               0
            Linear-4              [-1, 1, 2048]       8,390,656
              ReLU-5              [-1, 1, 2048]               0
           Dropout-6              [-1, 1, 2048]               0
            Linear-7              [-1, 1, 1024]       2,098,176
              ReLU-8              [-1, 1, 1024]               0
           Dropout-9              [-1, 1, 1024]               0
           Linear-10               [-1, 1, 512]         524,800
             ReLU-11               [-1, 1, 512]               0
          Dropout-12               [-1, 1, 512]               0
           Linear-13                [-1, 1, 10]           5,130
          Sigmoid-14                [-1, 1, 10]               0
================================================================
Total params: 12,579,338
Trainable params: 12,579,338
Non-trainable params: 0
----------------------------------------------------------------
Input size (MB): 0.00
Forward/backward pass size (MB): 0.18
Params size (MB): 47.99
Estimated Total Size (MB): 48.16
----------------------------------------------------------------
…
Epoch:   10  | Loss = 0.04486 | Val_loss: 0.04102 | Accuracy: 93.41 %
Training Done. 4.826743125915527 (s)
Prediction..
Model Saved.
===================== Training Done. File: ABlists_992_27000_28000_32000_38000.npy
Generate data from the file: 2702_ABlists_993_27000_28000_38000_44000
data_batch Changed:  5120
0, 1, 2, 3, 4, 5, 6, 7, 8, 9, Time consumed: 23.870940923690796 (s)
----------------------------------------------------------------
        Layer (type)               Output Shape         Param #
================================================================
            Linear-1              [-1, 1, 4096]       2,134,016
              ReLU-2              [-1, 1, 4096]               0
           Dropout-3              [-1, 1, 4096]               0
            Linear-4              [-1, 1, 2048]       8,390,656
              ReLU-5              [-1, 1, 2048]               0
           Dropout-6              [-1, 1, 2048]               0
            Linear-7              [-1, 1, 1024]       2,098,176
              ReLU-8              [-1, 1, 1024]               0
           Dropout-9              [-1, 1, 1024]               0
           Linear-10               [-1, 1, 512]         524,800
             ReLU-11               [-1, 1, 512]               0
          Dropout-12               [-1, 1, 512]               0
           Linear-13                [-1, 1, 10]           5,130
          Sigmoid-14                [-1, 1, 10]               0
================================================================
Total params: 13,152,778
Trainable params: 13,152,778
Non-trainable params: 0
----------------------------------------------------------------
Input size (MB): 0.00
Forward/backward pass size (MB): 0.18
Params size (MB): 50.17
Estimated Total Size (MB): 50.35
----------------------------------------------------------------
…
Epoch:   10  | Loss = 0.04421 | Val_loss: 0.04129 | Accuracy: 92.96 %
Training Done. 5.390502691268921 (s)
Prediction..
Model Saved.
===================== Training Done. File: ABlists_997_27000_28000_62000_68000.npy
Generate data from the file: 2712_ABlists_998_27000_28000_68000_6000
PRE_PRECESSING Changed: False --> True, power: 8
0, 1, 2, 3, 4, 5, 6, 7, 8, 9, Time consumed: 49.76112365722656 (s)
----------------------------------------------------------------
        Layer (type)               Output Shape         Param #
================================================================
            Linear-1              [-1, 1, 4096]       4,329,472
              ReLU-2              [-1, 1, 4096]               0
           Dropout-3              [-1, 1, 4096]               0
            Linear-4              [-1, 1, 2048]       8,390,656
              ReLU-5              [-1, 1, 2048]               0
           Dropout-6              [-1, 1, 2048]               0
            Linear-7              [-1, 1, 1024]       2,098,176
              ReLU-8              [-1, 1, 1024]               0
           Dropout-9              [-1, 1, 1024]               0
           Linear-10               [-1, 1, 512]         524,800
             ReLU-11               [-1, 1, 512]               0
          Dropout-12               [-1, 1, 512]               0
           Linear-13                [-1, 1, 10]           5,130
          Sigmoid-14                [-1, 1, 10]               0
================================================================
Total params: 15,348,234
Trainable params: 15,348,234
Non-trainable params: 0
----------------------------------------------------------------
Input size (MB): 0.00
Forward/backward pass size (MB): 0.18
Params size (MB): 58.55
Estimated Total Size (MB): 58.73
----------------------------------------------------------------
…
Epoch:   12  | Loss = 0.04520 | Val_loss: 0.04553 | Accuracy: 92.88 %
Training Done. 6.39424729347229 (s)
Prediction..
Model Saved.
===================== Training Done. File: ABlists_99_-52000_-51000_46000_52000.npy
Generate data from the file: 2718_ABlists_9_-60000_-59000_50000_56000
data_batch Changed:  5120
0, 1, 2, 3, 4, 5, 6, 7, 8, 9, Time consumed: 43.32738947868347 (s)
----------------------------------------------------------------
        Layer (type)               Output Shape         Param #
================================================================
            Linear-1              [-1, 1, 4096]       3,887,104
              ReLU-2              [-1, 1, 4096]               0
           Dropout-3              [-1, 1, 4096]               0
            Linear-4              [-1, 1, 2048]       8,390,656
              ReLU-5              [-1, 1, 2048]               0
           Dropout-6              [-1, 1, 2048]               0
            Linear-7              [-1, 1, 1024]       2,098,176
              ReLU-8              [-1, 1, 1024]               0
           Dropout-9              [-1, 1, 1024]               0
           Linear-10               [-1, 1, 512]         524,800
             ReLU-11               [-1, 1, 512]               0
          Dropout-12               [-1, 1, 512]               0
           Linear-13                [-1, 1, 10]           5,130
          Sigmoid-14                [-1, 1, 10]               0
================================================================
Total params: 14,905,866
Trainable params: 14,905,866
Non-trainable params: 0
----------------------------------------------------------------
Input size (MB): 0.00
Forward/backward pass size (MB): 0.18
Params size (MB): 56.86
Estimated Total Size (MB): 57.04
----------------------------------------------------------------
…
