Script started on Fri 09 Aug 2019 12:49:25 AM KST
[1;47;30m[sonic@ubuntu:2nd_automation]$[m python3 5[K4th_automated_learning_2.py  M
Using TensorFlow backend.
Generate data from the file: 906_ABlists_184_-44000_-43000_12000_18000
PRE_PRECESSING Changed: False --> True, power: 8
0, 1, 2, 3, 4, 5, 6, 7, 8, 9, Time consumed: 301.2819595336914 (s)
----------------------------------------------------------------
        Layer (type)               Output Shape         Param #
================================================================
            Linear-1              [-1, 1, 4096]       1,761,280
              ReLU-2              [-1, 1, 4096]               0
           Dropout-3              [-1, 1, 4096]               0
            Linear-4              [-1, 1, 2048]       8,390,656
              ReLU-5              [-1, 1, 2048]               0
           Dropout-6              [-1, 1, 2048]               0
            Linear-7              [-1, 1, 1024]       2,098,176
              ReLU-8              [-1, 1, 1024]               0
           Dropout-9              [-1, 1, 1024]               0
           Linear-10               [-1, 1, 512]         524,800
             ReLU-11               [-1, 1, 512]               0
          Dropout-12               [-1, 1, 512]               0
           Linear-13                [-1, 1, 10]           5,130
          Sigmoid-14                [-1, 1, 10]               0
================================================================
Total params: 12,780,042
Trainable params: 12,780,042
Non-trainable params: 0
----------------------------------------------------------------
Input size (MB): 0.00
Forward/backward pass size (MB): 0.18
Params size (MB): 48.75
Estimated Total Size (MB): 48.93
----------------------------------------------------------------
…
