Script started on Fri 09 Aug 2019 01:45:12 AM KST

[1;47;30m[sonic@ubuntu:2nd_automation]$[m exitpython3 4th_automated_learning_2.py 
Using TensorFlow backend.
Generate data from the file: 4_ABlists_1002_28000_29000_24000_30000
data_batch Changed:  5120
0, 1, 2, 3, 4, 5, 6, 7, 8, 9, Time consumed: 20.664463758468628 (s)
----------------------------------------------------------------
        Layer (type)               Output Shape         Param #
================================================================
            Linear-1              [-1, 1, 4096]       1,712,128
              ReLU-2              [-1, 1, 4096]               0
           Dropout-3              [-1, 1, 4096]               0
            Linear-4              [-1, 1, 2048]       8,390,656
              ReLU-5              [-1, 1, 2048]               0
           Dropout-6              [-1, 1, 2048]               0
            Linear-7              [-1, 1, 1024]       2,098,176
              ReLU-8              [-1, 1, 1024]               0
           Dropout-9              [-1, 1, 1024]               0
           Linear-10               [-1, 1, 512]         524,800
             ReLU-11               [-1, 1, 512]               0
          Dropout-12               [-1, 1, 512]               0
           Linear-13                [-1, 1, 10]           5,130
          Sigmoid-14                [-1, 1, 10]               0
================================================================
Total params: 12,730,890
Trainable params: 12,730,890
Non-trainable params: 0
----------------------------------------------------------------
Input size (MB): 0.00
Forward/backward pass size (MB): 0.18
Params size (MB): 48.56
Estimated Total Size (MB): 48.74
----------------------------------------------------------------
Training Start.. (Pre Process:False)
…
Epoch:   23  | Loss = 0.02225 | Val_loss: 0.03920 | Accuracy: 92.29 %
Training Done. 9.628130197525024 (s)
Prediction..
Model Saved.
===================== Training Done. File: ABlists_1002_28000_29000_24000_30000.npy
Generate data from the file: 6_ABlists_1003_28000_29000_30000_36000
data_batch Changed:  5120
0, 1, 2, 3, 4, 5, 6, 7, 8, 9, Time consumed: 21.44887089729309 (s)
----------------------------------------------------------------
        Layer (type)               Output Shape         Param #
================================================================
            Linear-1              [-1, 1, 4096]       1,806,336
              ReLU-2              [-1, 1, 4096]               0
           Dropout-3              [-1, 1, 4096]               0
            Linear-4              [-1, 1, 2048]       8,390,656
              ReLU-5              [-1, 1, 2048]               0
           Dropout-6              [-1, 1, 2048]               0
            Linear-7              [-1, 1, 1024]       2,098,176
              ReLU-8              [-1, 1, 1024]               0
           Dropout-9              [-1, 1, 1024]               0
           Linear-10               [-1, 1, 512]         524,800
             ReLU-11               [-1, 1, 512]               0
          Dropout-12               [-1, 1, 512]               0
           Linear-13                [-1, 1, 10]           5,130
          Sigmoid-14                [-1, 1, 10]               0
================================================================
Total params: 12,825,098
Trainable params: 12,825,098
Non-trainable params: 0
----------------------------------------------------------------
Input size (MB): 0.00
Forward/backward pass size (MB): 0.18
Params size (MB): 48.92
Estimated Total Size (MB): 49.10
----------------------------------------------------------------
Training Start.. (Pre Process:False)
…
Epoch:   11  | Loss = 0.04313 | Val_loss: 0.04162 | Accuracy: 92.33 %
Training Done. 4.529346466064453 (s)
Prediction..
Model Saved.
===================== Training Done. File: ABlists_1003_28000_29000_30000_36000.npy
Generate data from the file: 8_ABlists_1004_28000_29000_36000_42000
data_batch Changed:  5120
0, 1, 2, 3, 4, 5, 6, 7, 8, 9, Time consumed: 24.15942883491516 (s)
----------------------------------------------------------------
        Layer (type)               Output Shape         Param #
================================================================
            Linear-1              [-1, 1, 4096]       2,056,192
              ReLU-2              [-1, 1, 4096]               0
           Dropout-3              [-1, 1, 4096]               0
            Linear-4              [-1, 1, 2048]       8,390,656
              ReLU-5              [-1, 1, 2048]               0
           Dropout-6              [-1, 1, 2048]               0
            Linear-7              [-1, 1, 1024]       2,098,176
              ReLU-8              [-1, 1, 1024]               0
           Dropout-9              [-1, 1, 1024]               0
           Linear-10               [-1, 1, 512]         524,800
             ReLU-11               [-1, 1, 512]               0
          Dropout-12               [-1, 1, 512]               0
           Linear-13                [-1, 1, 10]           5,130
          Sigmoid-14                [-1, 1, 10]               0
================================================================
Total params: 13,074,954
Trainable params: 13,074,954
Non-trainable params: 0
----------------------------------------------------------------
Input size (MB): 0.00
Forward/backward pass size (MB): 0.18
Params size (MB): 49.88
Estimated Total Size (MB): 50.05
----------------------------------------------------------------
Training Start.. (Pre Process:False)
…
Epoch:   10  | Loss = 0.04248 | Val_loss: 0.04379 | Accuracy: 92.97 %
Training Done. 4.271322250366211 (s)
Prediction..
Model Saved.
===================== Training Done. File: ABlists_1004_28000_29000_36000_42000.npy
Generate data from the file: 10_ABlists_1005_28000_29000_42000_48000
data_batch Changed:  5120
0, 1, 2, 3, 4, 5, 6, 7, 8, 9, Time consumed: 27.52630043029785 (s)
----------------------------------------------------------------
        Layer (type)               Output Shape         Param #
================================================================
            Linear-1              [-1, 1, 4096]       2,256,896
              ReLU-2              [-1, 1, 4096]               0
           Dropout-3              [-1, 1, 4096]               0
            Linear-4              [-1, 1, 2048]       8,390,656
              ReLU-5              [-1, 1, 2048]               0
           Dropout-6              [-1, 1, 2048]               0
            Linear-7              [-1, 1, 1024]       2,098,176
              ReLU-8              [-1, 1, 1024]               0
           Dropout-9              [-1, 1, 1024]               0
           Linear-10               [-1, 1, 512]         524,800
             ReLU-11               [-1, 1, 512]               0
          Dropout-12               [-1, 1, 512]               0
           Linear-13                [-1, 1, 10]           5,130
          Sigmoid-14                [-1, 1, 10]               0
================================================================
Total params: 13,275,658
Trainable params: 13,275,658
Non-trainable params: 0
----------------------------------------------------------------
Input size (MB): 0.00
Forward/backward pass size (MB): 0.18
Params size (MB): 50.64
Estimated Total Size (MB): 50.82
----------------------------------------------------------------
Training Start.. (Pre Process:False)
…
Epoch:    9  | Loss = 0.05498 | Val_loss: 0.05064 | Accuracy: 92.76 %
Training Done. 4.0865819454193115 (s)
Prediction..
Model Saved.
===================== Training Done. File: ABlists_1005_28000_29000_42000_48000.npy
Generate data from the file: 12_ABlists_1006_28000_29000_48000_54000
data_batch Changed:  5120
0, 1, 2, 3, 4, 5, 6, 7, 8, 9, Time consumed: 37.609944105148315 (s)
----------------------------------------------------------------
        Layer (type)               Output Shape         Param #
================================================================
            Linear-1              [-1, 1, 4096]       2,527,232
              ReLU-2              [-1, 1, 4096]               0
           Dropout-3              [-1, 1, 4096]               0
            Linear-4              [-1, 1, 2048]       8,390,656
              ReLU-5              [-1, 1, 2048]               0
           Dropout-6              [-1, 1, 2048]               0
            Linear-7              [-1, 1, 1024]       2,098,176
              ReLU-8              [-1, 1, 1024]               0
           Dropout-9              [-1, 1, 1024]               0
           Linear-10               [-1, 1, 512]         524,800
             ReLU-11               [-1, 1, 512]               0
          Dropout-12               [-1, 1, 512]               0
           Linear-13                [-1, 1, 10]           5,130
          Sigmoid-14                [-1, 1, 10]               0
================================================================
Total params: 13,545,994
Trainable params: 13,545,994
Non-trainable params: 0
----------------------------------------------------------------
Input size (MB): 0.00
Forward/backward pass size (MB): 0.18
Params size (MB): 51.67
Estimated Total Size (MB): 51.85
----------------------------------------------------------------
Training Start.. (Pre Process:False)
…
Epoch:   10  | Loss = 0.04961 | Val_loss: 0.04845 | Accuracy: 92.14 %
Training Done. 4.4578070640563965 (s)
Prediction..
Model Saved.
===================== Training Done. File: ABlists_1006_28000_29000_48000_54000.npy
Generate data from the file: 14_ABlists_1007_28000_29000_54000_60000
data_batch Changed:  5120
0, 1, 2, 3, 4, 5, 6, 7, 8, 9, Time consumed: 41.8082001209259 (s)
----------------------------------------------------------------
        Layer (type)               Output Shape         Param #
================================================================
            Linear-1              [-1, 1, 4096]       2,924,544
              ReLU-2              [-1, 1, 4096]               0
           Dropout-3              [-1, 1, 4096]               0
            Linear-4              [-1, 1, 2048]       8,390,656
              ReLU-5              [-1, 1, 2048]               0
           Dropout-6              [-1, 1, 2048]               0
            Linear-7              [-1, 1, 1024]       2,098,176
              ReLU-8              [-1, 1, 1024]               0
           Dropout-9              [-1, 1, 1024]               0
           Linear-10               [-1, 1, 512]         524,800
             ReLU-11               [-1, 1, 512]               0
          Dropout-12               [-1, 1, 512]               0
           Linear-13                [-1, 1, 10]           5,130
          Sigmoid-14                [-1, 1, 10]               0
================================================================
Total params: 13,943,306
Trainable params: 13,943,306
Non-trainable params: 0
----------------------------------------------------------------
Input size (MB): 0.00
Forward/backward pass size (MB): 0.18
Params size (MB): 53.19
Estimated Total Size (MB): 53.37
----------------------------------------------------------------
Training Start.. (Pre Process:False)
…
Epoch:   11  | Loss = 0.04697 | Val_loss: 0.04531 | Accuracy: 93.12 %
Training Done. 5.266083717346191 (s)
Prediction..
Model Saved.
===================== Training Done. File: ABlists_1007_28000_29000_54000_60000.npy
Generate data from the file: 16_ABlists_1008_28000_29000_60000_66000
data_batch Changed:  5120
0, 1, 2, 3, 4, 5, 6, 7, 8, 9, Time consumed: 45.960779905319214 (s)
----------------------------------------------------------------
        Layer (type)               Output Shape         Param #
================================================================
            Linear-1              [-1, 1, 4096]       3,239,936
              ReLU-2              [-1, 1, 4096]               0
           Dropout-3              [-1, 1, 4096]               0
            Linear-4              [-1, 1, 2048]       8,390,656
              ReLU-5              [-1, 1, 2048]               0
           Dropout-6              [-1, 1, 2048]               0
            Linear-7              [-1, 1, 1024]       2,098,176
              ReLU-8              [-1, 1, 1024]               0
           Dropout-9              [-1, 1, 1024]               0
           Linear-10               [-1, 1, 512]         524,800
             ReLU-11               [-1, 1, 512]               0
          Dropout-12               [-1, 1, 512]               0
           Linear-13                [-1, 1, 10]           5,130
          Sigmoid-14                [-1, 1, 10]               0
================================================================
Total params: 14,258,698
Trainable params: 14,258,698
Non-trainable params: 0
----------------------------------------------------------------
Input size (MB): 0.00
Forward/backward pass size (MB): 0.18
Params size (MB): 54.39
Estimated Total Size (MB): 54.57
----------------------------------------------------------------
Training Start.. (Pre Process:False)
…
Epoch:    9  | Loss = 0.06207 | Val_loss: 0.05686 | Accuracy: 90.10 %
Epoch:   10  | Loss = 0.04831 | Val_loss: 0.04405 | Accuracy: 93.09 %
Training Done. 4.828145265579224 (s)
Prediction..
Model Saved.
===================== Training Done. File: ABlists_1008_28000_29000_60000_66000.npy
Generate data from the file: 18_ABlists_1009_28000_29000_66000_4000
0, 1, 2, 3, 4, 5, 6, 7, 8, 9, Time consumed: 62.310720443725586 (s)
----------------------------------------------------------------
        Layer (type)               Output Shape         Param #
================================================================
            Linear-1              [-1, 1, 4096]       4,628,480
              ReLU-2              [-1, 1, 4096]               0
           Dropout-3              [-1, 1, 4096]               0
            Linear-4              [-1, 1, 2048]       8,390,656
              ReLU-5              [-1, 1, 2048]               0
           Dropout-6              [-1, 1, 2048]               0
            Linear-7              [-1, 1, 1024]       2,098,176
              ReLU-8              [-1, 1, 1024]               0
           Dropout-9              [-1, 1, 1024]               0
           Linear-10               [-1, 1, 512]         524,800
             ReLU-11               [-1, 1, 512]               0
          Dropout-12               [-1, 1, 512]               0
           Linear-13                [-1, 1, 10]           5,130
          Sigmoid-14                [-1, 1, 10]               0
================================================================
Total params: 15,647,242
Trainable params: 15,647,242
Non-trainable params: 0
----------------------------------------------------------------
Input size (MB): 0.00
Forward/backward pass size (MB): 0.18
Params size (MB): 59.69
Estimated Total Size (MB): 59.87
----------------------------------------------------------------
Training Start.. (Pre Process:False)
…
Epoch:   29  | Loss = 0.11662 | Val_loss: 0.12953 | Accuracy: 58.91 %
Training Done. 21.072367668151855 (s)
Prediction..
Model Saved.
===================== Training Done. File: ABlists_1009_28000_29000_66000_4000.npy
Generate data from the file: 20_ABlists_100_-52000_-51000_52000_58000
data_batch Changed:  5120
0, 1, 2, 3, 4, 5, 6, 7, 8, 9, Time consumed: 55.84297323226929 (s)
----------------------------------------------------------------
        Layer (type)               Output Shape         Param #
================================================================
            Linear-1              [-1, 1, 4096]       3,883,008
              ReLU-2              [-1, 1, 4096]               0
           Dropout-3              [-1, 1, 4096]               0
            Linear-4              [-1, 1, 2048]       8,390,656
              ReLU-5              [-1, 1, 2048]               0
           Dropout-6              [-1, 1, 2048]               0
            Linear-7              [-1, 1, 1024]       2,098,176
              ReLU-8              [-1, 1, 1024]               0
           Dropout-9              [-1, 1, 1024]               0
           Linear-10               [-1, 1, 512]         524,800
             ReLU-11               [-1, 1, 512]               0
          Dropout-12               [-1, 1, 512]               0
           Linear-13                [-1, 1, 10]           5,130
          Sigmoid-14                [-1, 1, 10]               0
================================================================
Total params: 14,901,770
Trainable params: 14,901,770
Non-trainable params: 0
----------------------------------------------------------------
Input size (MB): 0.00
Forward/backward pass size (MB): 0.18
Params size (MB): 56.85
Estimated Total Size (MB): 57.03
----------------------------------------------------------------
Training Start.. (Pre Process:False)
…
Epoch:   13  | Loss = 0.04866 | Val_loss: 0.05056 | Accuracy: 92.43 %
Training Done. 6.731483221054077 (s)
Prediction..
Model Saved.
===================== Training Done. File: ABlists_100_-52000_-51000_52000_58000.npy
Generate data from the file: 22_ABlists_1010_29000_30000_4000_10000
PRE_PRECESSING Changed: False --> True, power: 8
0, 1, 2, 3, 4, 5, 6, 7, 8, 9, Time consumed: 20.70717453956604 (s)
----------------------------------------------------------------
        Layer (type)               Output Shape         Param #
================================================================
            Linear-1              [-1, 1, 4096]       1,474,560
              ReLU-2              [-1, 1, 4096]               0
           Dropout-3              [-1, 1, 4096]               0
            Linear-4              [-1, 1, 2048]       8,390,656
              ReLU-5              [-1, 1, 2048]               0
           Dropout-6              [-1, 1, 2048]               0
            Linear-7              [-1, 1, 1024]       2,098,176
              ReLU-8              [-1, 1, 1024]               0
           Dropout-9              [-1, 1, 1024]               0
           Linear-10               [-1, 1, 512]         524,800
             ReLU-11               [-1, 1, 512]               0
          Dropout-12               [-1, 1, 512]               0
           Linear-13                [-1, 1, 10]           5,130
          Sigmoid-14                [-1, 1, 10]               0
================================================================
Total params: 12,493,322
Trainable params: 12,493,322
Non-trainable params: 0
----------------------------------------------------------------
Input size (MB): 0.00
Forward/backward pass size (MB): 0.18
Params size (MB): 47.66
Estimated Total Size (MB): 47.84
----------------------------------------------------------------
Training Start.. (Pre Process:True)
…
Epoch:   30  | Loss = 0.22213 | Val_loss: 0.24970 | Accuracy: 36.21 %
Training Done. 12.353598356246948 (s)
Prediction..
Model Saved.
===================== Training Done. File: ABlists_1010_29000_30000_4000_10000.npy
Generate data from the file: 24_ABlists_1011_29000_30000_10000_16000
PRE_PRECESSING Changed: False --> True, power: 8
0, 1, 2, 3, 4, 5, 6, 7, 8, 9, Time consumed: 21.942365407943726 (s)
----------------------------------------------------------------
        Layer (type)               Output Shape         Param #
================================================================
            Linear-1              [-1, 1, 4096]       1,499,136
              ReLU-2              [-1, 1, 4096]               0
           Dropout-3              [-1, 1, 4096]               0
            Linear-4              [-1, 1, 2048]       8,390,656
              ReLU-5              [-1, 1, 2048]               0
           Dropout-6              [-1, 1, 2048]               0
            Linear-7              [-1, 1, 1024]       2,098,176
              ReLU-8              [-1, 1, 1024]               0
           Dropout-9              [-1, 1, 1024]               0
           Linear-10               [-1, 1, 512]         524,800
             ReLU-11               [-1, 1, 512]               0
          Dropout-12               [-1, 1, 512]               0
           Linear-13                [-1, 1, 10]           5,130
          Sigmoid-14                [-1, 1, 10]               0
================================================================
Total params: 12,517,898
Trainable params: 12,517,898
Non-trainable params: 0
----------------------------------------------------------------
Input size (MB): 0.00
Forward/backward pass size (MB): 0.18
Params size (MB): 47.75
Estimated Total Size (MB): 47.93
----------------------------------------------------------------
Training Start.. (Pre Process:True)
…
Epoch:   31  | Loss = 0.11893 | Val_loss: 0.15641 | Accuracy: 64.03 %
Epoch:   32  | Loss = 0.11744 | Val_loss: 0.15677 | Accuracy: 64.16 %
Training Done. 13.269930601119995 (s)
Prediction..
Model Saved.
===================== Training Done. File: ABlists_1011_29000_30000_10000_16000.npy
Generate data from the file: 26_ABlists_1012_29000_30000_16000_22000
0, 1, 2, 3, 4, 5, 6, 7, 8, 9, Time consumed: 23.029690980911255 (s)
----------------------------------------------------------------
        Layer (type)               Output Shape         Param #
================================================================
            Linear-1              [-1, 1, 4096]       1,581,056
              ReLU-2              [-1, 1, 4096]               0
           Dropout-3              [-1, 1, 4096]               0
            Linear-4              [-1, 1, 2048]       8,390,656
              ReLU-5              [-1, 1, 2048]               0
           Dropout-6              [-1, 1, 2048]               0
            Linear-7              [-1, 1, 1024]       2,098,176
              ReLU-8              [-1, 1, 1024]               0
           Dropout-9              [-1, 1, 1024]               0
           Linear-10               [-1, 1, 512]         524,800
             ReLU-11               [-1, 1, 512]               0
          Dropout-12               [-1, 1, 512]               0
           Linear-13                [-1, 1, 10]           5,130
          Sigmoid-14                [-1, 1, 10]               0
================================================================
Total params: 12,599,818
Trainable params: 12,599,818
Non-trainable params: 0
----------------------------------------------------------------
Input size (MB): 0.00
Forward/backward pass size (MB): 0.18
Params size (MB): 48.06
Estimated Total Size (MB): 48.24
----------------------------------------------------------------
Training Start.. (Pre Process:False)
…
Epoch:   34  | Loss = 0.11120 | Val_loss: 0.13803 | Accuracy: 67.00 %
Training Done. 14.346051692962646 (s)
Prediction..
Model Saved.
===================== Training Done. File: ABlists_1012_29000_30000_16000_22000.npy
Generate data from the file: 28_ABlists_1013_29000_30000_22000_28000
data_batch Changed:  5120
0, 1, 2, 3, 4, 5, 6, 7, 8, 9, Time consumed: 22.048277616500854 (s)
----------------------------------------------------------------
        Layer (type)               Output Shape         Param #
================================================================
            Linear-1              [-1, 1, 4096]       1,654,784
              ReLU-2              [-1, 1, 4096]               0
           Dropout-3              [-1, 1, 4096]               0
            Linear-4              [-1, 1, 2048]       8,390,656
              ReLU-5              [-1, 1, 2048]               0
           Dropout-6              [-1, 1, 2048]               0
            Linear-7              [-1, 1, 1024]       2,098,176
              ReLU-8              [-1, 1, 1024]               0
           Dropout-9              [-1, 1, 1024]               0
           Linear-10               [-1, 1, 512]         524,800
             ReLU-11               [-1, 1, 512]               0
          Dropout-12               [-1, 1, 512]               0
           Linear-13                [-1, 1, 10]           5,130
          Sigmoid-14                [-1, 1, 10]               0
================================================================
Total params: 12,673,546
Trainable params: 12,673,546
Non-trainable params: 0
----------------------------------------------------------------
Input size (MB): 0.00
Forward/backward pass size (MB): 0.18
Params size (MB): 48.35
Estimated Total Size (MB): 48.52
----------------------------------------------------------------
Training Start.. (Pre Process:False)
…
Epoch:   31  | Loss = 0.10957 | Val_loss: 0.09091 | Accuracy: 83.34 %
Training Done. 13.261982440948486 (s)
Prediction..
Model Saved.
===================== Training Done. File: ABlists_1013_29000_30000_22000_28000.npy
Generate data from the file: 30_ABlists_1014_29000_30000_28000_34000
data_batch Changed:  5120
0, 1, 2, 3, 4, 5, 6, 7, 8, 9, Time consumed: 26.772882223129272 (s)
----------------------------------------------------------------
        Layer (type)               Output Shape         Param #
================================================================
            Linear-1              [-1, 1, 4096]       1,761,280
              ReLU-2              [-1, 1, 4096]               0
           Dropout-3              [-1, 1, 4096]               0
            Linear-4              [-1, 1, 2048]       8,390,656
              ReLU-5              [-1, 1, 2048]               0
           Dropout-6              [-1, 1, 2048]               0
            Linear-7              [-1, 1, 1024]       2,098,176
              ReLU-8              [-1, 1, 1024]               0
           Dropout-9              [-1, 1, 1024]               0
           Linear-10               [-1, 1, 512]         524,800
             ReLU-11               [-1, 1, 512]               0
          Dropout-12               [-1, 1, 512]               0
           Linear-13                [-1, 1, 10]           5,130
          Sigmoid-14                [-1, 1, 10]               0
================================================================
Total params: 12,780,042
Trainable params: 12,780,042
Non-trainable params: 0
----------------------------------------------------------------
Input size (MB): 0.00
Forward/backward pass size (MB): 0.18
Params size (MB): 48.75
Estimated Total Size (MB): 48.93
----------------------------------------------------------------
Training Start.. (Pre Process:False)
…
Epoch:   15  | Loss = 0.03716 | Val_loss: 0.04037 | Accuracy: 92.39 %
Training Done. 6.498576641082764 (s)
Prediction..
Model Saved.
===================== Training Done. File: ABlists_1014_29000_30000_28000_34000.npy
Generate data from the file: 32_ABlists_1015_29000_30000_34000_40000
data_batch Changed:  5120
0, 1, 2, 3, 4, 5, 6, 7, 8, 9, Time consumed: 28.70022463798523 (s)
----------------------------------------------------------------
        Layer (type)               Output Shape         Param #
================================================================
            Linear-1              [-1, 1, 4096]       1,994,752
              ReLU-2              [-1, 1, 4096]               0
           Dropout-3              [-1, 1, 4096]               0
            Linear-4              [-1, 1, 2048]       8,390,656
              ReLU-5              [-1, 1, 2048]               0
           Dropout-6              [-1, 1, 2048]               0
            Linear-7              [-1, 1, 1024]       2,098,176
              ReLU-8              [-1, 1, 1024]               0
           Dropout-9              [-1, 1, 1024]               0
           Linear-10               [-1, 1, 512]         524,800
             ReLU-11               [-1, 1, 512]               0
          Dropout-12               [-1, 1, 512]               0
           Linear-13                [-1, 1, 10]           5,130
          Sigmoid-14                [-1, 1, 10]               0
================================================================
Total params: 13,013,514
Trainable params: 13,013,514
Non-trainable params: 0
----------------------------------------------------------------
Input size (MB): 0.00
Forward/backward pass size (MB): 0.18
Params size (MB): 49.64
Estimated Total Size (MB): 49.82
----------------------------------------------------------------
Training Start.. (Pre Process:False)
…
Epoch:   10  | Loss = 0.04901 | Val_loss: 0.04839 | Accuracy: 92.20 %
Training Done. 4.381859064102173 (s)
Prediction..
Model Saved.
===================== Training Done. File: ABlists_1015_29000_30000_34000_40000.npy
Generate data from the file: 34_ABlists_1016_29000_30000_40000_46000
data_batch Changed:  5120
0, 1, 2, 3, 4, 5, 6, 7, 8, 9, Time consumed: 33.027334690093994 (s)
----------------------------------------------------------------
        Layer (type)               Output Shape         Param #
================================================================
            Linear-1              [-1, 1, 4096]       2,207,744
              ReLU-2              [-1, 1, 4096]               0
           Dropout-3              [-1, 1, 4096]               0
            Linear-4              [-1, 1, 2048]       8,390,656
              ReLU-5              [-1, 1, 2048]               0
           Dropout-6              [-1, 1, 2048]               0
            Linear-7              [-1, 1, 1024]       2,098,176
              ReLU-8              [-1, 1, 1024]               0
           Dropout-9              [-1, 1, 1024]               0
           Linear-10               [-1, 1, 512]         524,800
             ReLU-11               [-1, 1, 512]               0
          Dropout-12               [-1, 1, 512]               0
           Linear-13                [-1, 1, 10]           5,130
          Sigmoid-14                [-1, 1, 10]               0
================================================================
Total params: 13,226,506
Trainable params: 13,226,506
Non-trainable params: 0
----------------------------------------------------------------
Input size (MB): 0.00
Forward/backward pass size (MB): 0.18
Params size (MB): 50.46
Estimated Total Size (MB): 50.63
----------------------------------------------------------------
Training Start.. (Pre Process:False)
…
Epoch:    9  | Loss = 0.05393 | Val_loss: 0.05035 | Accuracy: 92.74 %
Training Done. 4.026578903198242 (s)
Prediction..
Model Saved.
===================== Training Done. File: ABlists_1016_29000_30000_40000_46000.npy
Generate data from the file: 36_ABlists_1017_29000_30000_46000_52000
data_batch Changed:  5120
0, 1, 2, 3, 4, 5, 6, 7, 8, 9, Time consumed: 34.792400598526 (s)
----------------------------------------------------------------
        Layer (type)               Output Shape         Param #
================================================================
            Linear-1              [-1, 1, 4096]       2,408,448
              ReLU-2              [-1, 1, 4096]               0
           Dropout-3              [-1, 1, 4096]               0
            Linear-4              [-1, 1, 2048]       8,390,656
              ReLU-5              [-1, 1, 2048]               0
           Dropout-6              [-1, 1, 2048]               0
            Linear-7              [-1, 1, 1024]       2,098,176
              ReLU-8              [-1, 1, 1024]               0
           Dropout-9              [-1, 1, 1024]               0
           Linear-10               [-1, 1, 512]         524,800
             ReLU-11               [-1, 1, 512]               0
          Dropout-12               [-1, 1, 512]               0
           Linear-13                [-1, 1, 10]           5,130
          Sigmoid-14                [-1, 1, 10]               0
================================================================
Total params: 13,427,210
Trainable params: 13,427,210
Non-trainable params: 0
----------------------------------------------------------------
Input size (MB): 0.00
Forward/backward pass size (MB): 0.18
Params size (MB): 51.22
Estimated Total Size (MB): 51.40
----------------------------------------------------------------
Training Start.. (Pre Process:False)
…
Epoch:   10  | Loss = 0.04849 | Val_loss: 0.04719 | Accuracy: 93.05 %
Training Done. 4.589838743209839 (s)
Prediction..
Model Saved.
===================== Training Done. File: ABlists_1017_29000_30000_46000_52000.npy
Generate data from the file: 38_ABlists_1018_29000_30000_52000_58000
data_batch Changed:  5120
0, 1, 2, 3, 4, 5, 6, 7, 8, 9, Time consumed: 41.018136978149414 (s)
----------------------------------------------------------------
        Layer (type)               Output Shape         Param #
================================================================
            Linear-1              [-1, 1, 4096]       2,805,760
              ReLU-2              [-1, 1, 4096]               0
           Dropout-3              [-1, 1, 4096]               0
            Linear-4              [-1, 1, 2048]       8,390,656
              ReLU-5              [-1, 1, 2048]               0
           Dropout-6              [-1, 1, 2048]               0
            Linear-7              [-1, 1, 1024]       2,098,176
              ReLU-8              [-1, 1, 1024]               0
           Dropout-9              [-1, 1, 1024]               0
           Linear-10               [-1, 1, 512]         524,800
             ReLU-11               [-1, 1, 512]               0
          Dropout-12               [-1, 1, 512]               0
           Linear-13                [-1, 1, 10]           5,130
          Sigmoid-14                [-1, 1, 10]               0
================================================================
Total params: 13,824,522
Trainable params: 13,824,522
Non-trainable params: 0
----------------------------------------------------------------
Input size (MB): 0.00
Forward/backward pass size (MB): 0.18
Params size (MB): 52.74
Estimated Total Size (MB): 52.91
----------------------------------------------------------------
Training Start.. (Pre Process:False)
…
Epoch:    9  | Loss = 0.05339 | Val_loss: 0.04794 | Accuracy: 93.06 %
Training Done. 4.240367412567139 (s)
Prediction..
Model Saved.
===================== Training Done. File: ABlists_1018_29000_30000_52000_58000.npy
Generate data from the file: 40_ABlists_1019_29000_30000_58000_64000
data_batch Changed:  5120
0, 1, 2, 3, 4, 5, 6, 7, 8, 9, Time consumed: 36.8199417591095 (s)
----------------------------------------------------------------
        Layer (type)               Output Shape         Param #
================================================================
            Linear-1              [-1, 1, 4096]       3,145,728
              ReLU-2              [-1, 1, 4096]               0
           Dropout-3              [-1, 1, 4096]               0
            Linear-4              [-1, 1, 2048]       8,390,656
              ReLU-5              [-1, 1, 2048]               0
           Dropout-6              [-1, 1, 2048]               0
            Linear-7              [-1, 1, 1024]       2,098,176
              ReLU-8              [-1, 1, 1024]               0
           Dropout-9              [-1, 1, 1024]               0
           Linear-10               [-1, 1, 512]         524,800
             ReLU-11               [-1, 1, 512]               0
          Dropout-12               [-1, 1, 512]               0
           Linear-13                [-1, 1, 10]           5,130
          Sigmoid-14                [-1, 1, 10]               0
================================================================
Total params: 14,164,490
Trainable params: 14,164,490
Non-trainable params: 0
----------------------------------------------------------------
Input size (MB): 0.00
Forward/backward pass size (MB): 0.18
Params size (MB): 54.03
Estimated Total Size (MB): 54.21
----------------------------------------------------------------
Training Start.. (Pre Process:False)
…
Epoch:    9  | Loss = 0.05037 | Val_loss: 0.04621 | Accuracy: 92.98 %
Training Done. 4.402560234069824 (s)
Prediction..
Model Saved.
===================== Training Done. File: ABlists_1019_29000_30000_58000_64000.npy
Generate data from the file: 42_ABlists_101_-52000_-51000_58000_64000
data_batch Changed:  5120
0, 1, 2, 3, 4, 5, 6, 7, 8, 9, Time consumed: 65.1437315940857 (s)
----------------------------------------------------------------
        Layer (type)               Output Shape         Param #
================================================================
            Linear-1              [-1, 1, 4096]       4,489,216
              ReLU-2              [-1, 1, 4096]               0
           Dropout-3              [-1, 1, 4096]               0
            Linear-4              [-1, 1, 2048]       8,390,656
              ReLU-5              [-1, 1, 2048]               0
           Dropout-6              [-1, 1, 2048]               0
            Linear-7              [-1, 1, 1024]       2,098,176
              ReLU-8              [-1, 1, 1024]               0
           Dropout-9              [-1, 1, 1024]               0
           Linear-10               [-1, 1, 512]         524,800
             ReLU-11               [-1, 1, 512]               0
          Dropout-12               [-1, 1, 512]               0
           Linear-13                [-1, 1, 10]           5,130
          Sigmoid-14                [-1, 1, 10]               0
================================================================
Total params: 15,507,978
Trainable params: 15,507,978
Non-trainable params: 0
----------------------------------------------------------------
Input size (MB): 0.00
Forward/backward pass size (MB): 0.18
Params size (MB): 59.16
Estimated Total Size (MB): 59.34
----------------------------------------------------------------
Training Start.. (Pre Process:False)
…
Epoch:   15  | Loss = 0.04386 | Val_loss: 0.04827 | Accuracy: 92.45 %
Training Done. 9.526217222213745 (s)
Prediction..
Model Saved.
===================== Training Done. File: ABlists_101_-52000_-51000_58000_64000.npy
Generate data from the file: 44_ABlists_1020_29000_30000_64000_70000
data_batch Changed:  5120
0, 1, 2, 3, 4, 5, 6, 7, 8, 9, Time consumed: 51.49622845649719 (s)
----------------------------------------------------------------
        Layer (type)               Output Shape         Param #
================================================================
            Linear-1              [-1, 1, 4096]       3,612,672
              ReLU-2              [-1, 1, 4096]               0
           Dropout-3              [-1, 1, 4096]               0
            Linear-4              [-1, 1, 2048]       8,390,656
              ReLU-5              [-1, 1, 2048]               0
           Dropout-6              [-1, 1, 2048]               0
            Linear-7              [-1, 1, 1024]       2,098,176
              ReLU-8              [-1, 1, 1024]               0
           Dropout-9              [-1, 1, 1024]               0
           Linear-10               [-1, 1, 512]         524,800
             ReLU-11               [-1, 1, 512]               0
          Dropout-12               [-1, 1, 512]               0
           Linear-13                [-1, 1, 10]           5,130
          Sigmoid-14                [-1, 1, 10]               0
================================================================
Total params: 14,631,434
Trainable params: 14,631,434
Non-trainable params: 0
----------------------------------------------------------------
Input size (MB): 0.00
Forward/backward pass size (MB): 0.18
Params size (MB): 55.81
Estimated Total Size (MB): 55.99
----------------------------------------------------------------
Training Start.. (Pre Process:False)
…
Epoch:    9  | Loss = 0.04312 | Val_loss: 0.04024 | Accuracy: 93.09 %
Training Done. 4.652660131454468 (s)
Prediction..
Model Saved.
===================== Training Done. File: ABlists_1020_29000_30000_64000_70000.npy
Generate data from the file: 46_ABlists_1021_30000_31000_2000_8000
PRE_PRECESSING Changed: False --> True, power: 8
0, 1, 2, 3, 4, 5, 6, 7, 8, 9, Time consumed: 18.534899950027466 (s)
----------------------------------------------------------------
        Layer (type)               Output Shape         Param #
================================================================
            Linear-1              [-1, 1, 4096]       1,454,080
              ReLU-2              [-1, 1, 4096]               0
           Dropout-3              [-1, 1, 4096]               0
            Linear-4              [-1, 1, 2048]       8,390,656
              ReLU-5              [-1, 1, 2048]               0
           Dropout-6              [-1, 1, 2048]               0
            Linear-7              [-1, 1, 1024]       2,098,176
              ReLU-8              [-1, 1, 1024]               0
           Dropout-9              [-1, 1, 1024]               0
           Linear-10               [-1, 1, 512]         524,800
             ReLU-11               [-1, 1, 512]               0
          Dropout-12               [-1, 1, 512]               0
           Linear-13                [-1, 1, 10]           5,130
          Sigmoid-14                [-1, 1, 10]               0
================================================================
Total params: 12,472,842
Trainable params: 12,472,842
Non-trainable params: 0
----------------------------------------------------------------
Input size (MB): 0.00
Forward/backward pass size (MB): 0.18
Params size (MB): 47.58
Estimated Total Size (MB): 47.76
----------------------------------------------------------------
Training Start.. (Pre Process:True)
…
Epoch:   32  | Loss = 0.23163 | Val_loss: 0.27936 | Accuracy: 28.81 %
Training Done. 13.12851619720459 (s)
Prediction..
Model Saved.
===================== Training Done. File: ABlists_1021_30000_31000_2000_8000.npy
Generate data from the file: 48_ABlists_1022_30000_31000_8000_14000
PRE_PRECESSING Changed: False --> True, power: 8
0, 1, 2, 3, 4, 5, 6, 7, 8, 9, Time consumed: 20.922735452651978 (s)
----------------------------------------------------------------
        Layer (type)               Output Shape         Param #
================================================================
            Linear-1              [-1, 1, 4096]       1,511,424
              ReLU-2              [-1, 1, 4096]               0
           Dropout-3              [-1, 1, 4096]               0
            Linear-4              [-1, 1, 2048]       8,390,656
              ReLU-5              [-1, 1, 2048]               0
           Dropout-6              [-1, 1, 2048]               0
            Linear-7              [-1, 1, 1024]       2,098,176
              ReLU-8              [-1, 1, 1024]               0
           Dropout-9              [-1, 1, 1024]               0
           Linear-10               [-1, 1, 512]         524,800
             ReLU-11               [-1, 1, 512]               0
          Dropout-12               [-1, 1, 512]               0
           Linear-13                [-1, 1, 10]           5,130
          Sigmoid-14                [-1, 1, 10]               0
================================================================
Total params: 12,530,186
Trainable params: 12,530,186
Non-trainable params: 0
----------------------------------------------------------------
Input size (MB): 0.00
Forward/backward pass size (MB): 0.18
Params size (MB): 47.80
Estimated Total Size (MB): 47.98
----------------------------------------------------------------
Training Start.. (Pre Process:True)
…
Epoch:   33  | Loss = 0.16905 | Val_loss: 0.21633 | Accuracy: 49.64 %
Epoch:   34  | Loss = 0.16940 | Val_loss: 0.18137 | Accuracy: 55.72 %
Training Done. 13.548340320587158 (s)
Prediction..
Model Saved.
===================== Training Done. File: ABlists_1022_30000_31000_8000_14000.npy
Generate data from the file: 50_ABlists_1023_30000_31000_14000_20000
0, 1, 2, 3, 4, 5, 6, 7, 8, 9, Time consumed: 24.16863489151001 (s)
----------------------------------------------------------------
        Layer (type)               Output Shape         Param #
================================================================
            Linear-1              [-1, 1, 4096]       1,568,768
              ReLU-2              [-1, 1, 4096]               0
           Dropout-3              [-1, 1, 4096]               0
            Linear-4              [-1, 1, 2048]       8,390,656
              ReLU-5              [-1, 1, 2048]               0
           Dropout-6              [-1, 1, 2048]               0
            Linear-7              [-1, 1, 1024]       2,098,176
              ReLU-8              [-1, 1, 1024]               0
           Dropout-9              [-1, 1, 1024]               0
           Linear-10               [-1, 1, 512]         524,800
             ReLU-11               [-1, 1, 512]               0
          Dropout-12               [-1, 1, 512]               0
           Linear-13                [-1, 1, 10]           5,130
          Sigmoid-14                [-1, 1, 10]               0
================================================================
Total params: 12,587,530
Trainable params: 12,587,530
Non-trainable params: 0
----------------------------------------------------------------
Input size (MB): 0.00
Forward/backward pass size (MB): 0.18
Params size (MB): 48.02
Estimated Total Size (MB): 48.20
----------------------------------------------------------------
Training Start.. (Pre Process:False)
…
Epoch:   37  | Loss = 0.26226 | Val_loss: 0.21487 | Accuracy: 46.43 %
Training Done. 15.323471307754517 (s)
Prediction..
Model Saved.
===================== Training Done. File: ABlists_1023_30000_31000_14000_20000.npy
Generate data from the file: 52_ABlists_1024_30000_31000_20000_26000
data_batch Changed:  5120
0, 1, 2, 3, 4, 5, 6, 7, 8, 9, Time consumed: 23.89711880683899 (s)
----------------------------------------------------------------
        Layer (type)               Output Shape         Param #
================================================================
            Linear-1              [-1, 1, 4096]       1,662,976
              ReLU-2              [-1, 1, 4096]               0
           Dropout-3              [-1, 1, 4096]               0
            Linear-4              [-1, 1, 2048]       8,390,656
              ReLU-5              [-1, 1, 2048]               0
           Dropout-6              [-1, 1, 2048]               0
            Linear-7              [-1, 1, 1024]       2,098,176
              ReLU-8              [-1, 1, 1024]               0
           Dropout-9              [-1, 1, 1024]               0
           Linear-10               [-1, 1, 512]         524,800
             ReLU-11               [-1, 1, 512]               0
          Dropout-12               [-1, 1, 512]               0
           Linear-13                [-1, 1, 10]           5,130
          Sigmoid-14                [-1, 1, 10]               0
================================================================
Total params: 12,681,738
Trainable params: 12,681,738
Non-trainable params: 0
----------------------------------------------------------------
Input size (MB): 0.00
Forward/backward pass size (MB): 0.18
Params size (MB): 48.38
Estimated Total Size (MB): 48.55
----------------------------------------------------------------
Training Start.. (Pre Process:False)
…
Epoch:   39  | Loss = 0.03465 | Val_loss: 0.08279 | Accuracy: 84.34 %
Training Done. 16.473205089569092 (s)
Prediction..
Model Saved.
===================== Training Done. File: ABlists_1024_30000_31000_20000_26000.npy
Generate data from the file: 54_ABlists_1025_30000_31000_26000_32000
data_batch Changed:  5120
0, 1, 2, 3, 4, 5, 6, 7, 8, 9, Time consumed: 24.796727180480957 (s)
----------------------------------------------------------------
        Layer (type)               Output Shape         Param #
================================================================
            Linear-1              [-1, 1, 4096]       1,720,320
              ReLU-2              [-1, 1, 4096]               0
           Dropout-3              [-1, 1, 4096]               0
            Linear-4              [-1, 1, 2048]       8,390,656
              ReLU-5              [-1, 1, 2048]               0
           Dropout-6              [-1, 1, 2048]               0
            Linear-7              [-1, 1, 1024]       2,098,176
              ReLU-8              [-1, 1, 1024]               0
           Dropout-9              [-1, 1, 1024]               0
           Linear-10               [-1, 1, 512]         524,800
             ReLU-11               [-1, 1, 512]               0
          Dropout-12               [-1, 1, 512]               0
           Linear-13                [-1, 1, 10]           5,130
          Sigmoid-14                [-1, 1, 10]               0
================================================================
Total params: 12,739,082
Trainable params: 12,739,082
Non-trainable params: 0
----------------------------------------------------------------
Input size (MB): 0.00
Forward/backward pass size (MB): 0.18
Params size (MB): 48.60
Estimated Total Size (MB): 48.77
----------------------------------------------------------------
Training Start.. (Pre Process:False)
…
Epoch:   22  | Loss = 0.03212 | Val_loss: 0.04201 | Accuracy: 92.20 %
Training Done. 9.391861915588379 (s)
Prediction..
Model Saved.
===================== Training Done. File: ABlists_1025_30000_31000_26000_32000.npy
Generate data from the file: 56_ABlists_1026_30000_31000_32000_38000
data_batch Changed:  5120
0, 1, 2, 3, 4, 5, 6, 7, 8, 9, Time consumed: 26.00770401954651 (s)
----------------------------------------------------------------
        Layer (type)               Output Shape         Param #
================================================================
            Linear-1              [-1, 1, 4096]       1,933,312
              ReLU-2              [-1, 1, 4096]               0
           Dropout-3              [-1, 1, 4096]               0
            Linear-4              [-1, 1, 2048]       8,390,656
              ReLU-5              [-1, 1, 2048]               0
           Dropout-6              [-1, 1, 2048]               0
            Linear-7              [-1, 1, 1024]       2,098,176
              ReLU-8              [-1, 1, 1024]               0
           Dropout-9              [-1, 1, 1024]               0
           Linear-10               [-1, 1, 512]         524,800
             ReLU-11               [-1, 1, 512]               0
          Dropout-12               [-1, 1, 512]               0
           Linear-13                [-1, 1, 10]           5,130
          Sigmoid-14                [-1, 1, 10]               0
================================================================
Total params: 12,952,074
Trainable params: 12,952,074
Non-trainable params: 0
----------------------------------------------------------------
Input size (MB): 0.00
Forward/backward pass size (MB): 0.18
Params size (MB): 49.41
Estimated Total Size (MB): 49.59
----------------------------------------------------------------
Training Start.. (Pre Process:False)
…
Epoch:   13  | Loss = 0.03845 | Val_loss: 0.03759 | Accuracy: 93.60 %
Training Done. 5.685879230499268 (s)
Prediction..
Model Saved.
===================== Training Done. File: ABlists_1026_30000_31000_32000_38000.npy
Generate data from the file: 58_ABlists_1027_30000_31000_38000_44000
data_batch Changed:  5120
0, 1, 2, 3, 4, 5, 6, 7, 8, 9, Time consumed: 32.40620422363281 (s)
----------------------------------------------------------------
        Layer (type)               Output Shape         Param #
================================================================
            Linear-1              [-1, 1, 4096]       2,183,168
              ReLU-2              [-1, 1, 4096]               0
           Dropout-3              [-1, 1, 4096]               0
            Linear-4              [-1, 1, 2048]       8,390,656
              ReLU-5              [-1, 1, 2048]               0
           Dropout-6              [-1, 1, 2048]               0
            Linear-7              [-1, 1, 1024]       2,098,176
              ReLU-8              [-1, 1, 1024]               0
           Dropout-9              [-1, 1, 1024]               0
           Linear-10               [-1, 1, 512]         524,800
             ReLU-11               [-1, 1, 512]               0
          Dropout-12               [-1, 1, 512]               0
           Linear-13                [-1, 1, 10]           5,130
          Sigmoid-14                [-1, 1, 10]               0
================================================================
Total params: 13,201,930
Trainable params: 13,201,930
Non-trainable params: 0
----------------------------------------------------------------
Input size (MB): 0.00
Forward/backward pass size (MB): 0.18
Params size (MB): 50.36
Estimated Total Size (MB): 50.54
----------------------------------------------------------------
Training Start.. (Pre Process:False)
…
Epoch:   10  | Loss = 0.04271 | Val_loss: 0.04245 | Accuracy: 93.44 %
Training Done. 4.4114837646484375 (s)
Prediction..
Model Saved.
===================== Training Done. File: ABlists_1027_30000_31000_38000_44000.npy
Generate data from the file: 60_ABlists_1028_30000_31000_44000_50000
data_batch Changed:  5120
0, 1, 2, 3, 4, 5, 6, 7, 8, 9, Time consumed: 36.301904916763306 (s)
----------------------------------------------------------------
        Layer (type)               Output Shape         Param #
================================================================
            Linear-1              [-1, 1, 4096]       2,400,256
              ReLU-2              [-1, 1, 4096]               0
           Dropout-3              [-1, 1, 4096]               0
            Linear-4              [-1, 1, 2048]       8,390,656
              ReLU-5              [-1, 1, 2048]               0
           Dropout-6              [-1, 1, 2048]               0
            Linear-7              [-1, 1, 1024]       2,098,176
              ReLU-8              [-1, 1, 1024]               0
           Dropout-9              [-1, 1, 1024]               0
           Linear-10               [-1, 1, 512]         524,800
             ReLU-11               [-1, 1, 512]               0
          Dropout-12               [-1, 1, 512]               0
           Linear-13                [-1, 1, 10]           5,130
          Sigmoid-14                [-1, 1, 10]               0
================================================================
Total params: 13,419,018
Trainable params: 13,419,018
Non-trainable params: 0
----------------------------------------------------------------
Input size (MB): 0.00
Forward/backward pass size (MB): 0.18
Params size (MB): 51.19
Estimated Total Size (MB): 51.37
----------------------------------------------------------------
Training Start.. (Pre Process:False)
…
Epoch:   10  | Loss = 0.04460 | Val_loss: 0.04422 | Accuracy: 93.77 %
Training Done. 4.592511892318726 (s)
Prediction..
Model Saved.
===================== Training Done. File: ABlists_1028_30000_31000_44000_50000.npy
Generate data from the file: 62_ABlists_1029_30000_31000_50000_56000
data_batch Changed:  5120
0, 1, 2, 3, 4, 5, 6, 7, 8, 9, Time consumed: 39.78316116333008 (s)
----------------------------------------------------------------
        Layer (type)               Output Shape         Param #
================================================================
            Linear-1              [-1, 1, 4096]       2,658,304
              ReLU-2              [-1, 1, 4096]               0
           Dropout-3              [-1, 1, 4096]               0
            Linear-4              [-1, 1, 2048]       8,390,656
              ReLU-5              [-1, 1, 2048]               0
           Dropout-6              [-1, 1, 2048]               0
            Linear-7              [-1, 1, 1024]       2,098,176
              ReLU-8              [-1, 1, 1024]               0
           Dropout-9              [-1, 1, 1024]               0
           Linear-10               [-1, 1, 512]         524,800
             ReLU-11               [-1, 1, 512]               0
          Dropout-12               [-1, 1, 512]               0
           Linear-13                [-1, 1, 10]           5,130
          Sigmoid-14                [-1, 1, 10]               0
================================================================
Total params: 13,677,066
Trainable params: 13,677,066
Non-trainable params: 0
----------------------------------------------------------------
Input size (MB): 0.00
Forward/backward pass size (MB): 0.18
Params size (MB): 52.17
Estimated Total Size (MB): 52.35
----------------------------------------------------------------
Training Start.. (Pre Process:False)
…
Epoch:   10  | Loss = 0.04910 | Val_loss: 0.04973 | Accuracy: 93.04 %
Training Done. 4.520732879638672 (s)
Prediction..
Model Saved.
===================== Training Done. File: ABlists_1029_30000_31000_50000_56000.npy
Generate data from the file: 64_ABlists_102_-52000_-51000_64000_70000
data_batch Changed:  5120
0, 1, 2, 3, 4, 5, 6, 7, 8, 9, Time consumed: 76.58275032043457 (s)
----------------------------------------------------------------
        Layer (type)               Output Shape         Param #
================================================================
            Linear-1              [-1, 1, 4096]       5,132,288
              ReLU-2              [-1, 1, 4096]               0
           Dropout-3              [-1, 1, 4096]               0
            Linear-4              [-1, 1, 2048]       8,390,656
              ReLU-5              [-1, 1, 2048]               0
           Dropout-6              [-1, 1, 2048]               0
            Linear-7              [-1, 1, 1024]       2,098,176
              ReLU-8              [-1, 1, 1024]               0
           Dropout-9              [-1, 1, 1024]               0
           Linear-10               [-1, 1, 512]         524,800
             ReLU-11               [-1, 1, 512]               0
          Dropout-12               [-1, 1, 512]               0
           Linear-13                [-1, 1, 10]           5,130
          Sigmoid-14                [-1, 1, 10]               0
================================================================
Total params: 16,151,050
Trainable params: 16,151,050
Non-trainable params: 0
----------------------------------------------------------------
Input size (MB): 0.00
Forward/backward pass size (MB): 0.18
Params size (MB): 61.61
Estimated Total Size (MB): 61.79
----------------------------------------------------------------
Training Start.. (Pre Process:False)
…
Epoch:   21  | Loss = 0.03891 | Val_loss: 0.04206 | Accuracy: 92.46 %
Training Done. 16.15927743911743 (s)
Prediction..
Model Saved.
===================== Training Done. File: ABlists_102_-52000_-51000_64000_70000.npy
Generate data from the file: 66_ABlists_1030_30000_31000_56000_62000
data_batch Changed:  5120
0, 1, 2, 3, 4, 5, 6, 7, 8, 9, Time consumed: 40.343976736068726 (s)
----------------------------------------------------------------
        Layer (type)               Output Shape         Param #
================================================================
            Linear-1              [-1, 1, 4096]       3,059,712
              ReLU-2              [-1, 1, 4096]               0
           Dropout-3              [-1, 1, 4096]               0
            Linear-4              [-1, 1, 2048]       8,390,656
              ReLU-5              [-1, 1, 2048]               0
           Dropout-6              [-1, 1, 2048]               0
            Linear-7              [-1, 1, 1024]       2,098,176
              ReLU-8              [-1, 1, 1024]               0
           Dropout-9              [-1, 1, 1024]               0
           Linear-10               [-1, 1, 512]         524,800
             ReLU-11               [-1, 1, 512]               0
          Dropout-12               [-1, 1, 512]               0
           Linear-13                [-1, 1, 10]           5,130
          Sigmoid-14                [-1, 1, 10]               0
================================================================
Total params: 14,078,474
Trainable params: 14,078,474
Non-trainable params: 0
----------------------------------------------------------------
Input size (MB): 0.00
Forward/backward pass size (MB): 0.18
Params size (MB): 53.71
Estimated Total Size (MB): 53.88
----------------------------------------------------------------
Training Start.. (Pre Process:False)
…
Epoch:   11  | Loss = 0.04132 | Val_loss: 0.04431 | Accuracy: 93.43 %
Training Done. 5.226297855377197 (s)
Prediction..
Model Saved.
===================== Training Done. File: ABlists_1030_30000_31000_56000_62000.npy
Generate data from the file: 68_ABlists_1031_30000_31000_62000_68000
data_batch Changed:  5120
0, 1, 2, 3, 4, 5, 6, 7, 8, 9, Time consumed: 48.5523841381073 (s)
----------------------------------------------------------------
        Layer (type)               Output Shape         Param #
================================================================
            Linear-1              [-1, 1, 4096]       3,497,984
              ReLU-2              [-1, 1, 4096]               0
           Dropout-3              [-1, 1, 4096]               0
            Linear-4              [-1, 1, 2048]       8,390,656
              ReLU-5              [-1, 1, 2048]               0
           Dropout-6              [-1, 1, 2048]               0
            Linear-7              [-1, 1, 1024]       2,098,176
              ReLU-8              [-1, 1, 1024]               0
           Dropout-9              [-1, 1, 1024]               0
           Linear-10               [-1, 1, 512]         524,800
             ReLU-11               [-1, 1, 512]               0
          Dropout-12               [-1, 1, 512]               0
           Linear-13                [-1, 1, 10]           5,130
          Sigmoid-14                [-1, 1, 10]               0
================================================================
Total params: 14,516,746
Trainable params: 14,516,746
Non-trainable params: 0
----------------------------------------------------------------
Input size (MB): 0.00
Forward/backward pass size (MB): 0.18
Params size (MB): 55.38
Estimated Total Size (MB): 55.56
----------------------------------------------------------------
Training Start.. (Pre Process:False)
…
Epoch:   11  | Loss = 0.03442 | Val_loss: 0.03498 | Accuracy: 94.38 %
Training Done. 5.5046422481536865 (s)
Prediction..
Model Saved.
===================== Training Done. File: ABlists_1031_30000_31000_62000_68000.npy
Generate data from the file: 70_ABlists_1032_30000_31000_68000_6000
PRE_PRECESSING Changed: False --> True, power: 8
0, 1, 2, 3, 4, 5, 6, 7, 8, 9, Time consumed: 64.71752548217773 (s)
----------------------------------------------------------------
        Layer (type)               Output Shape         Param #
================================================================
            Linear-1              [-1, 1, 4096]       4,440,064
              ReLU-2              [-1, 1, 4096]               0
           Dropout-3              [-1, 1, 4096]               0
            Linear-4              [-1, 1, 2048]       8,390,656
              ReLU-5              [-1, 1, 2048]               0
           Dropout-6              [-1, 1, 2048]               0
            Linear-7              [-1, 1, 1024]       2,098,176
              ReLU-8              [-1, 1, 1024]               0
           Dropout-9              [-1, 1, 1024]               0
           Linear-10               [-1, 1, 512]         524,800
             ReLU-11               [-1, 1, 512]               0
          Dropout-12               [-1, 1, 512]               0
           Linear-13                [-1, 1, 10]           5,130
          Sigmoid-14                [-1, 1, 10]               0
================================================================
Total params: 15,458,826
Trainable params: 15,458,826
Non-trainable params: 0
----------------------------------------------------------------
Input size (MB): 0.00
Forward/backward pass size (MB): 0.18
Params size (MB): 58.97
Estimated Total Size (MB): 59.15
----------------------------------------------------------------
Training Start.. (Pre Process:True)
…
Epoch:   31  | Loss = 0.17392 | Val_loss: 0.20005 | Accuracy: 48.81 %
Training Done. 12.317181825637817 (s)
Prediction..
Model Saved.
===================== Training Done. File: ABlists_1033_31000_32000_6000_12000.npy
Generate data from the file: 74_ABlists_1034_31000_32000_12000_18000
PRE_PRECESSING Changed: False --> True, power: 8
0, 1, 2, 3, 4, 5, 6, 7, 8, 9, Time consumed: 23.78324317932129 (s)
----------------------------------------------------------------
        Layer (type)               Output Shape         Param #
================================================================
            Linear-1              [-1, 1, 4096]       1,564,672
              ReLU-2              [-1, 1, 4096]               0
           Dropout-3              [-1, 1, 4096]               0
            Linear-4              [-1, 1, 2048]       8,390,656
              ReLU-5              [-1, 1, 2048]               0
           Dropout-6              [-1, 1, 2048]               0
            Linear-7              [-1, 1, 1024]       2,098,176
              ReLU-8              [-1, 1, 1024]               0
           Dropout-9              [-1, 1, 1024]               0
           Linear-10               [-1, 1, 512]         524,800
             ReLU-11               [-1, 1, 512]               0
          Dropout-12               [-1, 1, 512]               0
           Linear-13                [-1, 1, 10]           5,130
          Sigmoid-14                [-1, 1, 10]               0
================================================================
Total params: 12,583,434
Trainable params: 12,583,434
Non-trainable params: 0
----------------------------------------------------------------
Input size (MB): 0.00
Forward/backward pass size (MB): 0.18
Params size (MB): 48.00
Estimated Total Size (MB): 48.18
----------------------------------------------------------------
Training Start.. (Pre Process:True)
…
Epoch:   29  | Loss = 0.11785 | Val_loss: 0.14707 | Accuracy: 65.92 %
Epoch:   30  | Loss = 0.11409 | Val_loss: 0.14161 | Accuracy: 66.85 %
Training Done. 12.612954139709473 (s)
Prediction..
Model Saved.
===================== Training Done. File: ABlists_1034_31000_32000_12000_18000.npy
Generate data from the file: 76_ABlists_1035_31000_32000_18000_24000
0, 1, 2, 3, 4, 5, 6, 7, 8, 9, Time consumed: 23.05703330039978 (s)
----------------------------------------------------------------
        Layer (type)               Output Shape         Param #
================================================================
            Linear-1              [-1, 1, 4096]       1,650,688
              ReLU-2              [-1, 1, 4096]               0
           Dropout-3              [-1, 1, 4096]               0
            Linear-4              [-1, 1, 2048]       8,390,656
              ReLU-5              [-1, 1, 2048]               0
           Dropout-6              [-1, 1, 2048]               0
            Linear-7              [-1, 1, 1024]       2,098,176
              ReLU-8              [-1, 1, 1024]               0
           Dropout-9              [-1, 1, 1024]               0
           Linear-10               [-1, 1, 512]         524,800
             ReLU-11               [-1, 1, 512]               0
          Dropout-12               [-1, 1, 512]               0
           Linear-13                [-1, 1, 10]           5,130
          Sigmoid-14                [-1, 1, 10]               0
================================================================
Total params: 12,669,450
Trainable params: 12,669,450
Non-trainable params: 0
----------------------------------------------------------------
Input size (MB): 0.00
Forward/backward pass size (MB): 0.18
Params size (MB): 48.33
Estimated Total Size (MB): 48.51
----------------------------------------------------------------
Training Start.. (Pre Process:False)
…
Epoch:   39  | Loss = 0.07537 | Val_loss: 0.11077 | Accuracy: 74.91 %
Training Done. 16.55213499069214 (s)
Prediction..
Model Saved.
===================== Training Done. File: ABlists_1035_31000_32000_18000_24000.npy
Generate data from the file: 78_ABlists_1036_31000_32000_24000_30000
data_batch Changed:  5120
0, 1, 2, 3, 4, 5, 6, 7, 8, 9, Time consumed: 23.59198784828186 (s)
----------------------------------------------------------------
        Layer (type)               Output Shape         Param #
================================================================
            Linear-1              [-1, 1, 4096]       1,732,608
              ReLU-2              [-1, 1, 4096]               0
           Dropout-3              [-1, 1, 4096]               0
            Linear-4              [-1, 1, 2048]       8,390,656
              ReLU-5              [-1, 1, 2048]               0
           Dropout-6              [-1, 1, 2048]               0
            Linear-7              [-1, 1, 1024]       2,098,176
              ReLU-8              [-1, 1, 1024]               0
           Dropout-9              [-1, 1, 1024]               0
           Linear-10               [-1, 1, 512]         524,800
             ReLU-11               [-1, 1, 512]               0
          Dropout-12               [-1, 1, 512]               0
           Linear-13                [-1, 1, 10]           5,130
          Sigmoid-14                [-1, 1, 10]               0
================================================================
Total params: 12,751,370
Trainable params: 12,751,370
Non-trainable params: 0
----------------------------------------------------------------
Input size (MB): 0.00
Forward/backward pass size (MB): 0.18
Params size (MB): 48.64
Estimated Total Size (MB): 48.82
----------------------------------------------------------------
Training Start.. (Pre Process:False)
…
Epoch:   25  | Loss = 0.12205 | Val_loss: 0.08811 | Accuracy: 82.62 %
Training Done. 10.770600318908691 (s)
Prediction..
Model Saved.
===================== Training Done. File: ABlists_1036_31000_32000_24000_30000.npy
Generate data from the file: 80_ABlists_1037_31000_32000_30000_36000
data_batch Changed:  5120
0, 1, 2, 3, 4, 5, 6, 7, 8, 9, Time consumed: 27.74443244934082 (s)
----------------------------------------------------------------
        Layer (type)               Output Shape         Param #
================================================================
            Linear-1              [-1, 1, 4096]       1,855,488
              ReLU-2              [-1, 1, 4096]               0
           Dropout-3              [-1, 1, 4096]               0
            Linear-4              [-1, 1, 2048]       8,390,656
              ReLU-5              [-1, 1, 2048]               0
           Dropout-6              [-1, 1, 2048]               0
            Linear-7              [-1, 1, 1024]       2,098,176
              ReLU-8              [-1, 1, 1024]               0
           Dropout-9              [-1, 1, 1024]               0
           Linear-10               [-1, 1, 512]         524,800
             ReLU-11               [-1, 1, 512]               0
          Dropout-12               [-1, 1, 512]               0
           Linear-13                [-1, 1, 10]           5,130
          Sigmoid-14                [-1, 1, 10]               0
================================================================
Total params: 12,874,250
Trainable params: 12,874,250
Non-trainable params: 0
----------------------------------------------------------------
Input size (MB): 0.00
Forward/backward pass size (MB): 0.18
Params size (MB): 49.11
Estimated Total Size (MB): 49.29
----------------------------------------------------------------
Training Start.. (Pre Process:False)
…
Epoch:   13  | Loss = 0.04169 | Val_loss: 0.04334 | Accuracy: 92.19 %
Training Done. 5.587505340576172 (s)
Prediction..
Model Saved.
===================== Training Done. File: ABlists_1037_31000_32000_30000_36000.npy
Generate data from the file: 82_ABlists_1038_31000_32000_36000_42000
data_batch Changed:  5120
0, 1, 2, 3, 4, 5, 6, 7, 8, 9, Time consumed: 32.544716119766235 (s)
----------------------------------------------------------------
        Layer (type)               Output Shape         Param #
================================================================
            Linear-1              [-1, 1, 4096]       2,121,728
              ReLU-2              [-1, 1, 4096]               0
           Dropout-3              [-1, 1, 4096]               0
            Linear-4              [-1, 1, 2048]       8,390,656
              ReLU-5              [-1, 1, 2048]               0
           Dropout-6              [-1, 1, 2048]               0
            Linear-7              [-1, 1, 1024]       2,098,176
              ReLU-8              [-1, 1, 1024]               0
           Dropout-9              [-1, 1, 1024]               0
           Linear-10               [-1, 1, 512]         524,800
             ReLU-11               [-1, 1, 512]               0
          Dropout-12               [-1, 1, 512]               0
           Linear-13                [-1, 1, 10]           5,130
          Sigmoid-14                [-1, 1, 10]               0
================================================================
Total params: 13,140,490
Trainable params: 13,140,490
Non-trainable params: 0
----------------------------------------------------------------
Input size (MB): 0.00
Forward/backward pass size (MB): 0.18
Params size (MB): 50.13
Estimated Total Size (MB): 50.30
----------------------------------------------------------------
Training Start.. (Pre Process:False)
…
Epoch:   11  | Loss = 0.04425 | Val_loss: 0.04232 | Accuracy: 93.19 %
Training Done. 4.8691205978393555 (s)
Prediction..
Model Saved.
===================== Training Done. File: ABlists_1038_31000_32000_36000_42000.npy
Generate data from the file: 84_ABlists_1039_31000_32000_42000_48000
data_batch Changed:  5120
0, 1, 2, 3, 4, 5, 6, 7, 8, 9, Time consumed: 33.40680694580078 (s)
----------------------------------------------------------------
        Layer (type)               Output Shape         Param #
================================================================
            Linear-1              [-1, 1, 4096]       2,248,704
              ReLU-2              [-1, 1, 4096]               0
           Dropout-3              [-1, 1, 4096]               0
            Linear-4              [-1, 1, 2048]       8,390,656
              ReLU-5              [-1, 1, 2048]               0
           Dropout-6              [-1, 1, 2048]               0
            Linear-7              [-1, 1, 1024]       2,098,176
              ReLU-8              [-1, 1, 1024]               0
           Dropout-9              [-1, 1, 1024]               0
           Linear-10               [-1, 1, 512]         524,800
             ReLU-11               [-1, 1, 512]               0
          Dropout-12               [-1, 1, 512]               0
           Linear-13                [-1, 1, 10]           5,130
          Sigmoid-14                [-1, 1, 10]               0
================================================================
Total params: 13,267,466
Trainable params: 13,267,466
Non-trainable params: 0
----------------------------------------------------------------
Input size (MB): 0.00
Forward/backward pass size (MB): 0.18
Params size (MB): 50.61
Estimated Total Size (MB): 50.79
----------------------------------------------------------------
Training Start.. (Pre Process:False)
…
Epoch:    9  | Loss = 0.04969 | Val_loss: 0.04460 | Accuracy: 93.25 %
Training Done. 4.041835308074951 (s)
Prediction..
Model Saved.
===================== Training Done. File: ABlists_1039_31000_32000_42000_48000.npy
Generate data from the file: 86_ABlists_103_-51000_-50000_2000_8000
PRE_PRECESSING Changed: False --> True, power: 8
0, 1, 2, 3, 4, 5, 6, 7, 8, 9, Time consumed: 21.73064923286438 (s)
----------------------------------------------------------------
        Layer (type)               Output Shape         Param #
================================================================
            Linear-1              [-1, 1, 4096]       1,458,176
              ReLU-2              [-1, 1, 4096]               0
           Dropout-3              [-1, 1, 4096]               0
            Linear-4              [-1, 1, 2048]       8,390,656
              ReLU-5              [-1, 1, 2048]               0
           Dropout-6              [-1, 1, 2048]               0
            Linear-7              [-1, 1, 1024]       2,098,176
              ReLU-8              [-1, 1, 1024]               0
           Dropout-9              [-1, 1, 1024]               0
           Linear-10               [-1, 1, 512]         524,800
             ReLU-11               [-1, 1, 512]               0
          Dropout-12               [-1, 1, 512]               0
           Linear-13                [-1, 1, 10]           5,130
          Sigmoid-14                [-1, 1, 10]               0
================================================================
Total params: 12,476,938
Trainable params: 12,476,938
Non-trainable params: 0
----------------------------------------------------------------
Input size (MB): 0.00
Forward/backward pass size (MB): 0.18
Params size (MB): 47.60
Estimated Total Size (MB): 47.77
----------------------------------------------------------------
Training Start.. (Pre Process:True)
…
Epoch:   28  | Loss = 0.22837 | Val_loss: 0.25280 | Accuracy: 33.14 %
Training Done. 11.36947226524353 (s)
Prediction..
Model Saved.
===================== Training Done. File: ABlists_103_-51000_-50000_2000_8000.npy
Generate data from the file: 88_ABlists_1040_31000_32000_48000_54000
data_batch Changed:  5120
0, 1, 2, 3, 4, 5, 6, 7, 8, 9, Time consumed: 39.360069274902344 (s)
----------------------------------------------------------------
        Layer (type)               Output Shape         Param #
================================================================
            Linear-1              [-1, 1, 4096]       2,514,944
              ReLU-2              [-1, 1, 4096]               0
           Dropout-3              [-1, 1, 4096]               0
            Linear-4              [-1, 1, 2048]       8,390,656
              ReLU-5              [-1, 1, 2048]               0
           Dropout-6              [-1, 1, 2048]               0
            Linear-7              [-1, 1, 1024]       2,098,176
              ReLU-8              [-1, 1, 1024]               0
           Dropout-9              [-1, 1, 1024]               0
           Linear-10               [-1, 1, 512]         524,800
             ReLU-11               [-1, 1, 512]               0
          Dropout-12               [-1, 1, 512]               0
           Linear-13                [-1, 1, 10]           5,130
          Sigmoid-14                [-1, 1, 10]               0
================================================================
Total params: 13,533,706
Trainable params: 13,533,706
Non-trainable params: 0
----------------------------------------------------------------
Input size (MB): 0.00
Forward/backward pass size (MB): 0.18
Params size (MB): 51.63
Estimated Total Size (MB): 51.81
----------------------------------------------------------------
Training Start.. (Pre Process:False)
…
Epoch:   10  | Loss = 0.04383 | Val_loss: 0.04376 | Accuracy: 93.32 %
Training Done. 4.569653511047363 (s)
Prediction..
Model Saved.
===================== Training Done. File: ABlists_1040_31000_32000_48000_54000.npy
Generate data from the file: 90_ABlists_1041_31000_32000_54000_60000
data_batch Changed:  5120
0, 1, 2, 3, 4, 5, 6, 7, 8, 9, Time consumed: 38.59935784339905 (s)
----------------------------------------------------------------
        Layer (type)               Output Shape         Param #
================================================================
            Linear-1              [-1, 1, 4096]       2,899,968
              ReLU-2              [-1, 1, 4096]               0
           Dropout-3              [-1, 1, 4096]               0
            Linear-4              [-1, 1, 2048]       8,390,656
              ReLU-5              [-1, 1, 2048]               0
           Dropout-6              [-1, 1, 2048]               0
            Linear-7              [-1, 1, 1024]       2,098,176
              ReLU-8              [-1, 1, 1024]               0
           Dropout-9              [-1, 1, 1024]               0
           Linear-10               [-1, 1, 512]         524,800
             ReLU-11               [-1, 1, 512]               0
          Dropout-12               [-1, 1, 512]               0
           Linear-13                [-1, 1, 10]           5,130
          Sigmoid-14                [-1, 1, 10]               0
================================================================
Total params: 13,918,730
Trainable params: 13,918,730
Non-trainable params: 0
----------------------------------------------------------------
Input size (MB): 0.00
Forward/backward pass size (MB): 0.18
Params size (MB): 53.10
Estimated Total Size (MB): 53.27
----------------------------------------------------------------
Training Start.. (Pre Process:False)
…
Epoch:   10  | Loss = 0.04613 | Val_loss: 0.04519 | Accuracy: 93.00 %
Training Done. 4.7347800731658936 (s)
Prediction..
Model Saved.
===================== Training Done. File: ABlists_1041_31000_32000_54000_60000.npy
Generate data from the file: 92_ABlists_1042_31000_32000_60000_66000
data_batch Changed:  5120
0, 1, 2, 3, 4, 5, 6, 7, 8, 9, Time consumed: 50.147802114486694 (s)
----------------------------------------------------------------
        Layer (type)               Output Shape         Param #
================================================================
            Linear-1              [-1, 1, 4096]       3,317,760
              ReLU-2              [-1, 1, 4096]               0
           Dropout-3              [-1, 1, 4096]               0
            Linear-4              [-1, 1, 2048]       8,390,656
              ReLU-5              [-1, 1, 2048]               0
           Dropout-6              [-1, 1, 2048]               0
            Linear-7              [-1, 1, 1024]       2,098,176
              ReLU-8              [-1, 1, 1024]               0
           Dropout-9              [-1, 1, 1024]               0
           Linear-10               [-1, 1, 512]         524,800
             ReLU-11               [-1, 1, 512]               0
          Dropout-12               [-1, 1, 512]               0
           Linear-13                [-1, 1, 10]           5,130
          Sigmoid-14                [-1, 1, 10]               0
================================================================
Total params: 14,336,522
Trainable params: 14,336,522
Non-trainable params: 0
----------------------------------------------------------------
Input size (MB): 0.00
Forward/backward pass size (MB): 0.18
Params size (MB): 54.69
Estimated Total Size (MB): 54.87
----------------------------------------------------------------
Training Start.. (Pre Process:False)
…
Epoch:    8  | Loss = 0.06820 | Val_loss: 0.05940 | Accuracy: 89.95 %
Epoch:    9  | Loss = 0.04991 | Val_loss: 0.04672 | Accuracy: 92.73 %
Training Done. 4.442070722579956 (s)
Prediction..
Model Saved.
===================== Training Done. File: ABlists_1042_31000_32000_60000_66000.npy
Generate data from the file: 94_ABlists_1043_31000_32000_66000_4000
0, 1, 2, 3, 4, 5, 6, 7, 8, 9, Time consumed: 66.69311285018921 (s)
----------------------------------------------------------------
        Layer (type)               Output Shape         Param #
================================================================
            Linear-1              [-1, 1, 4096]       4,812,800
              ReLU-2              [-1, 1, 4096]               0
           Dropout-3              [-1, 1, 4096]               0
            Linear-4              [-1, 1, 2048]       8,390,656
              ReLU-5              [-1, 1, 2048]               0
           Dropout-6              [-1, 1, 2048]               0
            Linear-7              [-1, 1, 1024]       2,098,176
              ReLU-8              [-1, 1, 1024]               0
           Dropout-9              [-1, 1, 1024]               0
           Linear-10               [-1, 1, 512]         524,800
             ReLU-11               [-1, 1, 512]               0
          Dropout-12               [-1, 1, 512]               0
           Linear-13                [-1, 1, 10]           5,130
          Sigmoid-14                [-1, 1, 10]               0
================================================================
Total params: 15,831,562
Trainable params: 15,831,562
Non-trainable params: 0
----------------------------------------------------------------
Input size (MB): 0.00
Forward/backward pass size (MB): 0.18
Params size (MB): 60.39
Estimated Total Size (MB): 60.57
----------------------------------------------------------------
Training Start.. (Pre Process:False)
…
Epoch:   37  | Loss = 0.10703 | Val_loss: 0.15455 | Accuracy: 64.68 %
Epoch:   38  | Loss = 0.10183 | Val_loss: 0.15197 | Accuracy: 65.40 %
Training Done. 15.70496654510498 (s)
Prediction..
Model Saved.
===================== Training Done. File: ABlists_1045_32000_33000_10000_16000.npy
Generate data from the file: 100_ABlists_1046_32000_33000_16000_22000
0, 1, 2, 3, 4, 5, 6, 7, 8, 9, Time consumed: 23.962671518325806 (s)
----------------------------------------------------------------
        Layer (type)               Output Shape         Param #
================================================================
            Linear-1              [-1, 1, 4096]       1,638,400
              ReLU-2              [-1, 1, 4096]               0
           Dropout-3              [-1, 1, 4096]               0
            Linear-4              [-1, 1, 2048]       8,390,656
              ReLU-5              [-1, 1, 2048]               0
           Dropout-6              [-1, 1, 2048]               0
            Linear-7              [-1, 1, 1024]       2,098,176
              ReLU-8              [-1, 1, 1024]               0
           Dropout-9              [-1, 1, 1024]               0
           Linear-10               [-1, 1, 512]         524,800
             ReLU-11               [-1, 1, 512]               0
          Dropout-12               [-1, 1, 512]               0
           Linear-13                [-1, 1, 10]           5,130
          Sigmoid-14                [-1, 1, 10]               0
================================================================
Total params: 12,657,162
Trainable params: 12,657,162
Non-trainable params: 0
----------------------------------------------------------------
Input size (MB): 0.00
Forward/backward pass size (MB): 0.18
Params size (MB): 48.28
Estimated Total Size (MB): 48.46
----------------------------------------------------------------
Training Start.. (Pre Process:False)
…
Epoch:   35  | Loss = 0.13146 | Val_loss: 0.16403 | Accuracy: 60.34 %
Training Done. 14.52094316482544 (s)
Prediction..
Model Saved.
===================== Training Done. File: ABlists_1046_32000_33000_16000_22000.npy
Generate data from the file: 102_ABlists_1047_32000_33000_22000_28000
data_batch Changed:  5120
0, 1, 2, 3, 4, 5, 6, 7, 8, 9, Time consumed: 25.48691987991333 (s)
----------------------------------------------------------------
        Layer (type)               Output Shape         Param #
================================================================
            Linear-1              [-1, 1, 4096]       1,675,264
              ReLU-2              [-1, 1, 4096]               0
           Dropout-3              [-1, 1, 4096]               0
            Linear-4              [-1, 1, 2048]       8,390,656
              ReLU-5              [-1, 1, 2048]               0
           Dropout-6              [-1, 1, 2048]               0
            Linear-7              [-1, 1, 1024]       2,098,176
              ReLU-8              [-1, 1, 1024]               0
           Dropout-9              [-1, 1, 1024]               0
           Linear-10               [-1, 1, 512]         524,800
             ReLU-11               [-1, 1, 512]               0
          Dropout-12               [-1, 1, 512]               0
           Linear-13                [-1, 1, 10]           5,130
          Sigmoid-14                [-1, 1, 10]               0
================================================================
Total params: 12,694,026
Trainable params: 12,694,026
Non-trainable params: 0
----------------------------------------------------------------
Input size (MB): 0.00
Forward/backward pass size (MB): 0.18
Params size (MB): 48.42
Estimated Total Size (MB): 48.60
----------------------------------------------------------------
Training Start.. (Pre Process:False)
…
Epoch:   33  | Loss = 0.23670 | Val_loss: 0.15787 | Accuracy: 66.95 %
Training Done. 13.57666802406311 (s)
Prediction..
Model Saved.
===================== Training Done. File: ABlists_1047_32000_33000_22000_28000.npy
Generate data from the file: 104_ABlists_1048_32000_33000_28000_34000
data_batch Changed:  5120
0, 1, 2, 3, 4, 5, 6, 7, 8, 9, Time consumed: 25.658666849136353 (s)
----------------------------------------------------------------
        Layer (type)               Output Shape         Param #
================================================================
            Linear-1              [-1, 1, 4096]       1,794,048
              ReLU-2              [-1, 1, 4096]               0
           Dropout-3              [-1, 1, 4096]               0
            Linear-4              [-1, 1, 2048]       8,390,656
              ReLU-5              [-1, 1, 2048]               0
           Dropout-6              [-1, 1, 2048]               0
            Linear-7              [-1, 1, 1024]       2,098,176
              ReLU-8              [-1, 1, 1024]               0
           Dropout-9              [-1, 1, 1024]               0
           Linear-10               [-1, 1, 512]         524,800
             ReLU-11               [-1, 1, 512]               0
          Dropout-12               [-1, 1, 512]               0
           Linear-13                [-1, 1, 10]           5,130
          Sigmoid-14                [-1, 1, 10]               0
================================================================
Total params: 12,812,810
Trainable params: 12,812,810
Non-trainable params: 0
----------------------------------------------------------------
Input size (MB): 0.00
Forward/backward pass size (MB): 0.18
Params size (MB): 48.88
Estimated Total Size (MB): 49.05
----------------------------------------------------------------
Training Start.. (Pre Process:False)
…
Epoch:   17  | Loss = 0.03078 | Val_loss: 0.03858 | Accuracy: 92.77 %
Training Done. 7.391188859939575 (s)
Prediction..
Model Saved.
===================== Training Done. File: ABlists_1048_32000_33000_28000_34000.npy
Generate data from the file: 106_ABlists_1049_32000_33000_34000_40000
data_batch Changed:  5120
0, 1, 2, 3, 4, 5, 6, 7, 8, 9, Time consumed: 30.459041357040405 (s)
----------------------------------------------------------------
        Layer (type)               Output Shape         Param #
================================================================
            Linear-1              [-1, 1, 4096]       2,043,904
              ReLU-2              [-1, 1, 4096]               0
           Dropout-3              [-1, 1, 4096]               0
            Linear-4              [-1, 1, 2048]       8,390,656
              ReLU-5              [-1, 1, 2048]               0
           Dropout-6              [-1, 1, 2048]               0
            Linear-7              [-1, 1, 1024]       2,098,176
              ReLU-8              [-1, 1, 1024]               0
           Dropout-9              [-1, 1, 1024]               0
           Linear-10               [-1, 1, 512]         524,800
             ReLU-11               [-1, 1, 512]               0
          Dropout-12               [-1, 1, 512]               0
           Linear-13                [-1, 1, 10]           5,130
          Sigmoid-14                [-1, 1, 10]               0
================================================================
Total params: 13,062,666
Trainable params: 13,062,666
Non-trainable params: 0
----------------------------------------------------------------
Input size (MB): 0.00
Forward/backward pass size (MB): 0.18
Params size (MB): 49.83
Estimated Total Size (MB): 50.01
----------------------------------------------------------------
Training Start.. (Pre Process:False)
…
Epoch:   34  | Loss = 0.10782 | Val_loss: 0.16223 | Accuracy: 64.47 %
Training Done. 14.172004699707031 (s)
Prediction..
Model Saved.
===================== Training Done. File: ABlists_104_-51000_-50000_8000_14000.npy
Generate data from the file: 110_ABlists_1050_32000_33000_40000_46000
data_batch Changed:  5120
0, 1, 2, 3, 4, 5, 6, 7, 8, 9, Time consumed: 32.390342235565186 (s)
----------------------------------------------------------------
        Layer (type)               Output Shape         Param #
================================================================
            Linear-1              [-1, 1, 4096]       2,199,552
              ReLU-2              [-1, 1, 4096]               0
           Dropout-3              [-1, 1, 4096]               0
            Linear-4              [-1, 1, 2048]       8,390,656
              ReLU-5              [-1, 1, 2048]               0
           Dropout-6              [-1, 1, 2048]               0
            Linear-7              [-1, 1, 1024]       2,098,176
              ReLU-8              [-1, 1, 1024]               0
           Dropout-9              [-1, 1, 1024]               0
           Linear-10               [-1, 1, 512]         524,800
             ReLU-11               [-1, 1, 512]               0
          Dropout-12               [-1, 1, 512]               0
           Linear-13                [-1, 1, 10]           5,130
          Sigmoid-14                [-1, 1, 10]               0
================================================================
Total params: 13,218,314
Trainable params: 13,218,314
Non-trainable params: 0
----------------------------------------------------------------
Input size (MB): 0.00
Forward/backward pass size (MB): 0.18
Params size (MB): 50.42
Estimated Total Size (MB): 50.60
----------------------------------------------------------------
Training Start.. (Pre Process:False)
…
Epoch:    9  | Loss = 0.05050 | Val_loss: 0.04476 | Accuracy: 93.43 %
Training Done. 3.9389562606811523 (s)
Prediction..
Model Saved.
===================== Training Done. File: ABlists_1050_32000_33000_40000_46000.npy
Generate data from the file: 112_ABlists_1051_32000_33000_46000_52000
data_batch Changed:  5120
0, 1, 2, 3, 4, 5, 6, 7, 8, 9, Time consumed: 33.66175627708435 (s)
----------------------------------------------------------------
        Layer (type)               Output Shape         Param #
================================================================
            Linear-1              [-1, 1, 4096]       2,469,888
              ReLU-2              [-1, 1, 4096]               0
           Dropout-3              [-1, 1, 4096]               0
            Linear-4              [-1, 1, 2048]       8,390,656
              ReLU-5              [-1, 1, 2048]               0
           Dropout-6              [-1, 1, 2048]               0
            Linear-7              [-1, 1, 1024]       2,098,176
              ReLU-8              [-1, 1, 1024]               0
           Dropout-9              [-1, 1, 1024]               0
           Linear-10               [-1, 1, 512]         524,800
             ReLU-11               [-1, 1, 512]               0
          Dropout-12               [-1, 1, 512]               0
           Linear-13                [-1, 1, 10]           5,130
          Sigmoid-14                [-1, 1, 10]               0
================================================================
Total params: 13,488,650
Trainable params: 13,488,650
Non-trainable params: 0
----------------------------------------------------------------
Input size (MB): 0.00
Forward/backward pass size (MB): 0.18
Params size (MB): 51.46
Estimated Total Size (MB): 51.63
----------------------------------------------------------------
Training Start.. (Pre Process:False)
…
Epoch:    9  | Loss = 0.05441 | Val_loss: 0.04853 | Accuracy: 92.84 %
Training Done. 4.103935956954956 (s)
Prediction..
Model Saved.
===================== Training Done. File: ABlists_1051_32000_33000_46000_52000.npy
Generate data from the file: 114_ABlists_1052_32000_33000_52000_58000
data_batch Changed:  5120
0, 1, 2, 3, 4, 5, 6, 7, 8, 9, Time consumed: 40.12232685089111 (s)
----------------------------------------------------------------
        Layer (type)               Output Shape         Param #
================================================================
            Linear-1              [-1, 1, 4096]       2,756,608
              ReLU-2              [-1, 1, 4096]               0
           Dropout-3              [-1, 1, 4096]               0
            Linear-4              [-1, 1, 2048]       8,390,656
              ReLU-5              [-1, 1, 2048]               0
           Dropout-6              [-1, 1, 2048]               0
            Linear-7              [-1, 1, 1024]       2,098,176
              ReLU-8              [-1, 1, 1024]               0
           Dropout-9              [-1, 1, 1024]               0
           Linear-10               [-1, 1, 512]         524,800
             ReLU-11               [-1, 1, 512]               0
          Dropout-12               [-1, 1, 512]               0
           Linear-13                [-1, 1, 10]           5,130
          Sigmoid-14                [-1, 1, 10]               0
================================================================
Total params: 13,775,370
Trainable params: 13,775,370
Non-trainable params: 0
----------------------------------------------------------------
Input size (MB): 0.00
Forward/backward pass size (MB): 0.18
Params size (MB): 52.55
Estimated Total Size (MB): 52.73
----------------------------------------------------------------
Training Start.. (Pre Process:False)
…
Epoch:    9  | Loss = 0.05057 | Val_loss: 0.04777 | Accuracy: 92.40 %
Training Done. 4.08205246925354 (s)
Prediction..
Model Saved.
===================== Training Done. File: ABlists_1052_32000_33000_52000_58000.npy
Generate data from the file: 116_ABlists_1053_32000_33000_58000_64000
data_batch Changed:  5120
0, 1, 2, 3, 4, 5, 6, 7, 8, 9, Time consumed: 49.73456263542175 (s)
----------------------------------------------------------------
        Layer (type)               Output Shape         Param #
================================================================
            Linear-1              [-1, 1, 4096]       3,207,168
              ReLU-2              [-1, 1, 4096]               0
           Dropout-3              [-1, 1, 4096]               0
            Linear-4              [-1, 1, 2048]       8,390,656
              ReLU-5              [-1, 1, 2048]               0
           Dropout-6              [-1, 1, 2048]               0
            Linear-7              [-1, 1, 1024]       2,098,176
              ReLU-8              [-1, 1, 1024]               0
           Dropout-9              [-1, 1, 1024]               0
           Linear-10               [-1, 1, 512]         524,800
             ReLU-11               [-1, 1, 512]               0
          Dropout-12               [-1, 1, 512]               0
           Linear-13                [-1, 1, 10]           5,130
          Sigmoid-14                [-1, 1, 10]               0
================================================================
Total params: 14,225,930
Trainable params: 14,225,930
Non-trainable params: 0
----------------------------------------------------------------
Input size (MB): 0.00
Forward/backward pass size (MB): 0.18
Params size (MB): 54.27
Estimated Total Size (MB): 54.45
----------------------------------------------------------------
Training Start.. (Pre Process:False)
…
Epoch:    9  | Loss = 0.05355 | Val_loss: 0.04915 | Accuracy: 92.70 %
Training Done. 4.317116975784302 (s)
Prediction..
Model Saved.
===================== Training Done. File: ABlists_1053_32000_33000_58000_64000.npy
Generate data from the file: 118_ABlists_1054_32000_33000_64000_70000
data_batch Changed:  5120
0, 1, 2, 3, 4, 5, 6, 7, 8, 9, Time consumed: 61.43082046508789 (s)
----------------------------------------------------------------
        Layer (type)               Output Shape         Param #
================================================================
            Linear-1              [-1, 1, 4096]       3,837,952
              ReLU-2              [-1, 1, 4096]               0
           Dropout-3              [-1, 1, 4096]               0
            Linear-4              [-1, 1, 2048]       8,390,656
              ReLU-5              [-1, 1, 2048]               0
           Dropout-6              [-1, 1, 2048]               0
            Linear-7              [-1, 1, 1024]       2,098,176
              ReLU-8              [-1, 1, 1024]               0
           Dropout-9              [-1, 1, 1024]               0
           Linear-10               [-1, 1, 512]         524,800
             ReLU-11               [-1, 1, 512]               0
          Dropout-12               [-1, 1, 512]               0
           Linear-13                [-1, 1, 10]           5,130
          Sigmoid-14                [-1, 1, 10]               0
================================================================
Total params: 14,856,714
Trainable params: 14,856,714
Non-trainable params: 0
----------------------------------------------------------------
Input size (MB): 0.00
Forward/backward pass size (MB): 0.18
Params size (MB): 56.67
Estimated Total Size (MB): 56.85
----------------------------------------------------------------
Training Start.. (Pre Process:False)
…
Epoch:   11  | Loss = 0.04510 | Val_loss: 0.04429 | Accuracy: 92.28 %
Training Done. 5.549744129180908 (s)
Prediction..
Model Saved.
===================== Training Done. File: ABlists_1054_32000_33000_64000_70000.npy
Generate data from the file: 120_ABlists_1055_33000_34000_2000_8000
PRE_PRECESSING Changed: False --> True, power: 8
0, 1, 2, 3, 4, 5, 6, 7, 8, 9, Time consumed: 18.284503698349 (s)
----------------------------------------------------------------
        Layer (type)               Output Shape         Param #
================================================================
            Linear-1              [-1, 1, 4096]       1,503,232
              ReLU-2              [-1, 1, 4096]               0
           Dropout-3              [-1, 1, 4096]               0
            Linear-4              [-1, 1, 2048]       8,390,656
              ReLU-5              [-1, 1, 2048]               0
           Dropout-6              [-1, 1, 2048]               0
            Linear-7              [-1, 1, 1024]       2,098,176
              ReLU-8              [-1, 1, 1024]               0
           Dropout-9              [-1, 1, 1024]               0
           Linear-10               [-1, 1, 512]         524,800
             ReLU-11               [-1, 1, 512]               0
          Dropout-12               [-1, 1, 512]               0
           Linear-13                [-1, 1, 10]           5,130
          Sigmoid-14                [-1, 1, 10]               0
================================================================
Total params: 12,521,994
Trainable params: 12,521,994
Non-trainable params: 0
----------------------------------------------------------------
Input size (MB): 0.00
Forward/backward pass size (MB): 0.18
Params size (MB): 47.77
Estimated Total Size (MB): 47.94
----------------------------------------------------------------
Training Start.. (Pre Process:True)
…
Epoch:   31  | Loss = 0.23043 | Val_loss: 0.28242 | Accuracy: 29.02 %
Training Done. 12.543784856796265 (s)
Prediction..
Model Saved.
===================== Training Done. File: ABlists_1055_33000_34000_2000_8000.npy
Generate data from the file: 122_ABlists_1056_33000_34000_8000_14000
PRE_PRECESSING Changed: False --> True, power: 8
0, 1, 2, 3, 4, 5, 6, 7, 8, 9, Time consumed: 23.446768522262573 (s)
----------------------------------------------------------------
        Layer (type)               Output Shape         Param #
================================================================
            Linear-1              [-1, 1, 4096]       1,560,576
              ReLU-2              [-1, 1, 4096]               0
           Dropout-3              [-1, 1, 4096]               0
            Linear-4              [-1, 1, 2048]       8,390,656
              ReLU-5              [-1, 1, 2048]               0
           Dropout-6              [-1, 1, 2048]               0
            Linear-7              [-1, 1, 1024]       2,098,176
              ReLU-8              [-1, 1, 1024]               0
           Dropout-9              [-1, 1, 1024]               0
           Linear-10               [-1, 1, 512]         524,800
             ReLU-11               [-1, 1, 512]               0
          Dropout-12               [-1, 1, 512]               0
           Linear-13                [-1, 1, 10]           5,130
          Sigmoid-14                [-1, 1, 10]               0
================================================================
Total params: 12,579,338
Trainable params: 12,579,338
Non-trainable params: 0
----------------------------------------------------------------
Input size (MB): 0.00
Forward/backward pass size (MB): 0.18
Params size (MB): 47.99
Estimated Total Size (MB): 48.16
----------------------------------------------------------------
Training Start.. (Pre Process:True)
…
Epoch:   27  | Loss = 0.16847 | Val_loss: 0.18426 | Accuracy: 53.21 %
Epoch:   28  | Loss = 0.15728 | Val_loss: 0.18078 | Accuracy: 54.40 %
Training Done. 11.382146120071411 (s)
Prediction..
Model Saved.
===================== Training Done. File: ABlists_1056_33000_34000_8000_14000.npy
Generate data from the file: 124_ABlists_1057_33000_34000_14000_20000
0, 1, 2, 3, 4, 5, 6, 7, 8, 9, Time consumed: 23.23031973838806 (s)
----------------------------------------------------------------
        Layer (type)               Output Shape         Param #
================================================================
            Linear-1              [-1, 1, 4096]       1,609,728
              ReLU-2              [-1, 1, 4096]               0
           Dropout-3              [-1, 1, 4096]               0
            Linear-4              [-1, 1, 2048]       8,390,656
              ReLU-5              [-1, 1, 2048]               0
           Dropout-6              [-1, 1, 2048]               0
            Linear-7              [-1, 1, 1024]       2,098,176
              ReLU-8              [-1, 1, 1024]               0
           Dropout-9              [-1, 1, 1024]               0
           Linear-10               [-1, 1, 512]         524,800
             ReLU-11               [-1, 1, 512]               0
          Dropout-12               [-1, 1, 512]               0
           Linear-13                [-1, 1, 10]           5,130
          Sigmoid-14                [-1, 1, 10]               0
================================================================
Total params: 12,628,490
Trainable params: 12,628,490
Non-trainable params: 0
----------------------------------------------------------------
Input size (MB): 0.00
Forward/backward pass size (MB): 0.18
Params size (MB): 48.17
Estimated Total Size (MB): 48.35
----------------------------------------------------------------
Training Start.. (Pre Process:False)
…
Epoch:   28  | Loss = 0.16284 | Val_loss: 0.22703 | Accuracy: 43.70 %
Training Done. 11.3465416431427 (s)
Prediction..
Model Saved.
===================== Training Done. File: ABlists_1057_33000_34000_14000_20000.npy
Generate data from the file: 126_ABlists_1058_33000_34000_20000_26000
data_batch Changed:  5120
0, 1, 2, 3, 4, 5, 6, 7, 8, 9, Time consumed: 23.30523371696472 (s)
----------------------------------------------------------------
        Layer (type)               Output Shape         Param #
================================================================
            Linear-1              [-1, 1, 4096]       1,708,032
              ReLU-2              [-1, 1, 4096]               0
           Dropout-3              [-1, 1, 4096]               0
            Linear-4              [-1, 1, 2048]       8,390,656
              ReLU-5              [-1, 1, 2048]               0
           Dropout-6              [-1, 1, 2048]               0
            Linear-7              [-1, 1, 1024]       2,098,176
              ReLU-8              [-1, 1, 1024]               0
           Dropout-9              [-1, 1, 1024]               0
           Linear-10               [-1, 1, 512]         524,800
             ReLU-11               [-1, 1, 512]               0
          Dropout-12               [-1, 1, 512]               0
           Linear-13                [-1, 1, 10]           5,130
          Sigmoid-14                [-1, 1, 10]               0
================================================================
Total params: 12,726,794
Trainable params: 12,726,794
Non-trainable params: 0
----------------------------------------------------------------
Input size (MB): 0.00
Forward/backward pass size (MB): 0.18
Params size (MB): 48.55
Estimated Total Size (MB): 48.73
----------------------------------------------------------------
Training Start.. (Pre Process:False)
…
Epoch:   38  | Loss = 0.06059 | Val_loss: 0.11267 | Accuracy: 76.31 %
Training Done. 16.114902019500732 (s)
Prediction..
Model Saved.
===================== Training Done. File: ABlists_105_-51000_-50000_14000_20000.npy
Generate data from the file: 132_ABlists_1060_33000_34000_32000_38000
data_batch Changed:  5120
0, 1, 2, 3, 4, 5, 6, 7, 8, 9, Time consumed: 27.91992449760437 (s)
----------------------------------------------------------------
        Layer (type)               Output Shape         Param #
================================================================
            Linear-1              [-1, 1, 4096]       1,916,928
              ReLU-2              [-1, 1, 4096]               0
           Dropout-3              [-1, 1, 4096]               0
            Linear-4              [-1, 1, 2048]       8,390,656
              ReLU-5              [-1, 1, 2048]               0
           Dropout-6              [-1, 1, 2048]               0
            Linear-7              [-1, 1, 1024]       2,098,176
              ReLU-8              [-1, 1, 1024]               0
           Dropout-9              [-1, 1, 1024]               0
           Linear-10               [-1, 1, 512]         524,800
             ReLU-11               [-1, 1, 512]               0
          Dropout-12               [-1, 1, 512]               0
           Linear-13                [-1, 1, 10]           5,130
          Sigmoid-14                [-1, 1, 10]               0
================================================================
Total params: 12,935,690
Trainable params: 12,935,690
Non-trainable params: 0
----------------------------------------------------------------
Input size (MB): 0.00
Forward/backward pass size (MB): 0.18
Params size (MB): 49.35
Estimated Total Size (MB): 49.52
----------------------------------------------------------------
Training Start.. (Pre Process:False)
…
Epoch:   12  | Loss = 0.03852 | Val_loss: 0.03784 | Accuracy: 93.57 %
Training Done. 5.2008655071258545 (s)
Prediction..
Model Saved.
===================== Training Done. File: ABlists_1060_33000_34000_32000_38000.npy
Generate data from the file: 134_ABlists_1061_33000_34000_38000_44000
data_batch Changed:  5120
0, 1, 2, 3, 4, 5, 6, 7, 8, 9, Time consumed: 32.94701600074768 (s)
----------------------------------------------------------------
        Layer (type)               Output Shape         Param #
================================================================
            Linear-1              [-1, 1, 4096]       2,166,784
              ReLU-2              [-1, 1, 4096]               0
           Dropout-3              [-1, 1, 4096]               0
            Linear-4              [-1, 1, 2048]       8,390,656
              ReLU-5              [-1, 1, 2048]               0
           Dropout-6              [-1, 1, 2048]               0
            Linear-7              [-1, 1, 1024]       2,098,176
              ReLU-8              [-1, 1, 1024]               0
           Dropout-9              [-1, 1, 1024]               0
           Linear-10               [-1, 1, 512]         524,800
             ReLU-11               [-1, 1, 512]               0
          Dropout-12               [-1, 1, 512]               0
           Linear-13                [-1, 1, 10]           5,130
          Sigmoid-14                [-1, 1, 10]               0
================================================================
Total params: 13,185,546
Trainable params: 13,185,546
Non-trainable params: 0
----------------------------------------------------------------
Input size (MB): 0.00
Forward/backward pass size (MB): 0.18
Params size (MB): 50.30
Estimated Total Size (MB): 50.48
----------------------------------------------------------------
Training Start.. (Pre Process:False)
…
Epoch:    9  | Loss = 0.05331 | Val_loss: 0.05068 | Accuracy: 92.15 %
Training Done. 3.8775839805603027 (s)
Prediction..
Model Saved.
===================== Training Done. File: ABlists_1061_33000_34000_38000_44000.npy
Generate data from the file: 136_ABlists_1062_33000_34000_44000_50000
data_batch Changed:  5120
0, 1, 2, 3, 4, 5, 6, 7, 8, 9, Time consumed: 36.782745599746704 (s)
----------------------------------------------------------------
        Layer (type)               Output Shape         Param #
================================================================
            Linear-1              [-1, 1, 4096]       2,424,832
              ReLU-2              [-1, 1, 4096]               0
           Dropout-3              [-1, 1, 4096]               0
            Linear-4              [-1, 1, 2048]       8,390,656
              ReLU-5              [-1, 1, 2048]               0
           Dropout-6              [-1, 1, 2048]               0
            Linear-7              [-1, 1, 1024]       2,098,176
              ReLU-8              [-1, 1, 1024]               0
           Dropout-9              [-1, 1, 1024]               0
           Linear-10               [-1, 1, 512]         524,800
             ReLU-11               [-1, 1, 512]               0
          Dropout-12               [-1, 1, 512]               0
           Linear-13                [-1, 1, 10]           5,130
          Sigmoid-14                [-1, 1, 10]               0
================================================================
Total params: 13,443,594
Trainable params: 13,443,594
Non-trainable params: 0
----------------------------------------------------------------
Input size (MB): 0.00
Forward/backward pass size (MB): 0.18
Params size (MB): 51.28
Estimated Total Size (MB): 51.46
----------------------------------------------------------------
Training Start.. (Pre Process:False)
…
Epoch:    8  | Loss = 0.05643 | Val_loss: 0.05299 | Accuracy: 92.04 %
Training Done. 3.5817418098449707 (s)
Prediction..
Model Saved.
===================== Training Done. File: ABlists_1062_33000_34000_44000_50000.npy
Generate data from the file: 138_ABlists_1063_33000_34000_50000_56000
data_batch Changed:  5120
0, 1, 2, 3, 4, 5, 6, 7, 8, 9, Time consumed: 40.74771022796631 (s)
----------------------------------------------------------------
        Layer (type)               Output Shape         Param #
================================================================
            Linear-1              [-1, 1, 4096]       2,670,592
              ReLU-2              [-1, 1, 4096]               0
           Dropout-3              [-1, 1, 4096]               0
            Linear-4              [-1, 1, 2048]       8,390,656
              ReLU-5              [-1, 1, 2048]               0
           Dropout-6              [-1, 1, 2048]               0
            Linear-7              [-1, 1, 1024]       2,098,176
              ReLU-8              [-1, 1, 1024]               0
           Dropout-9              [-1, 1, 1024]               0
           Linear-10               [-1, 1, 512]         524,800
             ReLU-11               [-1, 1, 512]               0
          Dropout-12               [-1, 1, 512]               0
           Linear-13                [-1, 1, 10]           5,130
          Sigmoid-14                [-1, 1, 10]               0
================================================================
Total params: 13,689,354
Trainable params: 13,689,354
Non-trainable params: 0
----------------------------------------------------------------
Input size (MB): 0.00
Forward/backward pass size (MB): 0.18
Params size (MB): 52.22
Estimated Total Size (MB): 52.40
----------------------------------------------------------------
Training Start.. (Pre Process:False)
…
Epoch:    9  | Loss = 0.04770 | Val_loss: 0.04974 | Accuracy: 92.46 %
Training Done. 4.197235822677612 (s)
Prediction..
Model Saved.
===================== Training Done. File: ABlists_1063_33000_34000_50000_56000.npy
Generate data from the file: 140_ABlists_1064_33000_34000_56000_62000
data_batch Changed:  5120
0, 1, 2, 3, 4, 5, 6, 7, 8, 9, Time consumed: 44.36821103096008 (s)
----------------------------------------------------------------
        Layer (type)               Output Shape         Param #
================================================================
            Linear-1              [-1, 1, 4096]       3,133,440
              ReLU-2              [-1, 1, 4096]               0
           Dropout-3              [-1, 1, 4096]               0
            Linear-4              [-1, 1, 2048]       8,390,656
              ReLU-5              [-1, 1, 2048]               0
           Dropout-6              [-1, 1, 2048]               0
            Linear-7              [-1, 1, 1024]       2,098,176
              ReLU-8              [-1, 1, 1024]               0
           Dropout-9              [-1, 1, 1024]               0
           Linear-10               [-1, 1, 512]         524,800
             ReLU-11               [-1, 1, 512]               0
          Dropout-12               [-1, 1, 512]               0
           Linear-13                [-1, 1, 10]           5,130
          Sigmoid-14                [-1, 1, 10]               0
================================================================
Total params: 14,152,202
Trainable params: 14,152,202
Non-trainable params: 0
----------------------------------------------------------------
Input size (MB): 0.00
Forward/backward pass size (MB): 0.18
Params size (MB): 53.99
Estimated Total Size (MB): 54.17
----------------------------------------------------------------
Training Start.. (Pre Process:False)
…
Epoch:    9  | Loss = 0.04505 | Val_loss: 0.04519 | Accuracy: 93.12 %
Training Done. 4.3472630977630615 (s)
Prediction..
Model Saved.
===================== Training Done. File: ABlists_1064_33000_34000_56000_62000.npy
Generate data from the file: 142_ABlists_1065_33000_34000_62000_68000
data_batch Changed:  5120
0, 1, 2, 3, 4, 5, 6, 7, 8, 9, Time consumed: 55.128576040267944 (s)
----------------------------------------------------------------
        Layer (type)               Output Shape         Param #
================================================================
            Linear-1              [-1, 1, 4096]       3,727,360
              ReLU-2              [-1, 1, 4096]               0
           Dropout-3              [-1, 1, 4096]               0
            Linear-4              [-1, 1, 2048]       8,390,656
              ReLU-5              [-1, 1, 2048]               0
           Dropout-6              [-1, 1, 2048]               0
            Linear-7              [-1, 1, 1024]       2,098,176
              ReLU-8              [-1, 1, 1024]               0
           Dropout-9              [-1, 1, 1024]               0
           Linear-10               [-1, 1, 512]         524,800
             ReLU-11               [-1, 1, 512]               0
          Dropout-12               [-1, 1, 512]               0
           Linear-13                [-1, 1, 10]           5,130
          Sigmoid-14                [-1, 1, 10]               0
================================================================
Total params: 14,746,122
Trainable params: 14,746,122
Non-trainable params: 0
----------------------------------------------------------------
Input size (MB): 0.00
Forward/backward pass size (MB): 0.18
Params size (MB): 56.25
Estimated Total Size (MB): 56.43
----------------------------------------------------------------
Training Start.. (Pre Process:False)
…
Epoch:   10  | Loss = 0.04535 | Val_loss: 0.04370 | Accuracy: 92.62 %
Training Done. 5.253835439682007 (s)
Prediction..
Model Saved.
===================== Training Done. File: ABlists_1065_33000_34000_62000_68000.npy
Generate data from the file: 144_ABlists_1066_33000_34000_68000_6000
PRE_PRECESSING Changed: False --> True, power: 8
0, 1, 2, 3, 4, 5, 6, 7, 8, 9, Time consumed: 69.98644852638245 (s)
----------------------------------------------------------------
        Layer (type)               Output Shape         Param #
================================================================
            Linear-1              [-1, 1, 4096]       4,706,304
              ReLU-2              [-1, 1, 4096]               0
           Dropout-3              [-1, 1, 4096]               0
            Linear-4              [-1, 1, 2048]       8,390,656
              ReLU-5              [-1, 1, 2048]               0
           Dropout-6              [-1, 1, 2048]               0
            Linear-7              [-1, 1, 1024]       2,098,176
              ReLU-8              [-1, 1, 1024]               0
           Dropout-9              [-1, 1, 1024]               0
           Linear-10               [-1, 1, 512]         524,800
             ReLU-11               [-1, 1, 512]               0
          Dropout-12               [-1, 1, 512]               0
           Linear-13                [-1, 1, 10]           5,130
          Sigmoid-14                [-1, 1, 10]               0
================================================================
Total params: 15,725,066
Trainable params: 15,725,066
Non-trainable params: 0
----------------------------------------------------------------
Input size (MB): 0.00
Forward/backward pass size (MB): 0.18
Params size (MB): 59.99
Estimated Total Size (MB): 60.17
----------------------------------------------------------------
Training Start.. (Pre Process:True)
…
Epoch:   19  | Loss = 0.19395 | Val_loss: 0.21561 | Accuracy: 40.85 %
Training Done. 12.800539016723633 (s)
Prediction..
Model Saved.
===================== Training Done. File: ABlists_1066_33000_34000_68000_6000.npy
Generate data from the file: 146_ABlists_1067_34000_35000_6000_12000
PRE_PRECESSING Changed: False --> True, power: 8
0, 1, 2, 3, 4, 5, 6, 7, 8, 9, Time consumed: 22.356764793395996 (s)
----------------------------------------------------------------
        Layer (type)               Output Shape         Param #
================================================================
            Linear-1              [-1, 1, 4096]       1,556,480
              ReLU-2              [-1, 1, 4096]               0
           Dropout-3              [-1, 1, 4096]               0
            Linear-4              [-1, 1, 2048]       8,390,656
              ReLU-5              [-1, 1, 2048]               0
           Dropout-6              [-1, 1, 2048]               0
            Linear-7              [-1, 1, 1024]       2,098,176
              ReLU-8              [-1, 1, 1024]               0
           Dropout-9              [-1, 1, 1024]               0
           Linear-10               [-1, 1, 512]         524,800
             ReLU-11               [-1, 1, 512]               0
          Dropout-12               [-1, 1, 512]               0
           Linear-13                [-1, 1, 10]           5,130
          Sigmoid-14                [-1, 1, 10]               0
================================================================
Total params: 12,575,242
Trainable params: 12,575,242
Non-trainable params: 0
----------------------------------------------------------------
Input size (MB): 0.00
Forward/backward pass size (MB): 0.18
Params size (MB): 47.97
Estimated Total Size (MB): 48.15
----------------------------------------------------------------
Training Start.. (Pre Process:True)
…
Epoch:   33  | Loss = 0.17547 | Val_loss: 0.21289 | Accuracy: 46.26 %
Training Done. 13.458359241485596 (s)
Prediction..
Model Saved.
===================== Training Done. File: ABlists_1067_34000_35000_6000_12000.npy
Generate data from the file: 148_ABlists_1068_34000_35000_12000_18000
PRE_PRECESSING Changed: False --> True, power: 8
0, 1, 2, 3, 4, 5, 6, 7, 8, 9, Time consumed: 22.25979256629944 (s)
----------------------------------------------------------------
        Layer (type)               Output Shape         Param #
================================================================
            Linear-1              [-1, 1, 4096]       1,605,632
              ReLU-2              [-1, 1, 4096]               0
           Dropout-3              [-1, 1, 4096]               0
            Linear-4              [-1, 1, 2048]       8,390,656
              ReLU-5              [-1, 1, 2048]               0
           Dropout-6              [-1, 1, 2048]               0
            Linear-7              [-1, 1, 1024]       2,098,176
              ReLU-8              [-1, 1, 1024]               0
           Dropout-9              [-1, 1, 1024]               0
           Linear-10               [-1, 1, 512]         524,800
             ReLU-11               [-1, 1, 512]               0
          Dropout-12               [-1, 1, 512]               0
           Linear-13                [-1, 1, 10]           5,130
          Sigmoid-14                [-1, 1, 10]               0
================================================================
Total params: 12,624,394
Trainable params: 12,624,394
Non-trainable params: 0
----------------------------------------------------------------
Input size (MB): 0.00
Forward/backward pass size (MB): 0.18
Params size (MB): 48.16
Estimated Total Size (MB): 48.34
----------------------------------------------------------------
Training Start.. (Pre Process:True)
…
Epoch:   37  | Loss = 0.13166 | Val_loss: 0.16298 | Accuracy: 63.96 %
Epoch:   38  | Loss = 0.11076 | Val_loss: 0.13410 | Accuracy: 69.04 %
Training Done. 15.75711727142334 (s)
Prediction..
Model Saved.
===================== Training Done. File: ABlists_1068_34000_35000_12000_18000.npy
Generate data from the file: 150_ABlists_1069_34000_35000_18000_24000
0, 1, 2, 3, 4, 5, 6, 7, 8, 9, Time consumed: 25.504457473754883 (s)
----------------------------------------------------------------
        Layer (type)               Output Shape         Param #
================================================================
            Linear-1              [-1, 1, 4096]       1,687,552
              ReLU-2              [-1, 1, 4096]               0
           Dropout-3              [-1, 1, 4096]               0
            Linear-4              [-1, 1, 2048]       8,390,656
              ReLU-5              [-1, 1, 2048]               0
           Dropout-6              [-1, 1, 2048]               0
            Linear-7              [-1, 1, 1024]       2,098,176
              ReLU-8              [-1, 1, 1024]               0
           Dropout-9              [-1, 1, 1024]               0
           Linear-10               [-1, 1, 512]         524,800
             ReLU-11               [-1, 1, 512]               0
          Dropout-12               [-1, 1, 512]               0
           Linear-13                [-1, 1, 10]           5,130
          Sigmoid-14                [-1, 1, 10]               0
================================================================
Total params: 12,706,314
Trainable params: 12,706,314
Non-trainable params: 0
----------------------------------------------------------------
Input size (MB): 0.00
Forward/backward pass size (MB): 0.18
Params size (MB): 48.47
Estimated Total Size (MB): 48.65
----------------------------------------------------------------
Training Start.. (Pre Process:False)
…
Epoch:   35  | Loss = 0.08379 | Val_loss: 0.11629 | Accuracy: 74.16 %
Training Done. 14.551537036895752 (s)
Prediction..
Model Saved.
===================== Training Done. File: ABlists_1069_34000_35000_18000_24000.npy
Generate data from the file: 152_ABlists_106_-51000_-50000_20000_26000
data_batch Changed:  5120
0, 1, 2, 3, 4, 5, 6, 7, 8, 9, Time consumed: 26.897902727127075 (s)
----------------------------------------------------------------
        Layer (type)               Output Shape         Param #
================================================================
            Linear-1              [-1, 1, 4096]       1,744,896
              ReLU-2              [-1, 1, 4096]               0
           Dropout-3              [-1, 1, 4096]               0
            Linear-4              [-1, 1, 2048]       8,390,656
              ReLU-5              [-1, 1, 2048]               0
           Dropout-6              [-1, 1, 2048]               0
            Linear-7              [-1, 1, 1024]       2,098,176
              ReLU-8              [-1, 1, 1024]               0
           Dropout-9              [-1, 1, 1024]               0
           Linear-10               [-1, 1, 512]         524,800
             ReLU-11               [-1, 1, 512]               0
          Dropout-12               [-1, 1, 512]               0
           Linear-13                [-1, 1, 10]           5,130
          Sigmoid-14                [-1, 1, 10]               0
================================================================
Total params: 12,763,658
Trainable params: 12,763,658
Non-trainable params: 0
----------------------------------------------------------------
Input size (MB): 0.00
Forward/backward pass size (MB): 0.18
Params size (MB): 48.69
Estimated Total Size (MB): 48.87
----------------------------------------------------------------
Training Start.. (Pre Process:False)
…
Epoch:   18  | Loss = 0.02954 | Val_loss: 0.04225 | Accuracy: 92.04 %
Training Done. 7.626222133636475 (s)
Prediction..
Model Saved.
===================== Training Done. File: ABlists_106_-51000_-50000_20000_26000.npy
Generate data from the file: 154_ABlists_1070_34000_35000_24000_30000
data_batch Changed:  5120
0, 1, 2, 3, 4, 5, 6, 7, 8, 9, Time consumed: 26.936065912246704 (s)
----------------------------------------------------------------
        Layer (type)               Output Shape         Param #
================================================================
            Linear-1              [-1, 1, 4096]       1,769,472
              ReLU-2              [-1, 1, 4096]               0
           Dropout-3              [-1, 1, 4096]               0
            Linear-4              [-1, 1, 2048]       8,390,656
              ReLU-5              [-1, 1, 2048]               0
           Dropout-6              [-1, 1, 2048]               0
            Linear-7              [-1, 1, 1024]       2,098,176
              ReLU-8              [-1, 1, 1024]               0
           Dropout-9              [-1, 1, 1024]               0
           Linear-10               [-1, 1, 512]         524,800
             ReLU-11               [-1, 1, 512]               0
          Dropout-12               [-1, 1, 512]               0
           Linear-13                [-1, 1, 10]           5,130
          Sigmoid-14                [-1, 1, 10]               0
================================================================
Total params: 12,788,234
Trainable params: 12,788,234
Non-trainable params: 0
----------------------------------------------------------------
Input size (MB): 0.00
Forward/backward pass size (MB): 0.18
Params size (MB): 48.78
Estimated Total Size (MB): 48.96
----------------------------------------------------------------
Training Start.. (Pre Process:False)
…
Epoch:   30  | Loss = 0.05636 | Val_loss: 0.05637 | Accuracy: 89.28 %
Training Done. 12.740633010864258 (s)
Prediction..
Model Saved.
===================== Training Done. File: ABlists_1070_34000_35000_24000_30000.npy
Generate data from the file: 156_ABlists_1071_34000_35000_30000_36000
data_batch Changed:  5120
0, 1, 2, 3, 4, 5, 6, 7, 8, 9, Time consumed: 26.345017671585083 (s)
----------------------------------------------------------------
        Layer (type)               Output Shape         Param #
================================================================
            Linear-1              [-1, 1, 4096]       1,839,104
              ReLU-2              [-1, 1, 4096]               0
           Dropout-3              [-1, 1, 4096]               0
            Linear-4              [-1, 1, 2048]       8,390,656
              ReLU-5              [-1, 1, 2048]               0
           Dropout-6              [-1, 1, 2048]               0
            Linear-7              [-1, 1, 1024]       2,098,176
              ReLU-8              [-1, 1, 1024]               0
           Dropout-9              [-1, 1, 1024]               0
           Linear-10               [-1, 1, 512]         524,800
             ReLU-11               [-1, 1, 512]               0
          Dropout-12               [-1, 1, 512]               0
           Linear-13                [-1, 1, 10]           5,130
          Sigmoid-14                [-1, 1, 10]               0
================================================================
Total params: 12,857,866
Trainable params: 12,857,866
Non-trainable params: 0
----------------------------------------------------------------
Input size (MB): 0.00
Forward/backward pass size (MB): 0.18
Params size (MB): 49.05
Estimated Total Size (MB): 49.23
----------------------------------------------------------------
Training Start.. (Pre Process:False)
…
Epoch:   11  | Loss = 0.04166 | Val_loss: 0.04095 | Accuracy: 92.46 %
Training Done. 4.715378284454346 (s)
Prediction..
Model Saved.
===================== Training Done. File: ABlists_1071_34000_35000_30000_36000.npy
Generate data from the file: 158_ABlists_1072_34000_35000_36000_42000
data_batch Changed:  5120
0, 1, 2, 3, 4, 5, 6, 7, 8, 9, Time consumed: 31.34909963607788 (s)
----------------------------------------------------------------
        Layer (type)               Output Shape         Param #
================================================================
            Linear-1              [-1, 1, 4096]       2,105,344
              ReLU-2              [-1, 1, 4096]               0
           Dropout-3              [-1, 1, 4096]               0
            Linear-4              [-1, 1, 2048]       8,390,656
              ReLU-5              [-1, 1, 2048]               0
           Dropout-6              [-1, 1, 2048]               0
            Linear-7              [-1, 1, 1024]       2,098,176
              ReLU-8              [-1, 1, 1024]               0
           Dropout-9              [-1, 1, 1024]               0
           Linear-10               [-1, 1, 512]         524,800
             ReLU-11               [-1, 1, 512]               0
          Dropout-12               [-1, 1, 512]               0
           Linear-13                [-1, 1, 10]           5,130
          Sigmoid-14                [-1, 1, 10]               0
================================================================
Total params: 13,124,106
Trainable params: 13,124,106
Non-trainable params: 0
----------------------------------------------------------------
Input size (MB): 0.00
Forward/backward pass size (MB): 0.18
Params size (MB): 50.06
Estimated Total Size (MB): 50.24
----------------------------------------------------------------
Training Start.. (Pre Process:False)
…
Epoch:    9  | Loss = 0.05006 | Val_loss: 0.04932 | Accuracy: 92.18 %
Training Done. 3.9404685497283936 (s)
Prediction..
Model Saved.
===================== Training Done. File: ABlists_1072_34000_35000_36000_42000.npy
Generate data from the file: 160_ABlists_1073_34000_35000_42000_48000
data_batch Changed:  5120
0, 1, 2, 3, 4, 5, 6, 7, 8, 9, Time consumed: 38.17385506629944 (s)
----------------------------------------------------------------
        Layer (type)               Output Shape         Param #
================================================================
            Linear-1              [-1, 1, 4096]       2,355,200
              ReLU-2              [-1, 1, 4096]               0
           Dropout-3              [-1, 1, 4096]               0
            Linear-4              [-1, 1, 2048]       8,390,656
              ReLU-5              [-1, 1, 2048]               0
           Dropout-6              [-1, 1, 2048]               0
            Linear-7              [-1, 1, 1024]       2,098,176
              ReLU-8              [-1, 1, 1024]               0
           Dropout-9              [-1, 1, 1024]               0
           Linear-10               [-1, 1, 512]         524,800
             ReLU-11               [-1, 1, 512]               0
          Dropout-12               [-1, 1, 512]               0
           Linear-13                [-1, 1, 10]           5,130
          Sigmoid-14                [-1, 1, 10]               0
================================================================
Total params: 13,373,962
Trainable params: 13,373,962
Non-trainable params: 0
----------------------------------------------------------------
Input size (MB): 0.00
Forward/backward pass size (MB): 0.18
Params size (MB): 51.02
Estimated Total Size (MB): 51.20
----------------------------------------------------------------
Training Start.. (Pre Process:False)
…
Epoch:    9  | Loss = 0.04434 | Val_loss: 0.04410 | Accuracy: 93.78 %
Training Done. 4.07416296005249 (s)
Prediction..
Model Saved.
===================== Training Done. File: ABlists_1073_34000_35000_42000_48000.npy
Generate data from the file: 162_ABlists_1074_34000_35000_48000_54000
data_batch Changed:  5120
0, 1, 2, 3, 4, 5, 6, 7, 8, 9, Time consumed: 34.30178904533386 (s)
----------------------------------------------------------------
        Layer (type)               Output Shape         Param #
================================================================
            Linear-1              [-1, 1, 4096]       2,572,288
              ReLU-2              [-1, 1, 4096]               0
           Dropout-3              [-1, 1, 4096]               0
            Linear-4              [-1, 1, 2048]       8,390,656
              ReLU-5              [-1, 1, 2048]               0
           Dropout-6              [-1, 1, 2048]               0
            Linear-7              [-1, 1, 1024]       2,098,176
              ReLU-8              [-1, 1, 1024]               0
           Dropout-9              [-1, 1, 1024]               0
           Linear-10               [-1, 1, 512]         524,800
             ReLU-11               [-1, 1, 512]               0
          Dropout-12               [-1, 1, 512]               0
           Linear-13                [-1, 1, 10]           5,130
          Sigmoid-14                [-1, 1, 10]               0
================================================================
Total params: 13,591,050
Trainable params: 13,591,050
Non-trainable params: 0
----------------------------------------------------------------
Input size (MB): 0.00
Forward/backward pass size (MB): 0.18
Params size (MB): 51.85
Estimated Total Size (MB): 52.02
----------------------------------------------------------------
Training Start.. (Pre Process:False)
…
Epoch:   10  | Loss = 0.04128 | Val_loss: 0.04344 | Accuracy: 93.32 %
Training Done. 4.568205118179321 (s)
Prediction..
Model Saved.
===================== Training Done. File: ABlists_1074_34000_35000_48000_54000.npy
Generate data from the file: 164_ABlists_1075_34000_35000_54000_60000
data_batch Changed:  5120
0, 1, 2, 3, 4, 5, 6, 7, 8, 9, Time consumed: 45.299737215042114 (s)
----------------------------------------------------------------
        Layer (type)               Output Shape         Param #
================================================================
            Linear-1              [-1, 1, 4096]       3,031,040
              ReLU-2              [-1, 1, 4096]               0
           Dropout-3              [-1, 1, 4096]               0
            Linear-4              [-1, 1, 2048]       8,390,656
              ReLU-5              [-1, 1, 2048]               0
           Dropout-6              [-1, 1, 2048]               0
            Linear-7              [-1, 1, 1024]       2,098,176
              ReLU-8              [-1, 1, 1024]               0
           Dropout-9              [-1, 1, 1024]               0
           Linear-10               [-1, 1, 512]         524,800
             ReLU-11               [-1, 1, 512]               0
          Dropout-12               [-1, 1, 512]               0
           Linear-13                [-1, 1, 10]           5,130
          Sigmoid-14                [-1, 1, 10]               0
================================================================
Total params: 14,049,802
Trainable params: 14,049,802
Non-trainable params: 0
----------------------------------------------------------------
Input size (MB): 0.00
Forward/backward pass size (MB): 0.18
Params size (MB): 53.60
Estimated Total Size (MB): 53.77
----------------------------------------------------------------
Training Start.. (Pre Process:False)
…
Epoch:   10  | Loss = 0.04457 | Val_loss: 0.04350 | Accuracy: 93.41 %
Training Done. 4.885258197784424 (s)
Prediction..
Model Saved.
===================== Training Done. File: ABlists_1075_34000_35000_54000_60000.npy
Generate data from the file: 166_ABlists_1076_34000_35000_60000_66000
data_batch Changed:  5120
0, 1, 2, 3, 4, 5, 6, 7, 8, 9, Time consumed: 52.44122910499573 (s)
----------------------------------------------------------------
        Layer (type)               Output Shape         Param #
================================================================
            Linear-1              [-1, 1, 4096]       3,489,792
              ReLU-2              [-1, 1, 4096]               0
           Dropout-3              [-1, 1, 4096]               0
            Linear-4              [-1, 1, 2048]       8,390,656
              ReLU-5              [-1, 1, 2048]               0
           Dropout-6              [-1, 1, 2048]               0
            Linear-7              [-1, 1, 1024]       2,098,176
              ReLU-8              [-1, 1, 1024]               0
           Dropout-9              [-1, 1, 1024]               0
           Linear-10               [-1, 1, 512]         524,800
             ReLU-11               [-1, 1, 512]               0
          Dropout-12               [-1, 1, 512]               0
           Linear-13                [-1, 1, 10]           5,130
          Sigmoid-14                [-1, 1, 10]               0
================================================================
Total params: 14,508,554
Trainable params: 14,508,554
Non-trainable params: 0
----------------------------------------------------------------
Input size (MB): 0.00
Forward/backward pass size (MB): 0.18
Params size (MB): 55.35
Estimated Total Size (MB): 55.52
----------------------------------------------------------------
Training Start.. (Pre Process:False)
…
Epoch:    8  | Loss = 0.05628 | Val_loss: 0.05108 | Accuracy: 91.45 %
Epoch:    9  | Loss = 0.04305 | Val_loss: 0.04307 | Accuracy: 92.60 %
Training Done. 4.469999313354492 (s)
Prediction..
Model Saved.
===================== Training Done. File: ABlists_1076_34000_35000_60000_66000.npy
Generate data from the file: 168_ABlists_1077_34000_35000_66000_4000
0, 1, 2, 3, 4, 5, 6, 7, 8, 9, Time consumed: 74.89808511734009 (s)
----------------------------------------------------------------
        Layer (type)               Output Shape         Param #
================================================================
            Linear-1              [-1, 1, 4096]       5,050,368
              ReLU-2              [-1, 1, 4096]               0
           Dropout-3              [-1, 1, 4096]               0
            Linear-4              [-1, 1, 2048]       8,390,656
              ReLU-5              [-1, 1, 2048]               0
           Dropout-6              [-1, 1, 2048]               0
            Linear-7              [-1, 1, 1024]       2,098,176
              ReLU-8              [-1, 1, 1024]               0
           Dropout-9              [-1, 1, 1024]               0
           Linear-10               [-1, 1, 512]         524,800
             ReLU-11               [-1, 1, 512]               0
          Dropout-12               [-1, 1, 512]               0
           Linear-13                [-1, 1, 10]           5,130
          Sigmoid-14                [-1, 1, 10]               0
================================================================
Total params: 16,069,130
Trainable params: 16,069,130
Non-trainable params: 0
----------------------------------------------------------------
Input size (MB): 0.00
Forward/backward pass size (MB): 0.18
Params size (MB): 61.30
Estimated Total Size (MB): 61.48
----------------------------------------------------------------
Training Start.. (Pre Process:False)
…
Epoch:   33  | Loss = 0.11724 | Val_loss: 0.12928 | Accuracy: 59.93 %
Training Done. 23.933881282806396 (s)
Prediction..
Model Saved.
===================== Training Done. File: ABlists_1077_34000_35000_66000_4000.npy
Generate data from the file: 170_ABlists_1078_35000_36000_4000_10000
PRE_PRECESSING Changed: False --> True, power: 8
0, 1, 2, 3, 4, 5, 6, 7, 8, 9, Time consumed: 23.382395029067993 (s)
----------------------------------------------------------------
        Layer (type)               Output Shape         Param #
================================================================
            Linear-1              [-1, 1, 4096]       1,540,096
              ReLU-2              [-1, 1, 4096]               0
           Dropout-3              [-1, 1, 4096]               0
            Linear-4              [-1, 1, 2048]       8,390,656
              ReLU-5              [-1, 1, 2048]               0
           Dropout-6              [-1, 1, 2048]               0
            Linear-7              [-1, 1, 1024]       2,098,176
              ReLU-8              [-1, 1, 1024]               0
           Dropout-9              [-1, 1, 1024]               0
           Linear-10               [-1, 1, 512]         524,800
             ReLU-11               [-1, 1, 512]               0
          Dropout-12               [-1, 1, 512]               0
           Linear-13                [-1, 1, 10]           5,130
          Sigmoid-14                [-1, 1, 10]               0
================================================================
Total params: 12,558,858
Trainable params: 12,558,858
Non-trainable params: 0
----------------------------------------------------------------
Input size (MB): 0.00
Forward/backward pass size (MB): 0.18
Params size (MB): 47.91
Estimated Total Size (MB): 48.09
----------------------------------------------------------------
Training Start.. (Pre Process:True)
…
Epoch:   29  | Loss = 0.27710 | Val_loss: 0.24777 | Accuracy: 35.85 %
Training Done. 11.964626550674438 (s)
Prediction..
Model Saved.
===================== Training Done. File: ABlists_1078_35000_36000_4000_10000.npy
Generate data from the file: 172_ABlists_1079_35000_36000_10000_16000
PRE_PRECESSING Changed: False --> True, power: 8
0, 1, 2, 3, 4, 5, 6, 7, 8, 9, Time consumed: 20.3247389793396 (s)
----------------------------------------------------------------
        Layer (type)               Output Shape         Param #
================================================================
            Linear-1              [-1, 1, 4096]       1,601,536
              ReLU-2              [-1, 1, 4096]               0
           Dropout-3              [-1, 1, 4096]               0
            Linear-4              [-1, 1, 2048]       8,390,656
              ReLU-5              [-1, 1, 2048]               0
           Dropout-6              [-1, 1, 2048]               0
            Linear-7              [-1, 1, 1024]       2,098,176
              ReLU-8              [-1, 1, 1024]               0
           Dropout-9              [-1, 1, 1024]               0
           Linear-10               [-1, 1, 512]         524,800
…
================================================================
Total params: 14,946,826
Trainable params: 14,946,826
Non-trainable params: 0
----------------------------------------------------------------
Input size (MB): 0.00
Forward/backward pass size (MB): 0.18
Params size (MB): 57.02
Estimated Total Size (MB): 57.20
----------------------------------------------------------------
Training Start.. (Pre Process:False)
…
Epoch:   14  | Loss = 0.04356 | Val_loss: 0.04642 | Accuracy: 92.73 %
Training Done. 7.267643451690674 (s)
Prediction..
Model Saved.
===================== Training Done. File: ABlists_316_-33000_-32000_56000_62000.npy
Generate data from the file: 1202_ABlists_317_-33000_-32000_62000_68000
data_batch Changed:  5120
0, 1, 2, 3, 4, 5, 6, 7, 8, 9, Time consumed: 68.71535468101501 (s)
----------------------------------------------------------------
        Layer (type)               Output Shape         Param #
================================================================
            Linear-1              [-1, 1, 4096]       4,554,752
              ReLU-2              [-1, 1, 4096]               0
           Dropout-3              [-1, 1, 4096]               0
            Linear-4              [-1, 1, 2048]       8,390,656
              ReLU-5              [-1, 1, 2048]               0
           Dropout-6              [-1, 1, 2048]               0
            Linear-7              [-1, 1, 1024]       2,098,176
              ReLU-8              [-1, 1, 1024]               0
           Dropout-9              [-1, 1, 1024]               0
           Linear-10               [-1, 1, 512]         524,800
             ReLU-11               [-1, 1, 512]               0
          Dropout-12               [-1, 1, 512]               0
           Linear-13                [-1, 1, 10]           5,130
          Sigmoid-14                [-1, 1, 10]               0
================================================================
Total params: 15,573,514
Trainable params: 15,573,514
Non-trainable params: 0
----------------------------------------------------------------
Input size (MB): 0.00
Forward/backward pass size (MB): 0.18
Params size (MB): 59.41
Estimated Total Size (MB): 59.59
----------------------------------------------------------------
Training Start.. (Pre Process:False)
…
Epoch:   17  | Loss = 0.04016 | Val_loss: 0.04221 | Accuracy: 93.08 %
Training Done. 11.711962938308716 (s)
Prediction..
Model Saved.
===================== Training Done. File: ABlists_317_-33000_-32000_62000_68000.npy
Generate data from the file: 1204_ABlists_318_-33000_-32000_68000_6000
PRE_PRECESSING Changed: False --> True, power: 8
0, 1, 2, 3, 4, 5, 6, 7, 8, 9, Time consumed: 77.59868931770325 (s)
----------------------------------------------------------------
        Layer (type)               Output Shape         Param #
================================================================
            Linear-1              [-1, 1, 4096]       5,292,032
              ReLU-2              [-1, 1, 4096]               0
           Dropout-3              [-1, 1, 4096]               0
            Linear-4              [-1, 1, 2048]       8,390,656
              ReLU-5              [-1, 1, 2048]               0
           Dropout-6              [-1, 1, 2048]               0
            Linear-7              [-1, 1, 1024]       2,098,176
              ReLU-8              [-1, 1, 1024]               0
           Dropout-9              [-1, 1, 1024]               0
           Linear-10               [-1, 1, 512]         524,800
             ReLU-11               [-1, 1, 512]               0
          Dropout-12               [-1, 1, 512]               0
           Linear-13                [-1, 1, 10]           5,130
          Sigmoid-14                [-1, 1, 10]               0
================================================================
Total params: 16,310,794
Trainable params: 16,310,794
Non-trainable params: 0
----------------------------------------------------------------
Input size (MB): 0.00
Forward/backward pass size (MB): 0.18
Params size (MB): 62.22
Estimated Total Size (MB): 62.40
----------------------------------------------------------------
Training Start.. (Pre Process:True)
…
Epoch:   27  | Loss = 0.16517 | Val_loss: 0.19013 | Accuracy: 51.27 %
Training Done. 11.263196468353271 (s)
Prediction..
Model Saved.
===================== Training Done. File: ABlists_319_-32000_-31000_6000_12000.npy
Generate data from the file: 1208_ABlists_31_-58000_-57000_46000_52000
data_batch Changed:  5120
0, 1, 2, 3, 4, 5, 6, 7, 8, 9, Time consumed: 45.23771595954895 (s)
----------------------------------------------------------------
        Layer (type)               Output Shape         Param #
================================================================
            Linear-1              [-1, 1, 4096]       3,198,976
              ReLU-2              [-1, 1, 4096]               0
           Dropout-3              [-1, 1, 4096]               0
            Linear-4              [-1, 1, 2048]       8,390,656
              ReLU-5              [-1, 1, 2048]               0
           Dropout-6              [-1, 1, 2048]               0
            Linear-7              [-1, 1, 1024]       2,098,176
              ReLU-8              [-1, 1, 1024]               0
           Dropout-9              [-1, 1, 1024]               0
           Linear-10               [-1, 1, 512]         524,800
             ReLU-11               [-1, 1, 512]               0
          Dropout-12               [-1, 1, 512]               0
           Linear-13                [-1, 1, 10]           5,130
          Sigmoid-14                [-1, 1, 10]               0
================================================================
Total params: 14,217,738
Trainable params: 14,217,738
Non-trainable params: 0
----------------------------------------------------------------
Input size (MB): 0.00
Forward/backward pass size (MB): 0.18
Params size (MB): 54.24
Estimated Total Size (MB): 54.42
----------------------------------------------------------------
Training Start.. (Pre Process:False)
…
Epoch:   10  | Loss = 0.04654 | Val_loss: 0.04724 | Accuracy: 92.76 %
Training Done. 4.781071662902832 (s)
Prediction..
Model Saved.
===================== Training Done. File: ABlists_326_-32000_-31000_48000_54000.npy
Generate data from the file: 1224_ABlists_327_-32000_-31000_54000_60000
data_batch Changed:  5120
0, 1, 2, 3, 4, 5, 6, 7, 8, 9, Time consumed: 56.57643961906433 (s)
----------------------------------------------------------------
        Layer (type)               Output Shape         Param #
================================================================
            Linear-1              [-1, 1, 4096]       3,751,936
              ReLU-2              [-1, 1, 4096]               0
           Dropout-3              [-1, 1, 4096]               0
            Linear-4              [-1, 1, 2048]       8,390,656
              ReLU-5              [-1, 1, 2048]               0
           Dropout-6              [-1, 1, 2048]               0
            Linear-7              [-1, 1, 1024]       2,098,176
              ReLU-8              [-1, 1, 1024]               0
           Dropout-9              [-1, 1, 1024]               0
           Linear-10               [-1, 1, 512]         524,800
             ReLU-11               [-1, 1, 512]               0
          Dropout-12               [-1, 1, 512]               0
           Linear-13                [-1, 1, 10]           5,130
          Sigmoid-14                [-1, 1, 10]               0
================================================================
Total params: 14,770,698
Trainable params: 14,770,698
Non-trainable params: 0
----------------------------------------------------------------
Input size (MB): 0.00
Forward/backward pass size (MB): 0.18
Params size (MB): 56.35
Estimated Total Size (MB): 56.53
----------------------------------------------------------------
Training Start.. (Pre Process:False)
…
Epoch:   11  | Loss = 0.04415 | Val_loss: 0.04626 | Accuracy: 93.01 %
Training Done. 5.590750694274902 (s)
Prediction..
Model Saved.
===================== Training Done. File: ABlists_327_-32000_-31000_54000_60000.npy
Generate data from the file: 1226_ABlists_328_-32000_-31000_60000_66000
data_batch Changed:  5120
0, 1, 2, 3, 4, 5, 6, 7, 8, 9, Time consumed: 64.1271755695343 (s)
----------------------------------------------------------------
        Layer (type)               Output Shape         Param #
================================================================
            Linear-1              [-1, 1, 4096]       4,452,352
              ReLU-2              [-1, 1, 4096]               0
           Dropout-3              [-1, 1, 4096]               0
            Linear-4              [-1, 1, 2048]       8,390,656
              ReLU-5              [-1, 1, 2048]               0
           Dropout-6              [-1, 1, 2048]               0
            Linear-7              [-1, 1, 1024]       2,098,176
              ReLU-8              [-1, 1, 1024]               0
           Dropout-9              [-1, 1, 1024]               0
           Linear-10               [-1, 1, 512]         524,800
             ReLU-11               [-1, 1, 512]               0
          Dropout-12               [-1, 1, 512]               0
           Linear-13                [-1, 1, 10]           5,130
          Sigmoid-14                [-1, 1, 10]               0
================================================================
Total params: 15,471,114
Trainable params: 15,471,114
Non-trainable params: 0
----------------------------------------------------------------
Input size (MB): 0.00
Forward/backward pass size (MB): 0.18
Params size (MB): 59.02
Estimated Total Size (MB): 59.20
----------------------------------------------------------------
Training Start.. (Pre Process:False)
…
Epoch:   11  | Loss = 0.05472 | Val_loss: 0.05411 | Accuracy: 91.16 %
Epoch:   12  | Loss = 0.04428 | Val_loss: 0.04666 | Accuracy: 92.57 %
Training Done. 8.468748569488525 (s)
Prediction..
Model Saved.
===================== Training Done. File: ABlists_328_-32000_-31000_60000_66000.npy
Generate data from the file: 1228_ABlists_329_-32000_-31000_66000_4000
0, 1, 2, 3, 4, 5, 6, 7, 8, 9, Time consumed: 80.30408263206482 (s)
----------------------------------------------------------------
        Layer (type)               Output Shape         Param #
================================================================
            Linear-1              [-1, 1, 4096]       5,627,904
              ReLU-2              [-1, 1, 4096]               0
           Dropout-3              [-1, 1, 4096]               0
            Linear-4              [-1, 1, 2048]       8,390,656
              ReLU-5              [-1, 1, 2048]               0
           Dropout-6              [-1, 1, 2048]               0
            Linear-7              [-1, 1, 1024]       2,098,176
              ReLU-8              [-1, 1, 1024]               0
           Dropout-9              [-1, 1, 1024]               0
           Linear-10               [-1, 1, 512]         524,800
             ReLU-11               [-1, 1, 512]               0
          Dropout-12               [-1, 1, 512]               0
           Linear-13                [-1, 1, 10]           5,130
          Sigmoid-14                [-1, 1, 10]               0
================================================================
Total params: 16,646,666
Trainable params: 16,646,666
Non-trainable params: 0
----------------------------------------------------------------
Input size (MB): 0.01
Forward/backward pass size (MB): 0.18
Params size (MB): 63.50
Estimated Total Size (MB): 63.68
----------------------------------------------------------------
Training Start.. (Pre Process:False)
…
Epoch:   10  | Loss = 0.04453 | Val_loss: 0.04386 | Accuracy: 92.72 %
Training Done. 4.26238489151001 (s)
Prediction..
Model Saved.
===================== Training Done. File: ABlists_334_-31000_-30000_28000_34000.npy
Generate data from the file: 1242_ABlists_335_-31000_-30000_34000_40000
data_batch Changed:  5120
0, 1, 2, 3, 4, 5, 6, 7, 8, 9, Time consumed: 31.01742434501648 (s)
----------------------------------------------------------------
        Layer (type)               Output Shape         Param #
================================================================
            Linear-1              [-1, 1, 4096]       2,174,976
              ReLU-2              [-1, 1, 4096]               0
           Dropout-3              [-1, 1, 4096]               0
            Linear-4              [-1, 1, 2048]       8,390,656
              ReLU-5              [-1, 1, 2048]               0
           Dropout-6              [-1, 1, 2048]               0
            Linear-7              [-1, 1, 1024]       2,098,176
              ReLU-8              [-1, 1, 1024]               0
           Dropout-9              [-1, 1, 1024]               0
           Linear-10               [-1, 1, 512]         524,800
             ReLU-11               [-1, 1, 512]               0
          Dropout-12               [-1, 1, 512]               0
           Linear-13                [-1, 1, 10]           5,130
          Sigmoid-14                [-1, 1, 10]               0
================================================================
Total params: 13,193,738
Trainable params: 13,193,738
Non-trainable params: 0
----------------------------------------------------------------
Input size (MB): 0.00
Forward/backward pass size (MB): 0.18
Params size (MB): 50.33
Estimated Total Size (MB): 50.51
----------------------------------------------------------------
Training Start.. (Pre Process:False)
…
Epoch:    9  | Loss = 0.05270 | Val_loss: 0.04966 | Accuracy: 92.05 %
Training Done. 4.319699048995972 (s)
Prediction..
Model Saved.
===================== Training Done. File: ABlists_337_-31000_-30000_46000_52000.npy
Generate data from the file: 1248_ABlists_338_-31000_-30000_52000_58000
data_batch Changed:  5120
0, 1, 2, 3, 4, 5, 6, 7, 8, 9, Time consumed: 48.885653018951416 (s)
----------------------------------------------------------------
        Layer (type)               Output Shape         Param #
================================================================
            Linear-1              [-1, 1, 4096]       3,510,272
              ReLU-2              [-1, 1, 4096]               0
           Dropout-3              [-1, 1, 4096]               0
            Linear-4              [-1, 1, 2048]       8,390,656
              ReLU-5              [-1, 1, 2048]               0
           Dropout-6              [-1, 1, 2048]               0
            Linear-7              [-1, 1, 1024]       2,098,176
              ReLU-8              [-1, 1, 1024]               0
           Dropout-9              [-1, 1, 1024]               0
           Linear-10               [-1, 1, 512]         524,800
             ReLU-11               [-1, 1, 512]               0
          Dropout-12               [-1, 1, 512]               0
           Linear-13                [-1, 1, 10]           5,130
          Sigmoid-14                [-1, 1, 10]               0
================================================================
Total params: 14,529,034
Trainable params: 14,529,034
Non-trainable params: 0
----------------------------------------------------------------
Input size (MB): 0.00
Forward/backward pass size (MB): 0.18
Params size (MB): 55.42
Estimated Total Size (MB): 55.60
----------------------------------------------------------------
Training Start.. (Pre Process:False)
…
Epoch:   11  | Loss = 0.04737 | Val_loss: 0.04637 | Accuracy: 92.61 %
Training Done. 5.231766700744629 (s)
Prediction..
Model Saved.
===================== Training Done. File: ABlists_338_-31000_-30000_52000_58000.npy
Generate data from the file: 1250_ABlists_339_-31000_-30000_58000_64000
data_batch Changed:  5120
0, 1, 2, 3, 4, 5, 6, 7, 8, 9, Time consumed: 60.66836881637573 (s)
----------------------------------------------------------------
        Layer (type)               Output Shape         Param #
================================================================
            Linear-1              [-1, 1, 4096]       4,292,608
              ReLU-2              [-1, 1, 4096]               0
           Dropout-3              [-1, 1, 4096]               0
            Linear-4              [-1, 1, 2048]       8,390,656
              ReLU-5              [-1, 1, 2048]               0
           Dropout-6              [-1, 1, 2048]               0
            Linear-7              [-1, 1, 1024]       2,098,176
              ReLU-8              [-1, 1, 1024]               0
           Dropout-9              [-1, 1, 1024]               0
           Linear-10               [-1, 1, 512]         524,800
             ReLU-11               [-1, 1, 512]               0
          Dropout-12               [-1, 1, 512]               0
           Linear-13                [-1, 1, 10]           5,130
          Sigmoid-14                [-1, 1, 10]               0
================================================================
Total params: 15,311,370
Trainable params: 15,311,370
Non-trainable params: 0
----------------------------------------------------------------
Input size (MB): 0.00
Forward/backward pass size (MB): 0.18
Params size (MB): 58.41
Estimated Total Size (MB): 58.59
----------------------------------------------------------------
Training Start.. (Pre Process:False)
…
Epoch:   12  | Loss = 0.04842 | Val_loss: 0.04977 | Accuracy: 92.29 %
Training Done. 7.773133277893066 (s)
Prediction..
Model Saved.
===================== Training Done. File: ABlists_339_-31000_-30000_58000_64000.npy
Generate data from the file: 1252_ABlists_33_-58000_-57000_58000_64000
data_batch Changed:  5120
0, 1, 2, 3, 4, 5, 6, 7, 8, 9, Time consumed: 66.05637240409851 (s)
----------------------------------------------------------------
        Layer (type)               Output Shape         Param #
================================================================
            Linear-1              [-1, 1, 4096]       4,468,736
              ReLU-2              [-1, 1, 4096]               0
           Dropout-3              [-1, 1, 4096]               0
            Linear-4              [-1, 1, 2048]       8,390,656
              ReLU-5              [-1, 1, 2048]               0
           Dropout-6              [-1, 1, 2048]               0
            Linear-7              [-1, 1, 1024]       2,098,176
              ReLU-8              [-1, 1, 1024]               0
           Dropout-9              [-1, 1, 1024]               0
           Linear-10               [-1, 1, 512]         524,800
             ReLU-11               [-1, 1, 512]               0
          Dropout-12               [-1, 1, 512]               0
           Linear-13                [-1, 1, 10]           5,130
          Sigmoid-14                [-1, 1, 10]               0
================================================================
Total params: 15,487,498
Trainable params: 15,487,498
Non-trainable params: 0
----------------------------------------------------------------
Input size (MB): 0.00
Forward/backward pass size (MB): 0.18
Params size (MB): 59.08
Estimated Total Size (MB): 59.26
----------------------------------------------------------------
Training Start.. (Pre Process:False)
…
Epoch:   13  | Loss = 0.04622 | Val_loss: 0.04704 | Accuracy: 92.59 %
Training Done. 9.165550470352173 (s)
Prediction..
Model Saved.
===================== Training Done. File: ABlists_33_-58000_-57000_58000_64000.npy
Generate data from the file: 1254_ABlists_340_-31000_-30000_64000_70000
data_batch Changed:  5120
0, 1, 2, 3, 4, 5, 6, 7, 8, 9, Time consumed: 73.91318607330322 (s)
----------------------------------------------------------------
        Layer (type)               Output Shape         Param #
================================================================
            Linear-1              [-1, 1, 4096]       4,968,448
              ReLU-2              [-1, 1, 4096]               0
           Dropout-3              [-1, 1, 4096]               0
            Linear-4              [-1, 1, 2048]       8,390,656
              ReLU-5              [-1, 1, 2048]               0
           Dropout-6              [-1, 1, 2048]               0
            Linear-7              [-1, 1, 1024]       2,098,176
              ReLU-8              [-1, 1, 1024]               0
           Dropout-9              [-1, 1, 1024]               0
           Linear-10               [-1, 1, 512]         524,800
             ReLU-11               [-1, 1, 512]               0
          Dropout-12               [-1, 1, 512]               0
           Linear-13                [-1, 1, 10]           5,130
          Sigmoid-14                [-1, 1, 10]               0
================================================================
Total params: 15,987,210
Trainable params: 15,987,210
Non-trainable params: 0
----------------------------------------------------------------
Input size (MB): 0.00
Forward/backward pass size (MB): 0.18
Params size (MB): 60.99
Estimated Total Size (MB): 61.17
----------------------------------------------------------------
Training Start.. (Pre Process:False)
…
Epoch:   25  | Loss = 0.02402 | Val_loss: 0.04168 | Accuracy: 92.36 %
Training Done. 10.711585521697998 (s)
Prediction..
Model Saved.
===================== Training Done. File: ABlists_344_-30000_-29000_20000_26000.npy
Generate data from the file: 1264_ABlists_345_-30000_-29000_26000_32000
data_batch Changed:  5120
0, 1, 2, 3, 4, 5, 6, 7, 8, 9, Time consumed: 25.197118759155273 (s)
----------------------------------------------------------------
        Layer (type)               Output Shape         Param #
================================================================
            Linear-1              [-1, 1, 4096]       1,822,720
              ReLU-2              [-1, 1, 4096]               0
           Dropout-3              [-1, 1, 4096]               0
            Linear-4              [-1, 1, 2048]       8,390,656
              ReLU-5              [-1, 1, 2048]               0
           Dropout-6              [-1, 1, 2048]               0
            Linear-7              [-1, 1, 1024]       2,098,176
              ReLU-8              [-1, 1, 1024]               0
           Dropout-9              [-1, 1, 1024]               0
           Linear-10               [-1, 1, 512]         524,800
             ReLU-11               [-1, 1, 512]               0
          Dropout-12               [-1, 1, 512]               0
           Linear-13                [-1, 1, 10]           5,130
          Sigmoid-14                [-1, 1, 10]               0
================================================================
Total params: 12,841,482
Trainable params: 12,841,482
Non-trainable params: 0
----------------------------------------------------------------
Input size (MB): 0.00
Forward/backward pass size (MB): 0.18
Params size (MB): 48.99
Estimated Total Size (MB): 49.16
----------------------------------------------------------------
Training Start.. (Pre Process:False)
…
Epoch:   11  | Loss = 0.04086 | Val_loss: 0.04360 | Accuracy: 92.49 %
Training Done. 4.756436586380005 (s)
Prediction..
Model Saved.
===================== Training Done. File: ABlists_345_-30000_-29000_26000_32000.npy
Generate data from the file: 1266_ABlists_346_-30000_-29000_32000_38000
data_batch Changed:  5120
0, 1, 2, 3, 4, 5, 6, 7, 8, 9, Time consumed: 29.653353452682495 (s)
----------------------------------------------------------------
        Layer (type)               Output Shape         Param #
================================================================
            Linear-1              [-1, 1, 4096]       2,170,880
              ReLU-2              [-1, 1, 4096]               0
           Dropout-3              [-1, 1, 4096]               0
            Linear-4              [-1, 1, 2048]       8,390,656
              ReLU-5              [-1, 1, 2048]               0
           Dropout-6              [-1, 1, 2048]               0
            Linear-7              [-1, 1, 1024]       2,098,176
              ReLU-8              [-1, 1, 1024]               0
           Dropout-9              [-1, 1, 1024]               0
           Linear-10               [-1, 1, 512]         524,800
             ReLU-11               [-1, 1, 512]               0
          Dropout-12               [-1, 1, 512]               0
           Linear-13                [-1, 1, 10]           5,130
          Sigmoid-14                [-1, 1, 10]               0
================================================================
Total params: 13,189,642
Trainable params: 13,189,642
Non-trainable params: 0
----------------------------------------------------------------
Input size (MB): 0.00
Forward/backward pass size (MB): 0.18
Params size (MB): 50.31
Estimated Total Size (MB): 50.49
----------------------------------------------------------------
Training Start.. (Pre Process:False)
…
Epoch:    9  | Loss = 0.04583 | Val_loss: 0.04430 | Accuracy: 92.98 %
Training Done. 4.100379705429077 (s)
Prediction..
Model Saved.
===================== Training Done. File: ABlists_347_-30000_-29000_38000_44000.npy
Generate data from the file: 1270_ABlists_348_-30000_-29000_44000_50000
data_batch Changed:  5120
0, 1, 2, 3, 4, 5, 6, 7, 8, 9, Time consumed: 41.89462685585022 (s)
----------------------------------------------------------------
        Layer (type)               Output Shape         Param #
================================================================
            Linear-1              [-1, 1, 4096]       2,908,160
              ReLU-2              [-1, 1, 4096]               0
           Dropout-3              [-1, 1, 4096]               0
            Linear-4              [-1, 1, 2048]       8,390,656
              ReLU-5              [-1, 1, 2048]               0
           Dropout-6              [-1, 1, 2048]               0
            Linear-7              [-1, 1, 1024]       2,098,176
              ReLU-8              [-1, 1, 1024]               0
           Dropout-9              [-1, 1, 1024]               0
           Linear-10               [-1, 1, 512]         524,800
             ReLU-11               [-1, 1, 512]               0
          Dropout-12               [-1, 1, 512]               0
           Linear-13                [-1, 1, 10]           5,130
          Sigmoid-14                [-1, 1, 10]               0
================================================================
Total params: 13,926,922
Trainable params: 13,926,922
Non-trainable params: 0
----------------------------------------------------------------
Input size (MB): 0.00
Forward/backward pass size (MB): 0.18
Params size (MB): 53.13
Estimated Total Size (MB): 53.31
----------------------------------------------------------------
Training Start.. (Pre Process:False)
…
Epoch:   10  | Loss = 0.04215 | Val_loss: 0.04454 | Accuracy: 92.51 %
Training Done. 4.763960599899292 (s)
Prediction..
Model Saved.
===================== Training Done. File: ABlists_348_-30000_-29000_44000_50000.npy
Generate data from the file: 1272_ABlists_349_-30000_-29000_50000_56000
data_batch Changed:  5120
0, 1, 2, 3, 4, 5, 6, 7, 8, 9, Time consumed: 45.71129608154297 (s)
----------------------------------------------------------------
        Layer (type)               Output Shape         Param #
================================================================
            Linear-1              [-1, 1, 4096]       3,358,720
              ReLU-2              [-1, 1, 4096]               0
           Dropout-3              [-1, 1, 4096]               0
            Linear-4              [-1, 1, 2048]       8,390,656
              ReLU-5              [-1, 1, 2048]               0
           Dropout-6              [-1, 1, 2048]               0
            Linear-7              [-1, 1, 1024]       2,098,176
              ReLU-8              [-1, 1, 1024]               0
           Dropout-9              [-1, 1, 1024]               0
           Linear-10               [-1, 1, 512]         524,800
             ReLU-11               [-1, 1, 512]               0
          Dropout-12               [-1, 1, 512]               0
           Linear-13                [-1, 1, 10]           5,130
          Sigmoid-14                [-1, 1, 10]               0
================================================================
Total params: 14,377,482
Trainable params: 14,377,482
Non-trainable params: 0
----------------------------------------------------------------
Input size (MB): 0.00
Forward/backward pass size (MB): 0.18
Params size (MB): 54.85
Estimated Total Size (MB): 55.02
----------------------------------------------------------------
Training Start.. (Pre Process:False)
…
Epoch:   25  | Loss = 0.02923 | Val_loss: 0.03783 | Accuracy: 92.87 %
Training Done. 18.704452991485596 (s)
Prediction..
Model Saved.
===================== Training Done. File: ABlists_34_-58000_-57000_64000_70000.npy
Generate data from the file: 1276_ABlists_350_-30000_-29000_56000_62000
data_batch Changed:  5120
0, 1, 2, 3, 4, 5, 6, 7, 8, 9, Time consumed: 55.61653518676758 (s)
----------------------------------------------------------------
        Layer (type)               Output Shape         Param #
================================================================
            Linear-1              [-1, 1, 4096]       4,038,656
              ReLU-2              [-1, 1, 4096]               0
           Dropout-3              [-1, 1, 4096]               0
            Linear-4              [-1, 1, 2048]       8,390,656
              ReLU-5              [-1, 1, 2048]               0
           Dropout-6              [-1, 1, 2048]               0
            Linear-7              [-1, 1, 1024]       2,098,176
              ReLU-8              [-1, 1, 1024]               0
           Dropout-9              [-1, 1, 1024]               0
           Linear-10               [-1, 1, 512]         524,800
             ReLU-11               [-1, 1, 512]               0
          Dropout-12               [-1, 1, 512]               0
           Linear-13                [-1, 1, 10]           5,130
          Sigmoid-14                [-1, 1, 10]               0
================================================================
Total params: 15,057,418
Trainable params: 15,057,418
Non-trainable params: 0
----------------------------------------------------------------
Input size (MB): 0.00
Forward/backward pass size (MB): 0.18
Params size (MB): 57.44
Estimated Total Size (MB): 57.62
----------------------------------------------------------------
Training Start.. (Pre Process:False)
…
Epoch:   18  | Loss = 0.03440 | Val_loss: 0.04335 | Accuracy: 92.30 %
Training Done. 13.595787763595581 (s)
Prediction..
Model Saved.
===================== Training Done. File: ABlists_351_-30000_-29000_62000_68000.npy
Generate data from the file: 1280_ABlists_352_-30000_-29000_68000_6000
PRE_PRECESSING Changed: False --> True, power: 8
0, 1, 2, 3, 4, 5, 6, 7, 8, 9, Time consumed: 83.3560619354248 (s)
----------------------------------------------------------------
        Layer (type)               Output Shape         Param #
================================================================
            Linear-1              [-1, 1, 4096]       5,537,792
              ReLU-2              [-1, 1, 4096]               0
           Dropout-3              [-1, 1, 4096]               0
            Linear-4              [-1, 1, 2048]       8,390,656
              ReLU-5              [-1, 1, 2048]               0
           Dropout-6              [-1, 1, 2048]               0
            Linear-7              [-1, 1, 1024]       2,098,176
              ReLU-8              [-1, 1, 1024]               0
           Dropout-9              [-1, 1, 1024]               0
           Linear-10               [-1, 1, 512]         524,800
             ReLU-11               [-1, 1, 512]               0
          Dropout-12               [-1, 1, 512]               0
           Linear-13                [-1, 1, 10]           5,130
          Sigmoid-14                [-1, 1, 10]               0
================================================================
Total params: 16,556,554
Trainable params: 16,556,554
Non-trainable params: 0
----------------------------------------------------------------
Input size (MB): 0.01
Forward/backward pass size (MB): 0.18
Params size (MB): 63.16
Estimated Total Size (MB): 63.34
----------------------------------------------------------------
Training Start.. (Pre Process:True)
…
Epoch:   31  | Loss = 0.22010 | Val_loss: 0.25386 | Accuracy: 34.34 %
Training Done. 12.793347835540771 (s)
Prediction..
Model Saved.
===================== Training Done. File: ABlists_35_-57000_-56000_2000_8000.npy
Generate data from the file: 1298_ABlists_360_-29000_-28000_48000_54000
data_batch Changed:  5120
0, 1, 2, 3, 4, 5, 6, 7, 8, 9, Time consumed: 47.9523663520813 (s)
----------------------------------------------------------------
        Layer (type)               Output Shape         Param #
================================================================
            Linear-1              [-1, 1, 4096]       3,194,880
              ReLU-2              [-1, 1, 4096]               0
           Dropout-3              [-1, 1, 4096]               0
            Linear-4              [-1, 1, 2048]       8,390,656
              ReLU-5              [-1, 1, 2048]               0
           Dropout-6              [-1, 1, 2048]               0
            Linear-7              [-1, 1, 1024]       2,098,176
              ReLU-8              [-1, 1, 1024]               0
           Dropout-9              [-1, 1, 1024]               0
           Linear-10               [-1, 1, 512]         524,800
             ReLU-11               [-1, 1, 512]               0
          Dropout-12               [-1, 1, 512]               0
           Linear-13                [-1, 1, 10]           5,130
          Sigmoid-14                [-1, 1, 10]               0
================================================================
Total params: 14,213,642
Trainable params: 14,213,642
Non-trainable params: 0
----------------------------------------------------------------
Input size (MB): 0.00
Forward/backward pass size (MB): 0.18
Params size (MB): 54.22
Estimated Total Size (MB): 54.40
----------------------------------------------------------------
Training Start.. (Pre Process:False)
…
Epoch:   10  | Loss = 0.04017 | Val_loss: 0.04346 | Accuracy: 93.14 %
Training Done. 4.879975318908691 (s)
Prediction..
Model Saved.
===================== Training Done. File: ABlists_360_-29000_-28000_48000_54000.npy
Generate data from the file: 1300_ABlists_361_-29000_-28000_54000_60000
data_batch Changed:  5120
0, 1, 2, 3, 4, 5, 6, 7, 8, 9, Time consumed: 55.60540008544922 (s)
----------------------------------------------------------------
        Layer (type)               Output Shape         Param #
================================================================
            Linear-1              [-1, 1, 4096]       3,854,336
              ReLU-2              [-1, 1, 4096]               0
           Dropout-3              [-1, 1, 4096]               0
            Linear-4              [-1, 1, 2048]       8,390,656
              ReLU-5              [-1, 1, 2048]               0
           Dropout-6              [-1, 1, 2048]               0
            Linear-7              [-1, 1, 1024]       2,098,176
              ReLU-8              [-1, 1, 1024]               0
           Dropout-9              [-1, 1, 1024]               0
           Linear-10               [-1, 1, 512]         524,800
             ReLU-11               [-1, 1, 512]               0
          Dropout-12               [-1, 1, 512]               0
           Linear-13                [-1, 1, 10]           5,130
          Sigmoid-14                [-1, 1, 10]               0
================================================================
Total params: 14,873,098
Trainable params: 14,873,098
Non-trainable params: 0
----------------------------------------------------------------
Input size (MB): 0.00
Forward/backward pass size (MB): 0.18
Params size (MB): 56.74
Estimated Total Size (MB): 56.92
----------------------------------------------------------------
Training Start.. (Pre Process:False)
…
Epoch:   12  | Loss = 0.04214 | Val_loss: 0.04528 | Accuracy: 93.07 %
Training Done. 6.12062668800354 (s)
Prediction..
Model Saved.
===================== Training Done. File: ABlists_361_-29000_-28000_54000_60000.npy
Generate data from the file: 1302_ABlists_362_-29000_-28000_60000_66000
data_batch Changed:  5120
0, 1, 2, 3, 4, 5, 6, 7, 8, 9, Time consumed: 64.96927285194397 (s)
----------------------------------------------------------------
        Layer (type)               Output Shape         Param #
================================================================
            Linear-1              [-1, 1, 4096]       4,612,096
              ReLU-2              [-1, 1, 4096]               0
           Dropout-3              [-1, 1, 4096]               0
            Linear-4              [-1, 1, 2048]       8,390,656
              ReLU-5              [-1, 1, 2048]               0
           Dropout-6              [-1, 1, 2048]               0
            Linear-7              [-1, 1, 1024]       2,098,176
              ReLU-8              [-1, 1, 1024]               0
           Dropout-9              [-1, 1, 1024]               0
           Linear-10               [-1, 1, 512]         524,800
             ReLU-11               [-1, 1, 512]               0
          Dropout-12               [-1, 1, 512]               0
           Linear-13                [-1, 1, 10]           5,130
          Sigmoid-14                [-1, 1, 10]               0
================================================================
Total params: 15,630,858
Trainable params: 15,630,858
Non-trainable params: 0
----------------------------------------------------------------
Input size (MB): 0.00
Forward/backward pass size (MB): 0.18
Params size (MB): 59.63
Estimated Total Size (MB): 59.81
----------------------------------------------------------------
Training Start.. (Pre Process:False)
…
Epoch:   14  | Loss = 0.05263 | Val_loss: 0.05424 | Accuracy: 90.69 %
Epoch:   15  | Loss = 0.04581 | Val_loss: 0.04778 | Accuracy: 92.10 %
Training Done. 11.070457458496094 (s)
Prediction..
Model Saved.
===================== Training Done. File: ABlists_362_-29000_-28000_60000_66000.npy
Generate data from the file: 1304_ABlists_363_-29000_-28000_66000_4000
0, 1, 2, 3, 4, 5, 6, 7, 8, 9, Time consumed: 87.44488883018494 (s)
----------------------------------------------------------------
        Layer (type)               Output Shape         Param #
================================================================
            Linear-1              [-1, 1, 4096]       5,984,256
              ReLU-2              [-1, 1, 4096]               0
           Dropout-3              [-1, 1, 4096]               0
            Linear-4              [-1, 1, 2048]       8,390,656
              ReLU-5              [-1, 1, 2048]               0
           Dropout-6              [-1, 1, 2048]               0
            Linear-7              [-1, 1, 1024]       2,098,176
              ReLU-8              [-1, 1, 1024]               0
           Dropout-9              [-1, 1, 1024]               0
           Linear-10               [-1, 1, 512]         524,800
             ReLU-11               [-1, 1, 512]               0
          Dropout-12               [-1, 1, 512]               0
           Linear-13                [-1, 1, 10]           5,130
          Sigmoid-14                [-1, 1, 10]               0
================================================================
Total params: 17,003,018
Trainable params: 17,003,018
Non-trainable params: 0
----------------------------------------------------------------
Input size (MB): 0.01
Forward/backward pass size (MB): 0.18
Params size (MB): 64.86
Estimated Total Size (MB): 65.04
----------------------------------------------------------------
Training Start.. (Pre Process:False)
…
Epoch:    9  | Loss = 0.04833 | Val_loss: 0.04782 | Accuracy: 92.61 %
Training Done. 4.364511966705322 (s)
Prediction..
Model Saved.
===================== Training Done. File: ABlists_371_-28000_-27000_46000_52000.npy
Generate data from the file: 1324_ABlists_372_-28000_-27000_52000_58000
data_batch Changed:  5120
0, 1, 2, 3, 4, 5, 6, 7, 8, 9, Time consumed: 50.78064465522766 (s)
----------------------------------------------------------------
        Layer (type)               Output Shape         Param #
================================================================
            Linear-1              [-1, 1, 4096]       3,592,192
              ReLU-2              [-1, 1, 4096]               0
           Dropout-3              [-1, 1, 4096]               0
            Linear-4              [-1, 1, 2048]       8,390,656
              ReLU-5              [-1, 1, 2048]               0
           Dropout-6              [-1, 1, 2048]               0
            Linear-7              [-1, 1, 1024]       2,098,176
              ReLU-8              [-1, 1, 1024]               0
           Dropout-9              [-1, 1, 1024]               0
           Linear-10               [-1, 1, 512]         524,800
             ReLU-11               [-1, 1, 512]               0
          Dropout-12               [-1, 1, 512]               0
           Linear-13                [-1, 1, 10]           5,130
          Sigmoid-14                [-1, 1, 10]               0
================================================================
Total params: 14,610,954
Trainable params: 14,610,954
Non-trainable params: 0
----------------------------------------------------------------
Input size (MB): 0.00
Forward/backward pass size (MB): 0.18
Params size (MB): 55.74
Estimated Total Size (MB): 55.92
----------------------------------------------------------------
Training Start.. (Pre Process:False)
…
Epoch:   10  | Loss = 0.04458 | Val_loss: 0.04854 | Accuracy: 92.22 %
Training Done. 5.0063841342926025 (s)
Prediction..
Model Saved.
===================== Training Done. File: ABlists_372_-28000_-27000_52000_58000.npy
Generate data from the file: 1326_ABlists_373_-28000_-27000_58000_64000
data_batch Changed:  5120
0, 1, 2, 3, 4, 5, 6, 7, 8, 9, Time consumed: 69.03051328659058 (s)
----------------------------------------------------------------
        Layer (type)               Output Shape         Param #
================================================================
            Linear-1              [-1, 1, 4096]       4,423,680
              ReLU-2              [-1, 1, 4096]               0
           Dropout-3              [-1, 1, 4096]               0
            Linear-4              [-1, 1, 2048]       8,390,656
              ReLU-5              [-1, 1, 2048]               0
           Dropout-6              [-1, 1, 2048]               0
            Linear-7              [-1, 1, 1024]       2,098,176
              ReLU-8              [-1, 1, 1024]               0
           Dropout-9              [-1, 1, 1024]               0
           Linear-10               [-1, 1, 512]         524,800
             ReLU-11               [-1, 1, 512]               0
          Dropout-12               [-1, 1, 512]               0
           Linear-13                [-1, 1, 10]           5,130
          Sigmoid-14                [-1, 1, 10]               0
================================================================
Total params: 15,442,442
Trainable params: 15,442,442
Non-trainable params: 0
----------------------------------------------------------------
Input size (MB): 0.00
Forward/backward pass size (MB): 0.18
Params size (MB): 58.91
Estimated Total Size (MB): 59.09
----------------------------------------------------------------
Training Start.. (Pre Process:False)
…
Epoch:   13  | Loss = 0.04595 | Val_loss: 0.04993 | Accuracy: 92.08 %
Training Done. 9.254295110702515 (s)
Prediction..
Model Saved.
===================== Training Done. File: ABlists_373_-28000_-27000_58000_64000.npy
Generate data from the file: 1328_ABlists_374_-28000_-27000_64000_70000
data_batch Changed:  5120
0, 1, 2, 3, 4, 5, 6, 7, 8, 9, Time consumed: 67.54356527328491 (s)
----------------------------------------------------------------
        Layer (type)               Output Shape         Param #
================================================================
            Linear-1              [-1, 1, 4096]       4,984,832
              ReLU-2              [-1, 1, 4096]               0
           Dropout-3              [-1, 1, 4096]               0
            Linear-4              [-1, 1, 2048]       8,390,656
              ReLU-5              [-1, 1, 2048]               0
           Dropout-6              [-1, 1, 2048]               0
            Linear-7              [-1, 1, 1024]       2,098,176
              ReLU-8              [-1, 1, 1024]               0
           Dropout-9              [-1, 1, 1024]               0
           Linear-10               [-1, 1, 512]         524,800
             ReLU-11               [-1, 1, 512]               0
          Dropout-12               [-1, 1, 512]               0
           Linear-13                [-1, 1, 10]           5,130
          Sigmoid-14                [-1, 1, 10]               0
================================================================
Total params: 16,003,594
Trainable params: 16,003,594
Non-trainable params: 0
----------------------------------------------------------------
Input size (MB): 0.00
Forward/backward pass size (MB): 0.18
Params size (MB): 61.05
Estimated Total Size (MB): 61.23
----------------------------------------------------------------
Training Start.. (Pre Process:False)
…
Epoch:   10  | Loss = 0.04641 | Val_loss: 0.04898 | Accuracy: 92.07 %
Training Done. 4.98637580871582 (s)
Prediction..
Model Saved.
===================== Training Done. File: ABlists_383_-27000_-26000_50000_56000.npy
Generate data from the file: 1350_ABlists_384_-27000_-26000_56000_62000
data_batch Changed:  5120
0, 1, 2, 3, 4, 5, 6, 7, 8, 9, Time consumed: 60.56251573562622 (s)
----------------------------------------------------------------
        Layer (type)               Output Shape         Param #
================================================================
            Linear-1              [-1, 1, 4096]       4,149,248
              ReLU-2              [-1, 1, 4096]               0
           Dropout-3              [-1, 1, 4096]               0
            Linear-4              [-1, 1, 2048]       8,390,656
              ReLU-5              [-1, 1, 2048]               0
           Dropout-6              [-1, 1, 2048]               0
            Linear-7              [-1, 1, 1024]       2,098,176
              ReLU-8              [-1, 1, 1024]               0
           Dropout-9              [-1, 1, 1024]               0
           Linear-10               [-1, 1, 512]         524,800
             ReLU-11               [-1, 1, 512]               0
          Dropout-12               [-1, 1, 512]               0
           Linear-13                [-1, 1, 10]           5,130
          Sigmoid-14                [-1, 1, 10]               0
================================================================
Total params: 15,168,010
Trainable params: 15,168,010
Non-trainable params: 0
----------------------------------------------------------------
Input size (MB): 0.00
Forward/backward pass size (MB): 0.18
Params size (MB): 57.86
Estimated Total Size (MB): 58.04
----------------------------------------------------------------
Training Start.. (Pre Process:False)
…
Epoch:   22  | Loss = 0.04348 | Val_loss: 0.04284 | Accuracy: 92.38 %
Training Done. 16.259196996688843 (s)
Prediction..
Model Saved.
===================== Training Done. File: ABlists_385_-27000_-26000_62000_68000.npy
Generate data from the file: 1354_ABlists_386_-27000_-26000_68000_6000
PRE_PRECESSING Changed: False --> True, power: 8
0, 1, 2, 3, 4, 5, 6, 7, 8, 9, Time consumed: 77.81774711608887 (s)
----------------------------------------------------------------
        Layer (type)               Output Shape         Param #
================================================================
            Linear-1              [-1, 1, 4096]       5,406,720
              ReLU-2              [-1, 1, 4096]               0
           Dropout-3              [-1, 1, 4096]               0
            Linear-4              [-1, 1, 2048]       8,390,656
              ReLU-5              [-1, 1, 2048]               0
           Dropout-6              [-1, 1, 2048]               0
            Linear-7              [-1, 1, 1024]       2,098,176
              ReLU-8              [-1, 1, 1024]               0
           Dropout-9              [-1, 1, 1024]               0
           Linear-10               [-1, 1, 512]         524,800
             ReLU-11               [-1, 1, 512]               0
          Dropout-12               [-1, 1, 512]               0
           Linear-13                [-1, 1, 10]           5,130
          Sigmoid-14                [-1, 1, 10]               0
================================================================
Total params: 16,425,482
Trainable params: 16,425,482
Non-trainable params: 0
----------------------------------------------------------------
Input size (MB): 0.01
Forward/backward pass size (MB): 0.18
Params size (MB): 62.66
Estimated Total Size (MB): 62.84
----------------------------------------------------------------
Training Start.. (Pre Process:True)
…
